Bot/data_stock_keyword.pth (torch, 849311 bytes, 6 tensors)

l1.weight f4 [128, 1086]
00000000: 6228 8d3e fe38 563d fd16 dcbd b108 d9be
00000010: faaa febe 471e 8fbd b917 6d3e 6292 2abf
00000020: 7f61 36be f6d7 c9be ab47 36bf 83ef 68bf
00000030: 3414 0e3e fef5 00bf ef5a 2dbd 117f c7bd
00000040: 249f 50be ad25 01bf 7086 213e 32c6 393d
00000050: 96a9 6cbe c9f5 ec3d 61be 02bf f480 73be
00000060: 9b7c 91be 6fcb 26be 3b14 60bf c76b 8cbf
00000070: 8b8b b1be 83f4 0fbf 1aff 1e3e d4a7 d3bd
00000080: d998 47bd 2f2e 44be b4e2 15bf 99d4 45be
00000090: d47a 4c3e 082a 023e f180 a3bd 802e fa3d
000000a0: 8253 48be 9bcd d63c 9812 babd 711f e03e
000000b0: b730 8d3d 9dff 06bf 22fc 5ebe 52d0 78be
000000c0: 2129 c73d 61d4 c9be 1815 06bf 94d6 bdbd
000000d0: f8d2 29bf 8dc1 ecbe 8f9a 0ebf cb4f 8bbd
000000e0: 86d9 6f3f 7e53 05be b69c bbbe 5982 5e3d
000000f0: 4369 43bf 64c7 6b3e 7ec7 89bf 6532 563e
00000100: 22ad a5bc 3a50 12bd 732a b3be 0db4 343d
00000110: dd99 2a3d fa82 a2be 197a a2be 2ecb 06bf
00000120: 8f07 8abe 91cd 473e eaae d3bc 0edd acbe
00000130: 765a cfbd 8924 9a3e 3c11 a0be 56fb fd3d
00000140: 67e7 c5be b2eb 8d3e 9c8e ecbe fe34 de3e
00000150: 0a60 3dbe e557 cfbe 884e 863e ee26 c13d
00000160: 29fe 5bbd eead eebd 68f9 a6be d725 c3bd
00000170: bc30 92be 5ad2 e8be bc40 0cbe 018b 3cbe
00000180: 52b8 313e 89c1 1abf 21ed dcbe 01f6 0ebe
00000190: 24f7 cc3d f306 313e b6d6 53be eada d8be
000001a0: 20cd 90bd 72cf 1f3f cae4 b5be adf2 89be
000001b0: def2 f7bd 0da8 fd3a 0cc6 e3be 20e3 d0bd
000001c0: e276 fdbd 3457 dfbe d4c7 013e d66b 12be
000001d0: 2814 ebbd 08fb 0c3e a774 58be 65e8 57be
000001e0: 4651 403e 737f 30be c16f 5dbe 2585 0a3e
000001f0: 1bbd a23e 9528 63bd 36f9 afbe dea2 d1be
00000200: 3d62 07be 0cd7 c5be c286 88be fb1a 453e
00000210: 8347 b7be db38 98be f54b 80be 358a 31be
00000220: 4f70 9a3e 1e2e 293d aeb8 42be b1fa 2f3e
00000230: 6853 9ebd 379f 89be c82f 06bf acf7 a0be
00000240: 3ef7 9f3e 6b07 253d 96e9 80be 3907 d8be
00000250: cc03 0bbe c8ef 8dbd 7c12 7fbe b34f 7dbd
00000260: 74aa 4dbe 196d c03d faf9 3f3d 1379 c3be
00000270: 9f2c 2d3e 33c7 95bd bc9e 23bf d363 3abf
00000280: 38d0 54be 401e a73e a3a6 f1bd 8249 1cbf
00000290: 68d9 9d3d 1b2d 89be f3cf 61be 9b4a 6bbe
000002a0: af31 343d c6fb 07be 0c0f 21bd 3480 18bf
000002b0: d612 dcbd 8722 5e3e 3626 b13e 02e1 843f
000002c0: 279b c0be 6a6e 31bf 9b65 6a3e fda6 b3be
000002d0: 6b65 573e dbbc 97be 4ea8 2dbe 78bd 46bd
000002e0: 6767 c4be aa02 323e 26c3 fdbc 7ea2 843e
000002f0: 2cb8 82bd 1cd8 943c 35fc 6a3e 2977 90be
00000300: 9699 223f 67fc 07be d089 22bf 7e0c 193e
00000310: cb0d aabd 2b23 353e 97b9 3fbf a090 98be
00000320: fd44 11bf 54ee cdbd 0fcc 02be b7f7 06bf
00000330: b52d 9cbe 0f6a b6be 4872 7abe f20b 673f
00000340: e00c 11be 66a7 683d 20c0 5a3e 4537 e6be
00000350: f53f edbe f651 aebe 960a 7a3d 2556 67be
00000360: c926 1fbf aee2 7d3d e0b8 6bbd 131d 7dbd
00000370: 873c dcbe cabc e3be 4735 983c 646c 5ebf
00000380: 7e72 353e 4316 a2be bdd4 ebbe 1e45 09bf
00000390: 6d61 f3be b461 3b3d 1512 64bf b9e1 843d
000003a0: 03a7 b8be 33fb f3bd d63e a7be f5a4 953d
000003b0: d287 fdbd c7b2 0b3e 70c8 dcbe 71d9 d2be
000003c0: 7282 243d 1842 653e d8df 723e 9e3b 09be
000003d0: 5a9b 2cbf 013f cfbe 1343 573e 2fca 823e
000003e0: 62b0 e6be bebf 67bf 0d56 14bf 8429 70be
000003f0: 1304 49be d21c e3be bd88 223c 2150 cfbd
0.27569872 0.052300446 -0.10746572 -0.42389444 -0.4973982 -0.06988197 0.2315358 -0.6662961
-0.1781063 -0.39422578 -0.71203107 -0.90990466 0.13874894 -0.50375354 -0.04232305 -0.09741033
-0.20373207 -0.50448114 0.1577394 0.04535503 -0.23111567 0.11570317 -0.51071745 -0.2377966
-0.2841538 -0.16288541 -0.8753087 -1.0970391 -0.34676775 -0.5623247 0.15527001 -0.10334745
-0.04872975 -0.19158243 -0.58549047 -0.19319381 0.1996873 0.12711346 -0.07983578 0.122159004
-0.19563106 0.026221087 -0.09085578 0.43773988 0.06894057 -0.52733785 -0.21775869 -0.24298218
0.097246416 -0.39419845 -0.52375937 -0.09269443 -0.6633754 -0.46241418 -0.5570459 -0.06802329
0.9369129 -0.13020131 -0.36642998 0.054323528 -0.7633249 0.2302528 -1.0764005 0.20917661
-0.020224158 -0.03572104 -0.34993324 0.044117022 0.04165064 -0.31740552 -0.31733778 -0.5265378
-0.26958892 0.19512011 -0.025840241 -0.337624 -0.10124676 0.30106 -0.3126315 0.12401454
-0.38653108 0.27718884 -0.46202552 0.43399805 -0.18493667 -0.40496746 0.2623179 0.094312534
-0.053709183 -0.11654268 -0.32612157 -0.09528702 -0.28552806 -0.45472986 -0.13696569 -0.18412401
0.17355469 -0.6045156 -0.43149665 -0.1396103 0.10008076 0.17287807 -0.20687374 -0.42354518
-0.070703745 0.6242591 -0.35526115 -0.2694296 -0.1210687 0.0019352451 -0.44487035 -0.10199571
-0.12376191 -0.43621218 0.12673885 -0.14298949 -0.11478454 0.13767636 -0.2113825 -0.21084745
0.18781003 -0.17236118 -0.21624662 0.13527353 0.317849 -0.055458624 -0.3436982 -0.4094457
-0.13221069 -0.3864063 -0.26665312 0.19248573 -0.35796747 -0.29730877 -0.2505795 -0.17337878
0.3016381 0.041303746 -0.19015762 0.17185475 -0.07730752 -0.26879284 -0.5241666 -0.3143896
0.31243318 0.040290277 -0.25178212 -0.4219301 -0.13575667 -0.069305 -0.24909395 -0.061843585
-0.20084554 0.09395809 0.046869256 -0.3817831 0.16911553 -0.07313385 -0.63914084 -0.7280857
-0.20782554 0.32640266 -0.117993616 -0.61049664 0.077074826 -0.26792225 -0.22051983 -0.22977678
0.043992694 -0.13279638 -0.03932099 -0.5957062 -0.1074578 0.21692859 0.34599465 1.0381167
-0.37618372 -0.69309103 0.22890322 -0.3508834 0.21034782 -0.29636273 -0.16958734 -0.048520535
-0.3836014 0.17383829 -0.030976843 0.25905222 -0.06382784 0.018169455 0.22947772 -0.28215912
0.63515604 -0.13279878 -0.63491535 0.14946172 -0.08303412 0.17689197 -0.7489256 -0.2979784
-0.5674589 -0.10055223 -0.12773155 -0.5272173 -0.30503622 -0.3562779 -0.24457657 0.902526
-0.14165068 0.05680027 0.21362352 -0.44964042 -0.46337858 -0.34046906 0.06104525 -0.22591455
-0.62168556 0.061983757 -0.057549357 -0.061795305 -0.4301493 -0.44479972 0.018580092 -0.8688414
0.17719457 -0.3165761 -0.46060744 -0.5362109 -0.47535267 0.045747474 -0.8909009 0.06488366
-0.3606492 -0.11913147 -0.32665128 0.07306854 -0.12379421 0.13642417 -0.43121672 -0.4118152
0.040163465 0.22388494 0.23718202 -0.13401648 -0.6742455 -0.40477756 0.2102168 0.2554488
-0.45056444 -0.9052695 -0.57943803 -0.23453337 -0.1963046 -0.44357926 0.009920296 -0.10122705

l1.bias f4 [128]
00000000: 28c1 423e 9351 a73b 4751 cbbe 0ad8 853d
00000010: fc6b 193d 68af a3be 6dde d33b 7bf7 b63d
00000020: c6e5 763e db24 353d 6449 18bd 9280 9dbd
00000030: ea01 26bd 6e36 48bd 712a ab3d 9b97 0f3c
00000040: f755 243e 7546 72be 9bb8 6f3e 5c23 d03c
00000050: da04 d1bd 7a39 cdbd 8148 85bd 9d40 95bd
00000060: edc9 a9be bcfe 553d 598c d63d dcb2 18be
00000070: 8a64 073d 5b02 913d 8b9e 97bd 1164 a83d
00000080: 48bc da3c 5ca7 e73e 037d 6f3f a66b 28be
00000090: fcd1 71bd 59f1 8d3c b9c2 93be f81c 32be
000000a0: b961 dc3d 2220 ccbd ffda bebc 257f 32bf
000000b0: df03 843e f80e 87be 6ecf 793d 5694 5d3e
000000c0: 6a00 183e 45e4 51be 8f85 bb3d 371e 1bbc
000000d0: 5e09 09be 024b f13d 7c34 393c 65dc e2bd
000000e0: 64f5 a33d d286 0c3e 65f5 cabd 9f96 9ebe
000000f0: 827c ac3e 4ddc d53d 2e38 02be 13f7 8e3f
00000100: fb49 263e 64b7 24be c095 e1be 87f9 b03d
00000110: a88a b93d 0934 9c3e 957c fc3d bd5f 92bd
00000120: dc3c 8abd 1aa0 503e de28 61be 3878 0abe
00000130: 4e5f 843c 5456 ee3d 3fba 793d b3e2 78be
00000140: a77c 333d afe4 a5bd 3977 bb3e cd97 273e
00000150: 8f43 413e 8dbc 093e 276a ecbd 79df dd3d
00000160: a380 92bf 55c2 77bd b6c4 a6bc 0c6e c9bc
00000170: ae16 4abe 5ac5 973c f405 83bd dc0b a23d
00000180: 4034 28be b2e6 7b3e c20f c6bc fee4 103e
00000190: 252f 683e 178d e4bd 6501 a83d 81d3 40be
000001a0: dfa6 00be 25e1 3a3e 8f9b adbd 0575 bbbd
000001b0: 4320 423e 05d8 2fbb f31a 07be 0af3 423d
000001c0: ebd4 d13d e236 37bb 32c1 3fbe 2d1b 01be
000001d0: f32f a63e 5dd2 babd 273b a83e 6373 4abe
000001e0: 80e5 05bd f83b fd3c 4a1e 95bd 09a2 82be
000001f0: 411e 6e3e f5d0 44be 3c64 10be d6d1 143e
0.19018996 0.00510616 -0.39710447 0.06535347 0.037456498 -0.31969762 0.006465724 0.08933922
0.24111089 0.0442246 -0.037179366 -0.076905385 -0.04052917 -0.048880033 0.083577044 0.008764173
0.16048418 -0.2365969 0.23410265 0.025407486 -0.102060035 -0.100207284 -0.0650797 -0.07287715
-0.3316187 0.052244887 0.10475988 -0.1491198 0.033054866 0.070805274 -0.074032865 0.08222211
0.026701108 0.45244873 0.9355013 -0.16447315 -0.059038147 0.017326998 -0.288595 -0.17393863
0.107608266 -0.09967066 -0.023297785 -0.6972526 0.25784203 -0.26378608 0.060988836 0.21638617
0.14843908 -0.20497234 0.09156334 -0.009467653 -0.1338248 0.11781885 0.011304017 -0.11077193
0.08005789 0.13723305 -0.099100865 -0.3097429 0.33688742 0.1044241 -0.12716743 1.1169151
0.16239159 -0.16085583 -0.44059563 0.086413436 0.0905965 0.3050845 0.1232845 -0.07147167
-0.06749889 0.20373574 -0.21988246 -0.13522422 0.016158726 0.116375595 0.060968634 -0.24305229
0.04382005 -0.081002586 0.36614397 0.16366501 0.18873428 0.13450833 -0.115436845 0.1083364
-1.1445507 -0.060488064 -0.020357471 -0.024588607 -0.19735214 0.018526722 -0.0639762 0.07912418
-0.16426182 0.24599722 -0.024177436 0.14149854 0.22674234 -0.11159723 0.08203391 -0.18830682
-0.12563656 0.18249948 -0.08476936 -0.09153179 0.1895762 -0.0026831639 -0.13193874 0.04759506
0.10245689 -0.0027956297 -0.18726042 -0.12608023 0.32458457 -0.09122155 0.3285763 -0.19770579
-0.03268957 0.030912384 -0.07281168 -0.25514248 0.23253728 -0.19220336 -0.14100736 0.14533171

l2.weight f4 [128, 128]
00000000: 8f73 22be dc50 90be 0d37 7fbd a4d9 2a3e
00000010: 164c 853d 6990 0d3d 7e1c cebe d29f 67be
00000020: e12d dabe baa3 f8be 0bde 903e 7159 7fbd
00000030: 2c16 623e b96a ad3e de15 503f 3901 3bbe
00000040: 77bf bf3d 6613 393e c6d9 233f 21e2 68be
00000050: 6734 a4be 72f7 463e 6025 30be 94fc e0be
00000060: 8c77 e83e af28 eb3c db25 913e c4a0 edbe
00000070: 74e3 bbbe f084 933e 0d3f 023d c6c6 3fbf
00000080: b28b 15bf 2371 d6be 92c2 193f c3b4 79bf
00000090: 6340 0dbd f12f 493f cef7 04bf 4cc8 e13e
000000a0: f8b1 083f 622c b1be 7b24 503e 7dc9 503f
000000b0: e96e 713d 44ac ccbd eadb 243f 5c28 253f
000000c0: e4ef dd3e d3d6 5e39 177f 33bf 37da 8e3f
000000d0: da08 81bd 3e64 003d 9748 b23e 7b12 40be
000000e0: 167a 03bf d6f3 64be c329 973e cd36 b43e
000000f0: 4feb 3f3f 309b 9e3e ddc8 893e 4762 163f
00000100: 245c 9ebe 8fed c63e 74da 3cbf 17fc d8bd
00000110: 26af 19bf fdfb b9be 3ecc f73e 464b 193f
00000120: 38ee 403e f2d9 6abf 281a 52be ef61 033c
00000130: 9427 a0bd 9c7a f03e c2f7 053f a27f 4cbf
00000140: 674a 0dbf a048 bfbe f96e 583d da66 913e
00000150: b4d9 153f dbaa 273c 2ad5 93be 885f 12be
00000160: bfa8 18be 1e77 dc3e a1d8 6cbe 4b07 11bf
00000170: 5a21 ec3d 1f88 aa3d c612 ab3e e9ee f2be
00000180: 1e25 b5be 3278 c9bb 628a 35bf 3357 5abf
00000190: e112 97bd 9c44 6b3e d035 25bf 1620 093f
000001a0: 954e 9fbe 517e 2c3f fe3d 463f 1231 d9be
000001b0: 9ac9 b43d 46ac 82be ae3f 65be 3631 e93c
000001c0: abc2 363e abfd 7abe f6a9 033f f8c5 723e
000001d0: a2c4 bf3e 7a9d 693f 3061 23bf 1519 a8be
000001e0: 788a 3f3f 58d9 143e b4e6 173f 87c8 a23e
000001f0: 4e80 18bd b27f f03e eeb5 58bc 0ffe 273e
00000200: 16b7 903d e16f e73e 3813 3a3f 211e 68bf
00000210: 73f1 bf3d 1fcd 22bd f8fb 24be 5511 9b3e
00000220: de39 27bf 0289 aabe e685 723f cdb2 fa3e
00000230: 417d b33e 6de6 4c3f 8710 ce3d d09e cfbc
00000240: ea9d 83be 3952 29bf 3783 2a3f 49dd dabe
00000250: 892d 4ebd ab09 e8be 1d1d 323f f6d6 9bbe
00000260: d559 9cbe b582 283f 976c 24bf da4f 24be
00000270: 13bf 7abe be74 30bd e0e2 a1bd 9137 083d
00000280: 8d87 e2be 17ec ff3d d76c 833d 0a34 543e
00000290: dddb 0ebd bdb9 f1bd 808c 54bf 3f78 2fbf
000002a0: 7bf0 e63c 894a 02bf 189e 09be b885 223f
000002b0: 2983 d1bd 4632 7cbf e28d a03e daf9 78be
000002c0: 84a8 823e cdfb 033e 4768 e93e a325 34bf
000002d0: 5ff7 5d3f 9629 953e d5cf 263f 169d 153f
000002e0: 8799 b8be 6eca a23e 8fff a33d 411d 7c3b
000002f0: e1f3 a8bf 7dfb 5a3e 7a99 8ebe a2fa 19bf
00000300: 0bdd 6a3e 2665 d9be 2206 a43e 8f88 e6be
00000310: 5e20 49bf fbe7 893d d833 073f a1e3 d53e
00000320: 35d5 acbd ff9d a5be e422 0cbf 8841 82be
00000330: 852f 183f a926 1cbf ca8f 223f 4968 183d
00000340: 7747 aabe 268d 0ebe c421 18bf 560e 1e3e
00000350: 3fd7 373f e8c0 20bf ea97 4c3d 65e5 0a3e
00000360: 7ce9 033d e221 6d3f f8e2 11bd c91c 2dbf
00000370: ccda 223e 2866 fd3e fcc6 063f 4506 2a3e
00000380: 20a0 a4bc 17cf 12be af44 b3be b532 833e
00000390: 741d cb3e 390d b8be 8a23 67be 7381 6dbf
000003a0: 5fdd a2be fd2d bf3e b49b 01bf 20a5 bd3b
000003b0: c671 72be 6dbd 683e 19ea 0c3f 861c 973e
000003c0: 90b6 c2be fe92 88be 1230 0ebe c8d8 9ebd
000003d0: 1bab b9be d807 98be 6724 4dbe 4c46 91be
000003e0: d119 9dbe 1175 37bd 1a47 f3be 2ae1 b33e
000003f0: 3487 e83e 3dca 093e 1ad2 c23e d110 21bf
-0.15864395 -0.2818669 -0.06230836 0.16684586 0.06508653 0.03456155 -0.40256113 -0.2261956
-0.42613128 -0.48562413 0.28294405 -0.062341157 0.2207877 0.33870485 0.81283367 -0.18262185
0.09362691 0.18073806 0.6400417 -0.22742511 -0.3207123 0.1943033 -0.17201757 -0.43942702
0.45403707 0.028705923 0.28349194 -0.46411717 -0.3669697 0.2881236 0.03179841 -0.7491268
-0.58416283 -0.4188319 0.60062516 -0.97541445 -0.034485232 0.7858878 -0.5194062 0.44098127
0.5339656 -0.34604174 0.20326416 0.81557447 0.058943663 -0.099937946 0.6439806 0.6451471
0.43347085 0.00021251598 -0.701158 1.1160344 -0.063005164 0.0313456 0.34821007 -0.1875705
-0.51358163 -0.22358641 0.2952405 0.3519806 0.7496843 0.30977774 0.2691106 0.5874371
-0.30929673 0.38853118 -0.73770833 -0.10594957 -0.6003288 -0.36325064 0.48398012 0.59880483
0.18840873 -0.9173881 -0.2051779 0.008018955 -0.07820049 0.46968544 0.52331173 -0.7988225
-0.55191654 -0.37360096 0.052840207 0.28398782 0.58535314 0.010233606 -0.2887357 -0.14294255
-0.14908122 0.4305963 -0.23129512 -0.56651753 0.11529799 0.08326744 0.3341276 -0.474479
-0.3537988 -0.0061483616 -0.7091428 -0.85289305 -0.07376648 0.22975391 -0.64535236 0.53564584
-0.3111464 0.67380244 0.7743834 -0.4242025 0.08827515 -0.2552206 -0.22387573 0.028465848
0.17847697 -0.24510829 0.51431215 0.23708332 0.37454706 0.91255915 -0.6382017 -0.32831636
0.7482066 0.14536035 0.593364 0.31793615 -0.037231736 0.46972424 -0.013226969 0.1640551
0.07066171 0.45202544 0.72685575 -0.90670973 0.09372225 -0.0397464 -0.16111743 0.3028666
-0.65322673 -0.33307654 0.9473556 0.4896454 0.350565 0.800391 0.10061746 -0.025344282
-0.25706416 -0.66141087 0.6660647 -0.42746952 -0.050336394 -0.45319876 0.69575673 -0.3043744
-0.30537286 0.65824443 -0.64228195 -0.16046086 -0.24486952 -0.043080084 -0.07904601 0.033256117
-0.44244042 0.124962024 0.06417244 0.20722976 -0.034877647 -0.11803005 -0.83026886 -0.68542856
0.028190842 -0.5089498 -0.13439214 0.6348529 -0.10230095 -0.9851421 0.31358248 -0.24314061
0.25519192 0.12889023 0.4558737 -0.7036993 0.86705583 0.2913329 0.65160877 0.5844282
-0.36054632 0.31795067 0.08007728 0.0038469585 -1.3199426 0.21384998 -0.27851468 -0.6014806
0.22935884 -0.42459983 0.3203593 -0.4502606 -0.78565013 0.067337 0.5281348 0.4177523
-0.084391035 -0.32347104 -0.5474074 -0.2544062 0.5944751 -0.6099649 0.63500655 0.03720883
-0.33257648 -0.13921031 -0.5942652 0.15435156 0.71812814 -0.6279435 0.049949564 0.1356407
0.03220509 0.92629826 -0.035616845 -0.6762205 0.15903777 0.49492002 0.52647376 0.16603954
-0.020095885 -0.14336811 -0.3501334 0.25624624 0.39670908 -0.35947588 -0.22572151 -0.9277565
-0.31809518 0.37339774 -0.5062821 0.0057875067 -0.23676214 0.2272851 0.55044705 0.2951395
-0.3802991 -0.26674646 -0.13885525 -0.077561915 -0.36263356 -0.29693484 -0.20033418 -0.28373945
-0.3068376 -0.044789378 -0.47515184 0.35132724 0.45415652 0.13456054 0.3805092 -0.62916285

l2.bias f4 [128]
00000000: c3e1 63bf 6601 413f 802d 313f aa9d f0be
00000010: 0cdc 323f 6e2f afbe 92a6 e93e e795 6c3f
00000020: 43cd a53e fb44 f0be 6e6c 3ebf fcaa 1cbf
00000030: 764b 11bf 76e4 28bf 6030 ff3e 456a dd3e
00000040: 5661 653f 1ec4 1bbf f15d b4be e732 f43e
00000050: 9836 09bf 3943 e73e 2e89 a03e 4968 1cbf
00000060: 5c74 d7be 77ca ef3e 9ffc bb3d 1376 debe
00000070: 265e 28bf bf9d 4fbf 694f 19bf 6d8a 6bbf
00000080: a46c 2dbe 7a12 cebe 5f6d 01bf 108c 39bf
00000090: d44d ed3e 81b9 223f b9e2 04bf 0277 3a3f
000000a0: 6866 31bf bf60 a2be 65f0 2d3e bc5a 9cbd
000000b0: 559a 2e3f 0940 823e bf51 453f 8a58 46bf
000000c0: 2129 2dbf ee1b 3dbf a902 2dbf 1b33 43bf
000000d0: 50eb 333f 791b 07bf 322f 363f 5d56 c13e
000000e0: 6f7a 25bf e723 60be c1e9 3a3f 0de8 cabe
000000f0: 4ff7 16bf f338 d43e 98bf 11bf faa9 cebe
00000100: cf3b 3dbf 048c 163f d0a9 0fbf bc85 363f
00000110: d386 363f 4884 343f 16b0 db3d a5b0 3c3f
00000120: 254d ddbe 5dd8 45be b49f 0e3e 127f 0bbf
00000130: a158 11bf 5231 2fbf 2985 513f e9d0 00bf
00000140: 8558 5bbf b8d4 403f 55fb df3e a061 1bbf
00000150: d848 c6be 57cc 583f 3816 73be 11d8 b9be
00000160: 2215 40bf 2e7f 093f f725 78bf e5a9 07bf
00000170: 2699 fdbe 03af 3c3f 4bdc ebbe a05a 6f3d
00000180: 11e8 643e b90b 1fbe eb6a 583f cbf6 563f
00000190: 7edd b23e c507 253d fdec 41bf 7be2 4b3f
000001a0: 225c 4e3f 0806 763f c102 4abf f182 7abd
000001b0: d8cf 493f a12e 4ebf cac9 2dbf fbe4 f13c
000001c0: 0642 043f c6c3 393f 49e0 6cbf 14db ee3e
000001d0: 0471 25bf a1a5 5b3f b9f9 8f3e 1ab3 7b3f
000001e0: fb86 4e3f fbaa 16bf 776c 46be e7e9 25bf
000001f0: 540f 7c3d 233e 293f 2bd6 433f 2d5e 49bf
-0.8901636 0.7539276 0.6921005 -0.46995288 0.69867015 -0.34215873 0.45634896 0.9241623
0.32383165 -0.46927628 -0.743842 -0.611984 -0.5675577 -0.65973604 0.49841595 0.4324514
0.8960165 -0.60846126 -0.35227922 0.47695085 -0.5359893 0.45168474 0.3135466 -0.61096627
-0.42080963 0.46834156 0.09179043 -0.43449458 -0.6576866 -0.81100076 -0.59886795 -0.92008096
-0.16935974 -0.40248471 -0.5055751 -0.72479343 0.4634844 0.63564306 -0.5190845 0.7283784
-0.69296885 -0.31714436 0.16986234 -0.07634494 0.6820424 0.2543948 0.7707786 -0.7747885
-0.6764088 -0.7387074 -0.67582184 -0.76249856 0.70280933 -0.52776295 0.71165764 0.37761202
-0.64639944 -0.21888696 0.7301293 -0.39630166 -0.5897111 0.414497 -0.56932974 -0.40364057
-0.73919386 0.58807397 -0.5611849 0.7129781 0.71299475 0.70514345 0.10726945 0.7370704
-0.4322292 -0.19320817 0.1392811 -0.5449077 -0.5677586 -0.6843463 0.8184381 -0.5031877
-0.85681945 0.75324583 0.4374644 -0.6069584 -0.3872745 0.846868 -0.23738945 -0.36297658
-0.75032246 0.53709686 -0.9693293 -0.52993613 -0.49530905 0.73704547 -0.46066508 0.058436036
0.22354151 -0.15531816 0.84538144 0.83970326 0.3493461 0.040290613 -0.7575224 0.79642457
0.80609334 0.9610295 -0.7891045 -0.06116003 0.7883277 -0.805399 -0.6788603 0.029528132
0.51663244 0.7256435 -0.9252973 0.46651518 -0.64625573 0.85799605 0.2812021 0.9832016
0.80674714 -0.58854645 -0.19377314 -0.6481003 0.061538056 0.6611044 0.7649867 -0.78659326

l3.weight f4 [396, 128]
00000000: 1969 843d f4e8 50bf bc1f 11bf 643d 6c3c
00000010: 5072 7d3d d520 cabe 8613 163e 53b5 01bc
00000020: 49c5 4e3e 71c2 483f 0821 a43e 589e e33d
00000030: b7ca fc3d 4b00 973d 46d7 48be 4127 f13c
00000040: ba0c 23bf 6a81 6d3d 392b 243f c229 e23d
00000050: bac7 59bd 9bce 1dbf 491f c23e 8b09 2d3e
00000060: 8029 89be 81fc a3be 41e9 02bf 4ec7 f83e
00000070: 0606 47be c39a 11be ad3f 823f f36b a03e
00000080: 7a16 02bf df01 c63e da12 1fbd 8adb 3fbe
00000090: 1b83 e7bd 8643 5abe 64b8 1bbe f619 51bf
000000a0: 3df6 703f 4fda 983e 3af3 993e d086 9cbe
000000b0: 8f45 95bb 5d56 a13e 29ff ce3d 8cb2 d03e
000000c0: 4309 823f c5ac a03e 2894 073e eaa8 68bd
000000d0: fe36 5d3d ef4e dfbd 57a0 b03c c54f 463e
000000e0: b000 073e 8b21 45be 1775 3abd f58c 50be
000000f0: 2ee9 cd3e ead0 ecbe b3f5 5b3e 224d 113f
00000100: 2872 9d3d c5e1 d6be 23d3 b23e b338 fe3d
00000110: 35a0 0abe bf70 0f3e 36cf 1cbf 520f c9bd
00000120: 6a69 92be f67c 8f3e 20d5 b7be f926 fb3d
00000130: de12 953f 1557 0f3f 45af 89be f1ae 053f
00000140: fc0f 2d3d ac48 14be 6476 703d 01b1 153c
00000150: 5a95 f33e 5f57 3abe 1dab 863e 4c9c 0e3f
00000160: 3b07 773f b3b1 0dbf 36ab b33e ebcb 743e
00000170: c76b 64be ce34 983d d6b9 81be f9c3 65be
00000180: b780 8a3e 1894 243f 2091 4cbf 9ef0 993a
00000190: 74a8 34bc d317 82be f1cb 863e 71e7 bdbd
000001a0: 9833 1fbf ecdb 7abf 3b02 40be b956 c1be
000001b0: f261 a2be 6872 bc3e ed8b 313e 9299 6ebe
000001c0: c870 82be bc86 49bf 8a92 9d3d 1617 e3be
000001d0: b755 f93e 95f6 a5bc 4010 563e 66e2 81bf
000001e0: 8123 3abf 9d03 e63e dc89 993e d76d 923d
000001f0: 25bf 713e bd17 f03d 8c6c f1be 316f fc3e
00000200: 4ce7 233c 1ae8 34bd 1f6f 49bf b258 b6bc
00000210: 22d1 d63a 4bcb f4bd 6217 cf3e 780f 19be
00000220: 143a 9ebe 4557 64be ebf3 b03d 94c0 683e
00000230: ac74 863e 438b ee3d a38a 1bbf 2f1d b53e
00000240: 0029 1cbe 630d c63c 17ee 27be ad3e 16bf
00000250: e935 f13e 9d94 0b3d 232c 2fbf 5f51 903e
00000260: 02f8 1abe 55de 8ebf 3525 d03e 54dd c8be
00000270: e806 193f d3bb 203f b11e 803f 511a 5e3f
00000280: d4d9 d73e a873 c43e 74f1 9dbe 3397 753f
00000290: 11d1 4abe 8b27 9dbf ebc3 f3bd fd7f 953d
000002a0: 236d 9f3e fc44 ccbd fc0d 4c3e 6358 f63e
000002b0: d7ce 7c3c 46d7 e9be cb8b 34be 3713 173f
000002c0: 5d6d 8cbc 347e 123b 5402 273e 8617 0e3e
000002d0: 218c c8be fa30 ecbd 3326 f4bc 01bb f8be
000002e0: 7854 4b3f 801f 223f 28ce 7a3e cc46 103f
000002f0: c575 c33d 5d3c 1b3e 9438 3b3f 5eca a5be
00000300: caff 733d 8b38 c83d 52ae 243f c845 1a3e
00000310: 1aba 83bf 0c45 4dbf a10d fdbe 1592 eb3d
00000320: 8d12 c13e 4b8a d1be cd25 32bc ff0f 9a3e
00000330: 1549 0a3f a804 8dbc 7606 4fbe 6a9f 20be
00000340: bbaa 973e f614 01bf feb1 0ebf d324 7b3e
00000350: 0a7e b83e 96e4 d4be b7e4 ca3e aad2 91bd
00000360: 8051 4e3e 1718 16bf 624f 883e fe31 85be
00000370: 9cda 113f b01b 31bf caaf b43e 7331 69be
00000380: c6b0 01bf 9b34 6ebd c4ed 97be a907 2cbf
00000390: 7e99 a43d 4ac8 04bf 78ae d33e fca5 8fbd
000003a0: 1513 89bc eb65 02be b785 dc3d 9535 053f
000003b0: 02a3 8cbe 6ba3 bd3e c01b 863f 0f8e c83e
000003c0: 9ad3 b2be ac48 26bf a57c 1cbe b594 17bf
000003d0: aca2 3f3e d34c 98be 65db ee3e 1c76 0bbe
000003e0: 69cd 1dbf fecf d03d 0c1c 6bbe dcac 6b3e
000003f0: 523d 053f 595d 853d c5a4 fd3c 4523 6b3f
0.06465358 -0.8160546 -0.5668905 0.014418934 0.061876595 -0.39478174 0.14655885 -0.007916766
0.20192446 0.78421694 0.3205645 0.11114186 0.12343352 0.07373103 -0.1961337 0.029437663
-0.63691294 0.057984747 0.6412845 0.11043121 -0.05316899 -0.6164338 0.37914494 0.16898172
-0.26789474 -0.32028583 -0.5113717 0.48589557 -0.19435892 -0.14219193 1.0175682 0.3133236
-0.50815547 0.38673303 -0.038836338 -0.18736091 -0.11304303 -0.2131482 -0.15207058 -0.8168024
0.9412573 0.29854056 0.3006838 -0.30571604 -0.004555411 0.31511202 0.10107262 0.4076122
1.0159076 0.31381813 0.13240111 -0.056801714 0.054007523 -0.10903727 0.021560831 0.19366367
0.13183856 -0.19251077 -0.04552182 -0.20366271 0.40216964 -0.4625314 0.21480446 0.5675832
0.07687789 -0.41969123 0.3492671 0.12413158 -0.13537677 0.14007853 -0.6125368 -0.09817375
-0.2859605 0.28025025 -0.3590479 0.12263293 1.1646383 0.5599225 -0.26891533 0.52220064
0.042251572 -0.14480847 0.058706656 0.009136439 0.47574884 -0.18197392 0.26302424 0.5570724
0.9649541 -0.5534927 0.3509156 0.23905914 -0.22306739 0.07431947 -0.25337094 -0.22438039
0.27051327 0.64288473 -0.79908943 0.0011744683 -0.0110264905 -0.254088 0.2632747 -0.092726596
-0.621881 -0.97991824 -0.18750851 -0.37761477 -0.3171535 0.36806035 0.17338534 -0.2330077
-0.2547667 -0.78721213 0.07693966 -0.4435355 0.48698208 -0.020259181 0.20904636 -1.0147216
-0.72710425 0.44924632 0.2998799 0.071498565 0.23608072 0.11723278 -0.47153127 0.49303582
0.010003876 -0.04416666 -0.7868518 -0.02225909 0.0016389231 -0.119528376 0.40447527 -0.14947307
-0.30903685 -0.22298916 0.08640274 0.22729713 0.2626089 0.11647656 -0.6075842 0.35373828
-0.15250015 0.024176305 -0.16399418 -0.58689386 0.47111443 0.034077276 -0.6842672 0.2818708
-0.1513367 -1.11616 0.40653387 -0.3923136 0.59776163 0.62786597 1.0009366 0.86758906
0.42158377 0.3836949 -0.30848277 0.95933837 -0.19806315 -1.2277693 -0.11902603 0.072998025
0.31137952 -0.09974095 0.1992721 0.4811431 0.015430174 -0.45672053 -0.17631452 0.59013695
-0.017141992 0.0022353055 0.16309482 0.13876161 -0.3916941 -0.11532779 -0.029803371 -0.48580173
0.79425764 0.63329315 0.24492705 0.5635803 0.09543947 0.15159746 0.73133206 -0.32380956
0.05957011 0.0977641 0.6432849 0.15065682 -1.0291169 -0.8018348 -0.4942446 0.11502472
0.37709466 -0.40925822 -0.01087327 0.3009033 0.54017764 -0.017214134 -0.20217308 -0.15685812
0.29622445 -0.5042261 -0.55740345 0.24525766 0.3603366 -0.41580647 0.3962762 -0.07120259
0.20148277 -0.5863051 0.26623064 -0.26014704 0.56974196 -0.6918287 0.35290366 -0.2277277
-0.5066036 -0.058155637 -0.29673588 -0.6719919 0.08037089 -0.51868117 0.41344047 -0.07014081
-0.016732732 -0.12734191 0.107676916 0.52034885 -0.27468115 0.3703874 1.0477219 0.39170882
-0.34927064 -0.6495464 -0.15281923 -0.59211284 0.18714398 -0.29746112 0.4665176 -0.13619274
-0.61641556 0.10195921 -0.22959918 0.2301516 0.5204669 0.06511945 0.030962357 0.9185069

l3.bias f4 [396]
00000000: 9722 2ac0 f6da 29c0 0b5f 2cc0 ff90 2dc0
00000010: 9e06 12c0 4b06 1cc0 7baa 2dc0 0bfd 24c0
00000020: 2429 2ac0 5487 26c0 5f0f 27c0 03a4 2ec0
00000030: 0e63 94bf 4968 1fc0 12eb 16c0 d5a2 25c0
00000040: 661a 25c0 dd7e 2bc0 83af 23c0 b71a 18c0
00000050: 9913 1fc0 59a5 31c0 710d 23c0 e7a3 23c0
00000060: fbc6 17c0 4f80 23c0 2225 29c0 a284 2ac0
00000070: 437e 2ac0 6b87 a8bf 9695 22c0 99f3 2ec0
00000080: e68a 36c0 b213 0bc0 5573 23c0 8958 2dc0
00000090: 6151 1fc0 f11a 17c0 c6b6 19c0 09e8 29c0
000000a0: 9299 23c0 6627 33c0 ba72 1bc0 e294 2dc0
000000b0: 257a 19c0 f4c7 26c0 0e8a 2ec0 2882 24c0
000000c0: 97c2 30c0 4a49 25c0 2009 35c0 68ad 20c0
000000d0: 8ee1 2dc0 1703 2ac0 6a86 12c0 74a5 15c0
000000e0: 0c33 2ac0 b022 33c0 381d 1dc0 1cfc 1ec0
000000f0: 0046 2fc0 e88b 17c0 5640 20c0 3548 20c0
00000100: c920 1fc0 d066 2ec0 8f15 22c0 18e3 26c0
00000110: ddb2 24c0 4d96 15c0 c52f 23c0 28a1 2bc0
00000120: d33e 2ec0 aa03 2ac0 6aa5 1bc0 f9b6 2bc0
00000130: aa9b 19c0 7d46 37c0 1f6a 1ac0 7d5d 22c0
00000140: 7da3 2bc0 ac66 1bc0 feed 2cc0 2e40 11c0
00000150: 5d67 22c0 6166 1cc0 d207 21c0 7517 1ac0
00000160: 0530 21c0 a52a 1ec0 06ca 1ec0 cc9f 1bc0
00000170: dd62 27c0 7640 31c0 d6cc 33c0 aaa8 24c0
00000180: 8c97 2dc0 c09a 29c0 c0c7 20c0 69a0 19c0
00000190: f5f5 19c0 4b5f 0ec0 54fa 2bc0 4100 23c0
000001a0: 80fd 17c0 3abb 1dc0 2d72 2bc0 63f1 2fc0
000001b0: 0834 27c0 f9fb 2fc0 5b27 b0bf 51cb 2fc0
000001c0: 1ca2 20c0 adf4 9cbf ccf3 1bc0 73c5 15c0
000001d0: bea0 28c0 56e3 2ec0 3f68 20c0 72ad 2ac0
000001e0: 0fc0 18c0 8f62 27c0 37f8 2fc0 a873 2fc0
000001f0: a73f 36c0 6e30 25c0 2ce0 19c0 a5c6 1dc0
00000200: 5b69 22c0 31cc 28c0 a856 2dc0 9066 23c0
00000210: 2947 21c0 4abb 1bc0 998b 1dc0 2e18 27c0
00000220: ec28 23c0 4fe4 33c0 ffac 15c0 d23b 28c0
00000230: d96d 2ec0 3f1f 24c0 90eb 36c0 abf2 19c0
00000240: d47b 27c0 3877 13c0 7877 2dc0 6458 36c0
00000250: 9616 28c0 91b6 2bc0 fa37 20c0 2c53 25c0
00000260: 9433 3bc0 9a0f 33c0 cf5e 2fc0 7cd0 2ec0
00000270: cb35 24c0 4a43 2cc0 c71a 2bc0 b67a 24c0
00000280: cce8 15c0 a0fa 2bc0 da23 2bc0 aed7 1dc0
00000290: 7aab 16c0 2f4d 20c0 effb 34c0 6168 24c0
000002a0: 5d6d 23c0 d71e 29c0 8271 33c0 feab 26c0
000002b0: f4e2 22c0 ad64 23c0 e735 2ec0 4401 25c0
000002c0: 39c5 2cc0 deb5 2cc0 5832 28c0 5c3e 1bc0
000002d0: f68c 1cc0 486c 24c0 511f aabf c86a 21c0
000002e0: f377 24c0 7d30 25c0 8222 1fc0 da87 1cc0
000002f0: de7a 2dc0 90c5 1cc0 8268 2dc0 4b15 28c0
00000300: 4fd1 1ec0 2f03 2ac0 8dcf 28c0 2ee4 20c0
00000310: 2717 22c0 9226 23c0 0c54 22c0 8fa2 2cc0
00000320: 2f52 0fc0 c3f4 1dc0 1c69 2fc0 ec70 19c0
00000330: caff 2bc0 3725 1ac0 098f 38c0 c0cc 1bc0
00000340: c057 a6bf b40e 15c0 92ab 22c0 0448 2dc0
00000350: b7a3 2dc0 c7f7 26c0 0cf3 1dc0 8416 0fc0
00000360: 8201 1ec0 818e 35c0 98b1 24c0 3e09 22c0
00000370: 9afc 2bc0 4375 28c0 e828 24c0 480c 2ec0
00000380: c676 1bc0 b658 29c0 8e6f 25c0 074a 25c0
00000390: 966c 23c0 6392 27c0 e8f3 16c0 2564 30c0
000003a0: ff0d 29c0 07c9 29c0 4826 22c0 d5f1 1ec0
000003b0: 2ca6 22c0 7804 24c0 ae80 23c0 f549 1bc0
000003c0: 7075 2fc0 d3c0 1dc0 9d0e 30c0 b043 1ec0
000003d0: 0707 33c0 6d6c 34c0 e657 1cc0 0f3f 28c0
000003e0: 4ca7 23c0 e9e2 26c0 dc4c 2cc0 b843 2ec0
000003f0: 191f 21c0 85dd 2cc0 bee3 31c0 6db8 1dc0
-2.6583612 -2.6539893 -2.693301 -2.7119749 -2.281654 -2.437884 -2.7135303 -2.5779445
-2.658761 -2.6020098 -2.6103132 -2.7287605 -1.1592729 -2.49074 -2.3580976 -2.5880635
-2.5797362 -2.6796181 -2.5575874 -2.3766305 -2.4855711 -2.775717 -2.5476954 -2.5568788
-2.3715198 -2.5547063 -2.6428914 -2.6643453 -2.6639564 -1.3166326 -2.54038 -2.733618
-2.8522277 -2.173077 -2.5539143 -2.7085288 -2.489342 -2.3610194 -2.4017806 -2.6547873
-2.5562482 -2.7992797 -2.4288774 -2.712212 -2.39808 -2.6059542 -2.7271762 -2.570444
-2.7618768 -2.5825982 -2.828682 -2.5105839 -2.7168918 -2.6564386 -2.289454 -2.3382235
-2.6593657 -2.7989922 -2.4549084 -2.4841375 -2.7386475 -2.3679142 -2.5039268 -2.5044072
-2.486376 -2.7250252 -2.5325658 -2.6076107 -2.573417 -2.3372986 -2.5497906 -2.6817112
-2.7225845 -2.6564736 -2.431971 -2.6830428 -2.400126 -2.8636773 -2.412727 -2.536956
-2.6818535 -2.4281416 -2.702026 -2.2695422 -2.5375588 -2.4437487 -2.5161023 -2.4076817
-2.5185559 -2.4713528 -2.4810805 -2.4316282 -2.6154091 -2.7695594 -2.8093772 -2.5727944
-2.7123747 -2.6500702 -2.5121918 -2.4004157 -2.405637 -2.2245662 -2.6871538 -2.5468905
-2.3748474 -2.4645524 -2.6788437 -2.749108 -2.6125507 -2.7497542 -1.376201 -2.7467844
-2.5098944 -1.2262169 -2.4367552 -2.3401763 -2.634811 -2.7326255 -2.5063627 -2.6668363
-2.3867223 -2.6153905 -2.7495248 -2.741434 -2.847635 -2.581081 -2.4043074 -2.4652493
-2.5376804 -2.6374629 -2.708414 -2.553135 -2.5199683 -2.4333062 -2.4616454 -2.6108508
-2.5493727 -2.8108099 -2.3386838 -2.6286511 -2.7254546 -2.564407 -2.8581276 -2.4054363
-2.6169329 -2.3041515 -2.7104168 -2.849145 -2.6263785 -2.683018 -2.5034165 -2.5832014
-2.925023 -2.7978272 -2.7401617 -2.7314749 -2.5657833 -2.691607 -2.6735094 -2.5699897
-2.3423338 -2.687172 -2.6740632 -2.466289 -2.354216 -2.504711 -2.8278768 -2.5688708
-2.55355 -2.6425073 -2.803803 -2.6042476 -2.5451021 -2.5530198 -2.72204 -2.5782022
-2.6995375 -2.6986003 -2.6280727 -2.425681 -2.4461036 -2.569109 -1.3290807 -2.5221424
-2.5698211 -2.5810845 -2.4864812 -2.4457917 -2.7106242 -2.4495583 -2.7095037 -2.6262996
-2.4815252 -2.6564443 -2.637668 -2.513927 -2.532663 -2.5492291 -2.5363798 -2.6974218
-2.239391 -2.468064 -2.7407904 -2.3975172 -2.6874871 -2.4085214 -2.8837302 -2.434372
-1.2995529 -2.3290224 -2.5417218 -2.7075205 -2.7131174 -2.6088731 -2.4679594 -2.2357492
-2.468842 -2.8368227 -2.5733395 -2.531814 -2.6872926 -2.632157 -2.5649967 -2.7194996
-2.4291244 -2.6460395 -2.5849338 -2.5826433 -2.5535026 -2.6183097 -2.3586369 -2.7561123
-2.6414793 -2.6528947 -2.5335865 -2.4835103 -2.5413923 -2.5627728 -2.554729 -2.426389
-2.7415428 -2.464894 -2.750892 -2.4728813 -2.797304 -2.8191178 -2.442865 -2.6288488
-2.557086 -2.6075995 -2.6921911 -2.7228832 -2.517523 -2.7010205 -2.7795253 -2.4643815
