Bot/data.pth (torch, 308993 bytes, 6 tensors)

l1.weight f4 [256, 35]
-0.089803174 -0.1002533 0.16118854 -0.29819787 -0.02658706 0.13039722 0.039719015 0.08480558
-0.061660327 0.15882003 0.07395542 0.05734704 -0.0042409394 0.13109978 0.18640482 -0.033279747
-0.13131505 -0.1691596 -0.034238845 0.04165251 -0.035379443 -0.121925235 -0.25181454 0.033403847
0.009337463 -0.0990482 0.025344165 -0.35405603 -0.0672881 0.040805124 -0.31291443 -0.018939577
0.089972794 0.16298822 -0.08473399 -0.09475054 0.11190796 0.14599785 0.16385815 -0.2199204
-0.1611911 -0.1014385 0.019669173 0.03980701 0.15531 -0.2577733 0.025029732 -0.13567343
-0.09438198 -0.16632184 -0.18198515 0.0060703247 0.28293008 0.018734517 0.1843678 0.025537465
-0.14430107 0.0308586 -0.13061051 0.092057176 -0.011947674 -0.21529959 0.31746113 -0.09085668
0.109470665 0.16409956 -0.120304026 0.021667372 -0.1245446 0.025606534 0.14082606 0.016626304
-0.052555162 0.18936719 -0.2928471 0.15539233 -0.1196811 0.12199587 0.16851868 -0.0068070716
-0.08492715 0.17650366 -0.21116781 -0.10730281 -0.26140314 0.17315046 0.19926552 0.15669283
-0.09356563 0.19095305 -0.11839274 0.039283134 -0.05212055 -0.0018900495 -0.13864592 0.11962222
0.28244027 0.13470286 -0.121051766 -0.17620444 0.12112251 -0.13499418 0.12031523 -0.13715686
-0.08147163 -0.2589788 -0.19465764 0.102967545 0.15629208 0.25808507 0.04948873 0.067434944
0.05830636 0.056431133 0.12764068 0.04617929 -0.07793313 0.22696371 0.014519719 -0.18858448
-0.08027856 -0.076168604 0.11633562 -0.019893548 0.13096221 0.022192562 -0.12470187 0.084903024
0.12904683 0.045909382 -0.16745023 -0.06583623 0.32632127 0.09223166 -0.037874393 0.15963955
-0.076600485 0.03236808 -0.021766199 -0.060841996 0.21915264 0.18071952 -0.13420375 -0.16325286
-0.11386335 0.14737345 -0.13636807 0.0803659 0.12954399 0.086378664 0.04257603 0.16406049
0.055480942 0.11597859 0.12207741 0.14674042 0.035624336 0.16922663 -0.13539417 -0.021531638
0.087917805 -0.08263049 -0.13306305 0.1536744 0.15157002 -0.08665276 0.20849407 -0.13042754
0.092429265 0.13925175 -0.025321761 0.03927773 0.120783195 0.06195427 -0.03911929 -0.13150263
0.13155787 0.0019507025 -0.15185988 0.09330634 0.12827973 0.04680543 0.020024776 0.019400928
-0.0127833 0.31029943 0.24855664 0.2678688 0.037216175 -0.18115838 0.0974091 0.08752677
0.14205869 -0.017132385 -0.034434803 0.13937432 0.025649251 -0.21903993 0.09669648 -0.11873499
0.066849686 0.28294718 -0.26752535 0.040757727 -0.03033774 -0.10327471 -0.10632323 0.004734128
0.14282387 -0.17670731 0.041751973 0.030930618 -0.011315047 0.009121505 -0.056122575 -0.14053752
-0.05461629 0.056738928 -0.07217177 -0.0010001287 -0.23797272 -0.23480849 -0.1751806 -0.002210393
0.13289417 -0.016897978 -0.020536436 -0.16575189 0.00037458635 -0.1562321 -0.031010518 0.10912184
-0.020351807 0.062207628 -0.026656007 0.062018044 0.19693609 0.30377322 -0.0064988215 0.081918016
-0.2850124 -0.08215973 0.1389307 -0.15310583 0.1357153 0.10792655 -0.111264706 -0.02753264
0.13091117 0.1814598 -0.12354156 0.11147783 0.16183951 -0.07025101 0.03422046 0.27567893
00000000: baea b7bd 9a51 cdbd 9c0e 253e 64ad 98be
00000010: 1bcd d9bc d986 053e 68b0 223d 8cae ad3d
00000020: 8a8f 7cbd b8a1 223e f075 973d bbe4 6a3d
00000030: 94f7 8abb 053f 063e e8e0 3e3e 5850 08bd
00000040: 7477 06be 2d38 2dbe 083e 0cbd d39b 2a3d
00000050: 09ea 10bd f0b3 f9bd d6ed 80be 79d2 083d
00000060: 29fc 183c c8d9 cabd 919e cf3c d546 b5be
00000070: 58ce 89bd 4623 273d 5236 a0be 2c27 9bbc
00000080: a843 b83d 62e6 263e 0489 adbd 920c c2bd
00000090: 0030 e53d 7680 153e 6eca 273e d032 61be
000000a0: 480f 25be fdbe cfbd 3f21 a13c ad0c 233d
000000b0: 9609 1f3e ddfa 83be 270b cd3c faed 0abe
000000c0: 574b c1bd 4650 2abe 515a 3abe 93e9 c63b
000000d0: 36dc 903e 2179 993c eaca 3c3e f233 d13c
000000e0: a9c3 13be 2dcb fc3c c3be 05be 7988 bc3d
000000f0: 2dc0 43bc 7f77 5cbe 448a a23e 1113 babd
00000100: 2832 e03d b709 283e f561 f6bd c67f b13c
00000110: 3d11 ffbd cbc4 d13c b534 103e e333 883c
00000120: 1544 57bd 79e9 413e 0ef0 95be 2b1f 1f3e
00000130: 5d1b f5bd f8d8 f93d 2990 2c3e db0d dfbb
00000140: 49ee adbd 60bd 343e 603c 58be 93c1 dbbd
00000150: a2d6 85be 5b4e 313e 430c 4c3e 1674 203e
00000160: 569f bfbd 3289 433e e577 f2bd 5ae7 203d
00000170: 5c7c 55bd 8abb f7ba 32f9 0dbe 7ffc f43d
00000180: 039c 903e 8cef 093e fde9 f7bd f06e 34be
00000190: 140f f83d ea3b 0abe d567 f63d d972 0cbe
000001a0: 99da a6bd df98 84be 5554 47be a6e0 d23d
000001b0: 080b 203e ba23 843e b2b4 4a3d 551b 8a3d
000001c0: a6d2 6e3d 5524 673d 3db4 023e 7f26 3d3d
000001d0: 689b 9fbd 2d69 683e 1ee4 6d3c 4a1c 41be
000001e0: 1669 a4bd 49fe 9bbd 5f41 ee3d cbf7 a2bc
000001f0: f51a 063e 2dcd b53c b263 ffbd a3e1 ad3d
00000200: da24 043e 7a0b 3c3d 1378 2bbe 25d5 86bd
00000210: 9513 a73e f4e3 bc3d 2e22 1bbd 8d78 233e
00000220: b7e0 9cbd 6494 043d 074f b2bc 7535 79bd
00000230: 8d69 603e 8a0e 393e b56c 09be c22b 27be
00000240: 3031 e9bd 11e9 163e 12a4 0bbe e196 a43d
00000250: 2ea7 043e 4ce7 b03d 3464 2e3d 79ff 273e
00000260: fc3f 633d 2f86 ed3d b903 fa3d 1f43 163e
00000270: d3ea 113d bf49 2d3e c5a4 0abe 1e63 b0bc
00000280: 400e b43d 2d3a a9bd ae41 08be d25c 1d3e
00000290: 2c35 1b3e 0177 b1bd 787f 553e cc8e 05be
000002a0: 8e4b bd3d 0398 0e3e 956f cfbc afe1 203d
000002b0: 2e5d f73d c3c3 7d3d 8c3b 20bd a0a8 06be
000002c0: 1bb7 063e b7ae ff3a 2881 1bbe 6517 bf3d
000002d0: c35b 033e 0db7 3f3d 000b a43c b2ee 9e3c
000002e0: 0c71 51bc 91df 9e3e a285 7e3e 1926 893e
000002f0: fd6f 183d 9581 39be 6c7e c73d 3c41 b33d
00000300: d577 113e 3759 8cbc 820b 0dbd 24b8 0e3e
00000310: 611e d23c 014c 60be ce08 c63d 552b f3bd
00000320: 7de8 883d 74de 903e 15f9 88be 93f1 263d
00000330: da86 f8bc b181 d3bd febf d9bd be20 9b3b
00000340: 6c40 123e c3f2 34be 1e04 2b3d 3562 fd3c
00000350: bf62 39bc 5d72 153c c9e0 65bd 11e9 0fbe
00000360: 55b5 5fbd 1467 683d cbce 93bd c016 83ba
00000370: 1faf 73be a371 70be 8b62 33be 3edc 10bb
00000380: 6915 083e a16d 8abc 073c a8bc ddba 29be
00000390: 2164 c439 4ffb 1fbe c509 febc 457b df3d
000003a0: d5b8 a6bc 6dcd 7e3d b35d dabc a206 7e3d
000003b0: 9da9 493e 2a88 9b3e 11f4 d4bb a2c4 a73d
000003c0: 25ed 91be 5c43 a8bd d943 0e3e c6c7 1cbe
000003d0: f4f8 0a3e 9808 dd3d c0de e3bd 228c e1bc
000003e0: 940d 063e 99d0 393e 5b03 fdbd 7d4e e43d
000003f0: 42b9 253e c3df 8fbd c12a 0c3d ca25 8d3e

l1.bias f4 [256]
-0.1199563 -0.10010704 -0.11505152 0.22149436 -0.031630594 0.14441493 0.05598647 0.10009474
0.03446253 -0.117038414 0.21306169 -0.16898662 -0.1570238 0.05450793 0.25611123 -0.026713004
0.061865643 -0.1352613 -0.055980477 -0.15820527 -0.13798615 0.062548794 0.08284831 0.11905524
0.00820465 0.12542771 -0.064242095 0.17545956 0.046329558 0.03728396 0.005048953 0.09452909
0.10376631 -0.17674696 0.015047453 -0.07272708 -0.11227414 -0.17224981 0.18396688 0.13194245
-0.035181407 0.13560306 -0.21032776 -0.12330942 0.11665457 -0.12340201 -0.07151566 0.18114017
0.08291553 0.14224447 0.019405913 0.1402797 0.00951788 -0.009409207 -0.0021417337 0.075297795
0.046765804 -0.09766761 0.07292477 0.017538391 -0.06259767 0.1076687 0.19338834 -0.05600381
-0.12732683 0.1194459 0.13133001 -0.20508045 -0.19681239 0.03398791 0.05211369 0.08484887
0.10144172 0.069327995 -0.162582 0.03915248 -0.1527433 -0.063133545 -0.08548443 -0.06605974
-0.08691944 -0.018839305 -0.19682164 -0.0647473 -0.04731033 0.050590415 -0.20520255 0.14616038
-0.067059025 0.157279 -0.20631093 0.01405085 -0.092827484 -0.11229596 -0.027409008 0.045582652
-0.11020528 0.16163817 0.013278402 -0.17129579 -0.15471393 0.16308078 0.058312792 0.15880491
-0.18379414 -0.2059135 -0.09696398 0.15314132 -0.048397787 0.17856161 -0.11965041 0.11168733
-0.12829092 -6.661794e-05 -0.12625225 -0.14805663 0.21162741 -0.08751657 -0.14945483 0.055527963
0.10833569 -0.15668613 -0.006449947 0.057609424 -0.20971917 -0.031295132 0.026073879 -0.14939143
0.06771702 -0.13851188 0.19183032 -0.15984853 -0.04917669 -0.08011284 0.08543495 0.046240386
0.19505045 -0.026121583 0.10849141 0.06232886 -0.17821 -0.03229732 0.1560614 -0.07573272
-0.011198531 0.014919752 -0.083694585 -0.024334896 0.16850464 0.09834647 -0.058654264 -0.11767779
0.14814404 0.12779951 -0.002448792 0.031772148 0.051898982 0.01862266 -0.14710335 0.011667575
-0.17443062 -0.04512019 -0.0015109986 -0.17845982 0.17270282 0.0009808405 -0.20020072 0.22666842
-0.1085692 -0.19421597 0.10622389 0.06161878 -0.055114463 0.23041543 -0.11980325 -0.10328867
-0.05689583 0.011228042 0.110302284 0.053987116 -0.17832918 -0.070815295 -0.092445515 -0.1871372
0.17272444 0.14413972 0.23123986 0.01922321 0.14905898 -0.032271218 -0.13547571 -0.046140123
0.033801917 -0.20820473 -0.03948728 -0.07885002 0.049326718 0.030972015 -0.021252532 -0.16348462
-0.16715112 -0.023496224 -0.1251998 -0.2014944 -0.0422263 0.114793524 -0.11643304 0.15985163
0.16478631 0.08919721 -0.15007833 -0.040766615 0.19094363 0.09371409 -0.19523194 -0.079024464
0.14975037 0.046997204 -0.23167212 -0.14174552 0.15052152 0.11557719 0.035982337 0.0025730752
0.16578296 -0.07954684 0.16960129 -0.14275873 0.12765807 0.07311322 0.12219463 0.06697696
-0.17640455 0.1615955 -0.07491969 -0.057956476 0.025202204 0.1377511 0.07712149 -0.16870512
-0.11889837 0.008538843 -0.17625979 0.057396747 0.1636631 0.100242764 0.051304765 0.12071588
-0.12445647 0.08323173 0.12136996 0.021984909 -0.20658828 0.14919002 -0.17654717 0.09551884
00000000: a6ab f5bd eb04 cdbd 22a0 ebbd 6bcf 623e
00000010: 158f 01bd 82e1 133e 1252 653d 79fe cc3d
00000020: 9528 0d3d d6b1 efbd d82c 5a3e d40a 2dbe
00000030: d9ca 20be b543 5f3d 0321 833e 3bd5 dabc
00000040: d466 7d3d f081 0abe c94b 65bd 9000 22be
00000050: 3e4c 0dbe 9519 803d 60ac a93d 3cd3 f33d
00000060: cc6c 063c 1f70 003e 5c91 83bd acab 333e
00000070: 10c4 3d3d 11b7 183d b071 a53b 7898 c13d
00000080: 6e83 d43d 28fd 34be 9889 763c eff1 94bd
00000090: fcef e5bd 4162 30be d061 3c3e ec1b 073e
000000a0: 611a 10bd 87db 0a3e 2960 57be a689 fcbd
000000b0: 97e8 ee3d 31ba fcbd cd76 92bd cf7c 393e
000000c0: 9ecf a93d 89a8 113e 26f9 9e3c 7ba5 0f3e
000000d0: e2f0 1b3c 1329 1abc 545c 0cbb bb35 9a3d
000000e0: 808d 3f3d f505 c8bd 9559 953d acac 8f3c
000000f0: 3533 80bd 6881 dc3d 9807 463e 4064 65bd
00000100: f761 02be 0da0 f43d 607b 063e 9c00 52be
00000110: 3089 49be e836 0b3d 2a75 553d 3fc5 ad3d
00000120: adc0 cf3d d6fb 8d3d e57b 26be 5a5e 203d
00000130: bd68 1cbe 294c 81bd 7612 afbd 544a 87bd
00000140: d202 b2bd e354 9abc 9d8b 49be 3c9a 84bd
00000150: 7ac8 41bd e537 4f3d 9e20 52be 11ab 153e
00000160: 3e56 89bd bf0d 213e 2c43 53be 8935 663c
00000170: 561c bebd 6dfb e5bd db88 e0bc e0b4 3a3d
00000180: 4eb3 e1bd 7a84 253e a88d 593c 2a68 2fbe
00000190: 546d 1ebe a6fe 263e 65d9 6e3d c19d 223e
000001a0: 8834 3cbe fdda 52be 0d95 c6bd 14d1 1c3e
000001b0: c23c 46bd dbd8 363e 460b f5bd 54bc e43d
000001c0: b25e 03be 3cb5 8bb8 4548 01be 289c 17be
000001d0: dbb4 583e e33b b3bd b00a 19be 4a71 633d
000001e0: 1adf dd3d 5472 20be 145a d3bb dcf7 6b3d
000001f0: 9fc0 56be 532f 00bd e398 d53c 11fa 18be
00000200: 39af 8a3d 0fd6 0dbe 2b6f 443e 55af 23be
00000210: 7f6d 49bd 3312 a4bd 85f8 ae3d 8f66 3d3d
00000220: 4ebb 473e eefc d5bc bf30 de3d 8c4c 7f3d
00000230: af7c 36be 324a 04bd 8fce 1f3e c219 9bbd
00000240: 0b7a 37bc fa71 743c 1168 abbd fa59 c7bc
00000250: 7b8c 2c3e e069 c93d 743f 70bd 0e01 f1bd
00000260: 12b3 173e e0dd 023e ea7b 20bb 8323 023d
00000270: 0794 543d 8c8e 983c 43a2 16be 5b29 3f3c
00000280: f19d 32be f3cf 38bd b30c c6ba 2cbe 36be
00000290: 02d9 303e 8c8f 803a 6b01 4dbe c41b 683e
000002a0: 8759 debd 8de0 46be e98b d93d f963 7c3d
000002b0: b4bf 61bd 06f2 6b3e 685b f5bd 0389 d3bd
000002c0: 9a0b 69bd d2f5 373c 2ae6 e13d 9821 5d3d
000002d0: ed9b 36be 9c07 91bd 1354 bdbd e5a0 3fbe
000002e0: adde 303e 5d99 133e 24ca 6c3e fe79 9d3c
000002f0: eba2 183e d32e 04bd 25ba 0abe 6dfd 3cbd
00000300: e173 0a3d 9f33 55be 6abd 21bd 1f7c a1bd
00000310: d00a 4a3d 06b9 fd3c ca19 aebc 8368 27be
00000320: aa29 2bbe 277b c0bc 6034 00be 8c54 4ebe
00000330: 7cf5 2cbd de18 eb3d 7274 eebd 25b0 233e
00000340: bebd 283e 07ad b63d 22ae 19be e5fa 26bd
00000350: ba86 433e 2ced bf3d e2ea 47be 94d7 a1bd
00000360: 2958 193e 2480 403d 753b 6dbe bd25 11be
00000370: 5022 1a3e bcb3 ec3d 3762 133d 0aa1 283b
00000380: 02c3 293e 74e9 a2bd f6ab 2d3e 582f 12be
00000390: ccb8 023e 62bc 953d 2e41 fa3d 372b 893d
000003a0: 65a3 34be 4a79 253e 7f6f 99bd c563 6dbd
000003b0: da74 ce3c a00e 0d3e dff1 9d3d 09c1 2cbe
000003c0: fd80 f3bd 81e6 0b3c 727d 34be da18 6b3d
000003d0: 4d97 273e 144c cd3d f224 523d e339 f73d
000003e0: 09e3 febd 6675 aa3d d090 f83d b219 b43c
000003f0: e18b 53be 45c5 183e c8c8 34be 629f c33d

l2.weight f4 [256, 256]
0.025599387 -0.057246186 -0.108772345 -0.044511303 -0.09791962 -0.027246935 -0.080654345 0.066754475
0.06031498 0.037775997 0.05521744 0.027579498 0.077632956 0.026322361 0.051562395 -0.046514075
0.051508073 -0.027422579 -0.12683171 -0.003960027 0.052468885 -0.06997373 -0.028188298 0.05403002
-0.028472856 -0.045353975 0.08102195 -0.004260789 -0.060580373 -0.03824514 -0.0032341452 -0.014480545
0.035807703 0.017392458 -0.13420531 0.060134012 -0.011631785 -0.018600795 -0.011042299 0.084179826
-0.09027354 0.0028684826 0.04780576 0.05114654 0.033124052 -0.02353466 -0.0334963 -0.10206487
0.0061713275 -0.023044497 0.03217829 -0.004211711 0.07401885 -0.039125375 0.10401068 -0.10898298
-0.1345399 0.008901765 0.10385865 0.10232232 -0.099351324 0.12995344 -0.033510324 0.034422573
0.009872154 0.00698998 -0.054298572 0.04590401 -0.014242822 -0.005702675 -0.019724615 0.018616673
-0.020263584 -0.0679528 -0.04574713 0.00130826 -0.07433879 0.13732691 -0.0159229 -0.055341966
0.10962656 -0.08993941 0.03642613 -0.063609496 0.0065502436 0.0020025857 0.011166234 0.0062147737
-0.082302354 0.004196817 0.074199915 -0.013932695 -0.033813424 0.10842555 -0.034552626 -0.10133134
-0.0022200362 -0.041605894 -0.030022252 -0.019131316 0.03788555 -0.040296454 -0.004130301 -0.019800598
-0.08566049 0.034427006 -0.033206105 -0.023153324 -0.027401792 -0.012073224 -0.003325855 -0.039209608
0.01492143 0.041881744 -0.06495405 0.0686736 -0.029717138 -0.029282566 -0.029936027 0.005186942
-0.10743784 0.037393972 -0.011808243 0.008178965 0.05175024 -0.08630915 -0.036906753 -0.046553466
-0.062093776 0.12718046 0.029575285 -0.023457676 0.07099235 -0.033199415 -0.03940346 -0.11933643
-0.04871175 -0.037055995 0.016496466 0.081165105 0.036892377 0.0013781944 -0.07819844 -0.021680195
-0.04284254 -0.0696106 0.01622098 -0.08457316 0.015014921 0.014163539 -0.093902975 0.06624896
-0.026945543 -0.03485313 0.0003021689 -0.0021157877 -0.036936566 0.02474416 -0.023581846 -0.033704143
0.0030148607 0.03541363 -0.042080544 0.07069489 0.04474261 0.08652916 0.021866808 -0.0656966
0.07285665 -0.014137538 -0.08771984 -0.026014568 -0.029659944 0.08694115 0.02693693 0.060231943
0.004912246 -0.12812886 -0.06625708 -0.023769913 0.035873633 -0.0025852872 -0.021429457 0.06370114
-0.063514955 0.045231245 -0.104924135 0.09594489 -0.059726693 0.039576504 0.047831718 0.015305073
0.048783984 -0.10964369 -0.034782216 0.024627065 0.03625532 -0.040523652 0.035190478 0.03546062
-0.012299634 0.056684494 0.079602316 -0.033235963 0.07004754 0.013448883 -0.08247819 -0.07498748
0.03391705 0.11024211 0.027647823 -0.020258615 0.033836696 -0.055223376 0.0029021737 -0.09084224
0.043819815 0.017581359 -0.049899515 -0.004311558 0.019694231 -0.08083559 -0.07912494 0.16679306
-0.005715377 0.05597963 -0.010592637 0.011330068 -0.04708615 0.1224473 0.09375331 -0.02350086
-0.025201166 -0.05571202 -0.085262485 0.07503974 0.0555039 -0.11137199 -0.09809122 0.013900195
0.0792802 -0.026574587 0.07684957 -0.03931729 -0.063650854 -0.04489448 0.020365452 -0.0020626306
-0.08625715 -0.082262576 0.06067532 -0.021974681 -0.010215415 -0.13291405 -0.07357446 0.043540955
00000000: ceb5 d13c fa7a 6abd 09c4 debd 7c51 36bd
00000010: 158a c8bd f734 dfbc 1b2e a5bd 92b6 883d
00000020: d70c 773d 01bb 1a3d af2b 623d 66ee e13c
00000030: 07fe 9e3d fea1 d73c 1733 533d 8b85 3ebd
00000040: 21fa 523d 51a5 e0bc 2ce0 01be 1dc3 81bb
00000050: 9de9 563d 634e 8fbd 25eb e6bc 954e 5d3d
00000060: e83f e9bc 17c5 39bd d6ee a53d 179e 8bbb
00000070: 2023 78bd f0a6 1cbd f4f3 53bb cf3f 6dbc
00000080: 19ab 123d a17a 8e3c 1e6d 09be 154f 763d
00000090: 3e93 3ebc b260 98bc c2ea 34bc 7966 ac3d
000000a0: 55e1 b8bd 27fd 3b3b f9cf 433d 097f 513d
000000b0: 16ad 073d c2cb c0bc 6b33 09bd 6307 d1bd
000000c0: d938 ca3b d0c7 bcbc 62cd 033d 6502 8abb
000000d0: 3297 973d ee41 20bd 8d03 d53d 7832 dfbd
000000e0: d4c4 09be b5d8 113c d8b3 d43d 5d8e d13d
000000f0: b578 cbbd 8412 053e 1f42 09bd affe 0c3d
00000100: d1be 213c 340c e53b 2e68 5ebd d805 3c3d
00000110: ba5a 69bc 81dd babb 8495 a1bc fe81 983c
00000120: d1ff a5bc d62a 8bbd 5861 3bbd ec79 ab3a
00000130: ef3e 98bd 6d9f 0c3e be70 82bc 42ae 62bd
00000140: e483 e03d 2732 b8bd 9133 153d b245 82bd
00000150: 6da3 d63b d03d 033b 94f2 363c 4da5 cb3b
00000160: 238e a8bd 7485 893b 20f6 973d f545 64bc
00000170: f27f 0abd 370e de3d 0e87 0dbd ce86 cfbd
00000180: 077e 11bb f16a 2abd 3af1 f5bc 47b9 9cbc
00000190: e12d 1b3d e50d 25bd 7a57 87bb dd34 a2bc
000001a0: c46e afbd 5503 0d3d 2003 08bd 0aac bdbc
000001b0: b979 e0bc c6ce 45bc 96f6 59bb 419a 20bd
000001c0: 0379 743c 318c 2b3d a106 85bd bfa4 8c3d
000001d0: 5b71 f3bc fee1 efbc 663c f5bc 39f7 a93b
000001e0: 5f08 dcbd 6c2a 193d 5c77 41bc 1101 063c
000001f0: 0ff8 533d dac2 b0bd 892b 17bd d9ae 3ebd
00000200: 0b56 7ebd 983b 023e de47 f23c 502a c0bc
00000210: 7064 913d 1cfc 07bd 8665 21bd a966 f4bd
00000220: f985 47bd 07c8 17bd 9923 873c e439 a63d
00000230: 761c 173d 88a4 b43a 8126 a0bd aa9a b1bc
00000240: a97b 2fbd 0190 8ebd dce1 843c b134 adbd
00000250: 2501 763c 300e 683c 3450 c0bd 89ad 873d
00000260: e6bc dcbc 28c2 0ebd 6c6c 9e39 07a9 0abb
00000270: cc4a 17bd 44b4 ca3c b72e c1bc 5b0d 0abd
00000280: f894 453b e20d 113d a65c 2cbd 7cc8 903d
00000290: 0744 373d 3336 b13d 0522 b33c f08b 86bd
000002a0: de35 953d 22a1 67bc 76a6 b3bd 811c d5bc
000002b0: 69f9 f2bc 340e b23d d6aa dc3c c5b5 763d
000002c0: e8f6 a03b 3634 03be cbb1 87bd 1fb9 c2bc
000002d0: 3bf0 123d ec6d 29bb d48c afbc be75 823d
000002e0: 2114 82bd 6644 393d 77e2 d6bd c17e c43d
000002f0: faa3 74bd f91a 223d 31eb 433d 21c2 7a3c
00000300: b7d1 473d df8c e0bd cc77 0ebd b3be c93c
00000310: 7580 143d 21fc 25bd e423 103d 283f 113d
00000320: 6784 49bc 002e 683d 8a06 a33d 6f22 08bd
00000330: 1675 8f3d b458 5c3c 53ea a8bd 0993 99bd
00000340: 9bec 0a3d 9ec6 e13d b07d e23c 65f5 a5bc
00000350: 5998 0a3d e831 62bd 6532 3e3b 7f0b babd
00000360: 687c 333d c806 903c 6f63 4cbd f847 8dbb
00000370: cc55 a13c 218d a5bd 420c a2bd cdcb 2a3e
00000380: 0f48 bbbb e64a 653d bd8c 2dbc c0a1 393c
00000390: 68dd 40bd a6c5 fa3d bc01 c03d e084 c0bc
000003a0: ad72 cebc 4932 64bd 199e aebd 6fae 993d
000003b0: 0f58 633d ff16 e4bd 0de4 c8bd a5bd 633c
000003c0: a85d a23d f3b2 d9bc 4f63 9d3d 2b0b 21bd
000003d0: 615b 82bd 46e3 37bd 73d5 a63c 332d 07bb
000003e0: 97a7 b0bd 4879 a8bd af86 783d 3f04 b4bc
000003f0: 8e5e 27bc 9f1a 08be 35ae 96bd 0058 323d

l2.bias f4 [256]
0.0024348523 -0.044395097 -0.0067777396 0.014048105 0.04215436 0.038778007 0.035686977 0.04671126
-0.08205662 -0.03960833 -0.027069354 0.031691454 0.02817157 -0.058352474 0.076123536 -0.011736652
-0.101161554 -0.007997373 -0.0075184098 -0.041531328 0.07290773 0.024597328 -0.025075354 -0.04425449
0.056425314 -0.05439912 0.035622094 0.052931167 -0.018578786 -0.0769597 0.08405676 0.0512644
-0.0426306 -0.08430273 0.06013065 -0.03687069 -0.08182855 -0.047439612 0.0895723 -0.034581233
-0.0048277713 0.019454224 -0.028894 0.04663402 -0.019142862 0.07314531 -0.018303335 -0.03956984
-0.046010215 0.002341532 0.0047841673 0.066148825 0.012237949 0.032298308 0.033569057 -0.037005957
-0.08361377 -0.080957256 0.034668926 -0.10917517 -0.02914662 -0.04895067 0.051941678 0.065686494
0.07820166 0.022136912 -0.0060519814 0.061934825 0.005638316 0.07363184 0.0015910468 -0.039981414
-0.07376368 0.022976993 -0.0050301994 0.07650486 0.0040384545 0.07658049 0.08164535 0.03503739
-0.07298891 0.061437313 -0.013564173 -0.05851783 -0.03677312 0.01816332 -0.0026437587 0.009649815
0.019860595 0.01500944 -0.007362883 0.012486729 -0.040792666 -0.025899129 0.0603683 -0.065834045
-0.0065564215 0.022459084 -0.044306982 0.03653238 0.03325206 -0.09038242 -0.07610527 -0.043155745
-0.0040054685 0.0757543 -0.0076439395 0.014504833 -0.042664483 -0.08204848 0.06885292 0.033900794
0.04096966 0.040483013 0.081245884 0.02270796 0.028020263 0.08496741 0.016411737 0.07255691
0.008554572 -0.004277114 -0.0397029 -0.115094125 -0.036777563 0.032996997 -0.065794975 0.019194264
-0.053396776 0.0079127485 0.009034617 -0.06647817 0.046605658 0.045088682 -0.03138388 -0.028053565
-0.06629388 0.008935537 -0.014578958 -0.063349396 0.05294597 -0.022750227 -0.047068253 -0.045588546
0.014172242 -0.01818617 -0.046010334 0.06638862 -0.07146568 -0.062938035 -0.037195142 0.04158464
0.008919691 -0.017942974 0.014841173 -0.036441598 7.600571e-05 -0.006401702 -0.04343281 0.0109486915
-0.0010259894 -0.030317571 0.02712104 -0.018920206 -0.001830728 -0.018780123 -0.027586441 0.06750948
0.007383553 -0.03361521 -0.007854516 -0.005878529 -0.039475672 -0.039487526 0.066084206 0.052854184
0.031315196 0.03309569 0.054282606 0.059585456 -0.018897539 0.02184752 0.039405838 -0.0042078258
-0.04116852 0.03364847 -0.027461335 0.064025134 0.057373792 -0.03733949 -0.036058504 0.039278917
0.07626472 -0.0766905 -0.030322792 -0.027826792 -0.052256003 0.06234073 0.015438169 -0.015101634
-0.086918846 -0.075175524 0.013932012 -0.010650949 0.040825382 -0.05946467 -0.029994437 -0.003081992
-0.048095677 -0.017034134 -0.0017277184 0.027813315 0.076728374 0.07065361 -0.017071934 0.029361699
-0.017640252 0.030927902 -0.012273519 -0.0806709 -0.042763572 -0.034984566 -0.0058552045 0.05335749
0.009430969 -0.08923598 0.05168841 0.010826104 0.0012697029 -0.053263385 -0.0058451844 0.04714592
-0.007129319 -0.09687739 0.011066054 -0.08024805 0.070113674 -0.02794455 -0.0048711123 -0.0060467212
-0.0638664 -0.047861833 -0.014438252 0.062063605 0.045542322 0.0067290636 0.11675164 0.008199358
0.044633474 -0.039095215 0.038541205 0.003221138 0.011774686 -0.039961677 -0.034388836 0.010429202
00000000: 0b92 1f3b a2d7 35bd cd17 debb 062a 663c
00000010: 0daa 2c3d b0d5 1e3d 822c 123d 4e54 3f3d
00000020: 4d0d a8bd 583c 22bd 8dc0 ddbc e6ce 013d
00000030: 10c8 e63c 0103 6fbd a8e6 9b3d 164b 40bc
00000040: ca2d cfbd 6a07 03bc fe5c f6bb c11c 2abd
00000050: a650 953d 5680 c93c d46a cdbc 3244 35bd
00000060: 3b1e 673d 9dd1 5ebd 79e8 113d 5ace 583d
00000070: 8a32 98bc 0c9d 9dbd f325 ac3d 9ffa 513d
00000080: 6d9d 2ebd e9a6 acbd 8e4b 763d b805 17bd
00000090: ba95 a7bd 0a50 42bd af71 b73d 0da5 0dbd
000000a0: 4832 9ebb 775e 9f3c 1cb3 ecbc 5003 3f3d
000000b0: 7ed1 9cbc 35cd 953d e0f0 95bc fc13 22bd
000000c0: 3575 3cbd 6374 193b 81c4 9c3b 0979 873d
000000d0: ae81 483c 3b4b 043d b57f 093d 8f93 17bd
000000e0: b23d abbd ebcc a5bd 0101 0e3d 3b97 dfbd
000000f0: e4c4 eebc 7f80 48bd ccc0 543d a486 863d
00000100: 3128 a03d 7858 b53c b34f c6bb 5faf 7d3d
00000110: 9fc1 b83b 4acc 963d ac8a d03a 8dc3 23bd
00000120: 6a11 97bd 3f3a bc3c 5fd4 a4bb 94ae 9c3d
00000130: 0355 843b 3bd6 9c3d ad35 a73d 5e83 0f3d
00000140: 367b 95bd b1a5 7b3d 443c 5ebc 64b0 6fbd
00000150: 699f 16bd 3ecb 943c e942 2dbb 421a 1e3c
00000160: b0b2 a23c 27ea 753c 5744 f1bb 2395 4c3c
00000170: 3616 27bd 692a d4bc c044 773d 00d4 86bd
00000180: 40d7 d6bb 1dfc b73c 3d7b 35bd faa2 153d
00000190: 5033 083d 6b1a b9bd 14dd 9bbd 14c4 30bd
000001a0: 4e40 83bb 1225 9b3d 037a fabb aea5 6d3c
000001b0: f4c0 2ebd 0909 a8bd c202 8d3d 8fdb 0a3d
000001c0: cdcf 273d 84d1 253d 3e64 a63d 0b06 ba3c
000001d0: c08a e53c 6503 ae3d e871 863c b898 943d
000001e0: 7a28 0c3c 0827 8cbb 829f 22bd 78b6 ebbd
000001f0: 12a4 16bd dc27 073d 84bf 86bd 4a3d 9d3c
00000200: 94b6 5abd 79a4 013c ee05 143c b525 88bd
00000210: 93e5 3e3d e9ae 383d 628c 00bd 97d0 e5bc
00000220: 16c5 87bd 5c66 123c 95dc 6ebc 54bd 81bd
00000230: e0dd 583d af5e babc a4ca 40bd 0ebb 3abd
00000240: b132 683c 2afb 94bc 5575 3cbd c2f6 873d
00000250: 995c 92bd a8e5 80bd ef59 18bd a854 2a3d
00000260: e523 123c 25fd 92bc 6428 733c c943 15bd
00000270: 4165 9f38 5ec5 d1bb 9ae6 31bd 2462 333c
00000280: 7e7a 86ba 8e5c f8bc f12c de3c 8cfe 9abc
00000290: 0af5 efba c6d8 99bc f6fc e1bc 6942 8a3d
000002a0: bbf1 f13b 1ab0 09bd 3ab0 00bc ada0 c0bb
000002b0: 3eb1 21bd acbd 21bd 2857 873d a17d 583d
000002c0: 5d44 003d 598f 073d 7057 5e3d e10f 743d
000002d0: 03cf 9abc 92f9 b23c 0468 213d cde1 89bb
000002e0: 52a0 28bd fad2 093d 98f6 e0bc 9c1f 833d
000002f0: c800 6b3d 4bf1 18bd 15b2 13bd eee2 203d
00000300: ad30 9c3d e90f 9dbd 8167 f8bc 03f5 e3bc
00000310: 640a 56bd fe58 7f3d 60f0 7c3c d86c 77bc
00000320: 8202 b2bd a0f5 99bd 1843 643c 5181 2ebc
00000330: 8438 273d 3a91 73bd e5b6 f5bc 3ffb 49bb
00000340: f9ff 44bd 2b8b 8bbc 9c74 e2ba c0d8 e33c
00000350: c423 9d3d d7b2 903d 71da 8bbc f287 f03c
00000360: 4a82 90bc 835c fd3c df16 49bc c936 a5bd
00000370: db28 2fbd fa4b 0fbd 04dd bfbb 628d 5a3d
00000380: 5a84 1a3c 5ac1 b6bd 3ab7 533d f95f 313c
00000390: 296c a63a b52a 5abd f688 bfbb 151c 413d
000003a0: 109d e9bb a767 c6bd 654e 353c 1759 a4bd
000003b0: c297 8f3d f8eb e4bc da9d 9fbb 9323 c6bb
000003c0: 63cc 82bd c50a 44bd 6b8e 6cbc 6836 7e3d
000003d0: 968a 3a3d 7a7f dc3b 7c1b ef3d 9a56 063c
000003e0: 97d1 363d 4e22 20bd 62dd 1d3d ba19 533b
000003f0: 9dea 403c dbae 23bd 4fdb 0cbd 3edf 2a3c

l3.weight f4 [6, 256]
0.08487578 -0.25502363 0.084148236 -0.18348137 -0.17688835 0.067561105 -0.27711877 -0.11380796
-0.04145708 -0.006143457 -0.171395 -0.17620333 -0.22718224 0.05777179 -0.19234209 0.058071084
0.038663052 0.0047676563 -0.19916433 0.10172945 0.045227543 -0.21403046 -0.04655963 -0.11066602
-0.20241132 -0.15483354 -0.2880788 0.016002804 0.15679806 0.03924042 -0.064353034 0.10622837
0.17931549 0.20384853 -0.23684028 0.17417693 0.13043205 0.16185199 -0.07832157 0.2085546
0.30256313 -0.03986124 -0.048520308 -0.19052336 0.20438375 0.01426544 -0.021436164 0.10113314
0.18083756 0.13059102 0.24156162 -0.2621817 -0.05102234 -0.09005289 -0.08992867 -0.10371968
0.16613862 0.19735597 -0.051126033 0.15563634 -0.11943798 -0.06307375 0.12743989 -0.24821445
0.009050722 -0.1279098 0.01671996 -0.2073413 0.030961188 0.019269602 -0.06455279 0.19779587
0.11470912 0.14821641 0.07468032 0.0933449 -0.43306518 0.00894404 -0.36055592 0.08897916
-0.12302735 0.08041221 0.056881785 -0.065243185 0.0048055784 -0.26903737 0.13153197 -0.0036101984
-0.03645663 -0.0050467933 -0.1009871 0.060192052 0.34760225 0.18715158 -0.16719654 0.21602927
0.31220332 0.20868598 -0.008597376 -0.14036278 -0.13372234 -0.0029667018 0.19281812 0.030477142
-0.10082182 0.08064243 0.016564926 0.17749465 0.11730894 0.3123706 -0.23616153 0.20911855
0.34682995 -0.05450714 0.012278852 -0.35785234 0.0534968 -0.048230004 -0.25781518 -0.22498079
-0.149171 0.27591515 -0.06319399 0.03791923 -0.17676829 -0.19491905 0.10752438 -0.28694412
0.023647109 0.09263068 -0.034716345 0.42887175 -0.35024115 -0.05402656 -0.05803087 -0.21222425
0.014324785 -0.12133256 0.051543657 0.02975876 -0.19993764 0.08569684 0.14214452 0.015716536
0.05785921 -0.14949085 -0.09995986 0.2969361 0.25300243 0.11779035 0.3511575 0.2785679
0.095615886 -0.12430434 -0.2535341 0.16519818 -0.06408748 0.0027946748 0.16228962 0.19161113
-0.29334757 -0.1716497 0.029812632 -0.35250747 0.06699962 0.07950755 -0.19254225 0.162034
0.0426162 0.40628442 -0.19923368 -0.10010807 -0.1297298 -0.054069854 -0.20090744 -0.2181422
-0.05098332 0.23905641 0.003229512 0.110445626 0.053495657 -0.050982874 0.098011136 0.0675803
0.18836814 0.031402726 -0.012772996 -0.17323756 0.006401563 -0.107615046 -0.2390977 -0.1123902
-0.019608872 0.03059902 -0.04751901 0.15915024 -0.053628102 0.13044542 -0.25909314 -0.20547293
0.122900665 -0.056669727 -0.18744051 0.1337832 0.18012474 -0.032637537 0.15044361 0.22397053
0.10813901 -0.20193061 -0.09644542 -0.009055558 -0.03096002 -0.24319053 0.0049269167 -0.3455752
0.040071134 -0.08384254 0.05240726 0.07677578 0.10254258 -0.11931743 0.07035129 -0.15344848
-0.40677202 -0.0008835588 -0.017367113 -0.2675216 0.038585998 0.21483444 -0.29808506 0.099990316
0.18881805 0.026075969 -0.03197279 0.20445411 -0.27970058 -0.097002566 0.045544673 -0.15825097
-0.0011002742 0.18846051 -0.033662517 -0.28027344 -0.17435654 -0.11194057 -0.20053525 -0.12510085
-0.09360316 -0.2011008 0.15935834 -0.28999886 0.21157706 0.21241093 -0.17428263 0.103642
00000000: 5ad3 ad3d 7592 82be e955 ac3d 8ae2 3bbe
00000010: 3822 35be 7a5d 8a3d 83e2 8dbe 2614 e9bd
00000020: e6ce 29bd 0d4f c9bb 2c82 2fbe a56e 34be
00000030: 76a2 68be 1da2 6c3d 53f5 44be f2db 6d3d
00000040: 265d 1e3d 003a 9c3b bcf1 4bbe 8857 d03d
00000050: 8440 393d cd2a 5bbe 50b5 3ebd dea4 e2bd
00000060: ea44 4fbe af8c 1ebe 117f 93be 5018 833c
00000070: ac8f 203e 90ba 203d 86cb 83bd 428e d93d
00000080: 7b9e 373e abbd 503e 4286 72be 705b 323e
00000090: fb8f 053e 87bc 253e 0f67 a0bd 568f 553e
000000a0: 8ee9 9a3e 8a45 23bd 3bbd 46bd 8e18 43be
000000b0: f949 513e 98b9 693c e59a afbc e41e cf3d
000000c0: 7b2d 393e a7b9 053e ee5b 773e ae3c 86be
000000d0: cdfc 50bd a66d b8bd 862c b8bd fc6a d4bd
000000e0: 3e20 2a3e af17 4a3e 8869 51bd 225f 1f3e
000000f0: e69b f4bd cf2c 81bd 9a7f 023e ee2b 7ebe
00000100: 7b49 143c c9fa 02be 4cf8 883c 4751 54be
00000110: 51a2 fd3c 49db 9d3c 4134 84bd 008b 4a3e
00000120: 9dec ea3d 0bc6 173e fff1 983d 9c2b bf3d
00000130: b8ba ddbe 068a 123c c99a b8be b53a b63d
00000140: c3f5 fbbd 28af a43d e0fc 683d 389e 85bd
00000150: 1d78 9d3b 44bf 89be 51b0 063e 1499 6cbb
00000160: 8c53 15bd 925f a5bb 53d2 cebd f18b 763d
00000170: ecf8 b13e aaa4 3f3e 9235 2bbe c736 5d3e
00000180: 1dd9 9f3e c7b1 553e 02dc 0cbc 43bb 0fbe
00000190: 82ee 08be ff6c 42bb 1d72 453e 33ab f93c
000001a0: ac7b cebd dc27 a53d 2bb3 873c 28c1 353e
000001b0: ab3f f03d 0aef 9f3e 54d4 71be 2c23 563e
000001c0: b293 b13e e142 5fbd 3d2d 493c 6c38 b7be
000001d0: 761f 5b3d d38c 45bd 5a00 84be 5d61 66be
000001e0: 48c0 18be c044 8d3e da6b 81bd 3251 1b3d
000001f0: bf02 35be dc98 47be be35 dc3d 57ea 92be
00000200: 95b7 c13c 27b5 bd3d ba32 0ebd 1495 db3e
00000210: cf52 b3be f44a 5dbd c7b1 6dbd 5051 59be
00000220: 81b2 6a3c 357d f8bd 711f 533d a5c8 f33c
00000230: 74bc 4cbe d381 af3d 558e 113e f7bf 803c
00000240: c7fd 6c3d 2114 19be c1b7 ccbd 0208 983e
00000250: 8989 813e 113c f13d eaca b33e 74a0 8e3e
00000260: 43d2 c33d 4693 febd 39cf 81be b629 293e
00000270: 4c40 83bd dd26 373b 402f 263e b535 443e
00000280: a731 96be f0c4 2fbe 9f39 f43c dc7b b4be
00000290: 1937 893d dbd4 a23d cc29 45be 3eec 253e
000002a0: 538e 2e3d 8304 d03e ea03 4cbe 7605 cdbd
000002b0: e4d7 04be 5a78 5dbd aeba 4dbe ab60 5fbe
000002c0: e3d3 50bd 34cb 743e 38a6 533b 5131 e23d
000002d0: 431e 5b3d 6bd3 50bd 10ba c83d 8a67 8a3d
000002e0: 94e3 403e 25a0 003d d445 51bc 3065 31be
000002f0: 34c4 d13b 4765 dcbd 07d6 74be d52c e6bd
00000300: c9a2 a0bc ccaa fa3c 4ba3 42bd 48f8 223e
00000310: 24a9 5bbd 7c93 053e dba7 84be 7f67 52be
00000320: 58b3 fb3d 841e 68bd 68f0 3fbe 77fe 083e
00000330: 9f72 383e f0ae 05bd e40d 1a3e 8858 653e
00000340: fc77 dd3d e6c6 4ebe 2d85 c5bd c35d 14bc
00000350: de9f fdbc f006 79be f971 a13b 3cef b0be
00000360: a121 243d a3b5 abbd ffa8 563d 9f3c 9d3d
00000370: d801 d23d b25c f4bd 5614 903d 9921 1dbe
00000380: 6c44 d0be a19e 67ba 7a45 8ebc 97f8 88be
00000390: 5a0c 1e3d 8ffd 5b3e 9b9e 98be b9c7 cc3d
000003a0: 8559 413e 459d d53c e6f5 02bd 6b5c 513e
000003b0: ea34 8fbe 48a9 c6bd 0d8d 3a3d 8b0c 22be
000003c0: 1337 90ba cbfb 403e b5e1 09bd 0080 8fbe
000003d0: 858a 32be 1941 e5bd 1d59 4dbe 701a 00be
000003e0: 03b3 bfbd 5eed 4dbe d52e 233e bb7a 94be
000003f0: a8a7 583e 4082 593e 2577 32be 4242 d43d

l3.bias f4 [6]
-0.17272028 -0.17148104 -0.13533963 -0.06033834 -0.12372901 -0.15917003
00000000: 96dd 30be ba98 2fbe 7996 0abe 5625 77bd
00000010: a365 fdbd 78fd 22be
