Bot/data.pth (torch, 359903 bytes, 6 tensors)

l1.weight f4 [256, 77]
0.17203125 -0.07662336 0.14896257 -0.06427116 -0.014562491 -0.18879196 0.42923748 0.009642914
-0.001427795 0.025093341 -0.13477024 -0.16010731 0.08414046 0.17124316 0.19292803 0.2392533
0.024859758 0.058975637 0.19031845 0.023321107 -0.081657514 -0.14774038 0.00086432893 -0.019304335
-0.088062644 -0.17386422 0.047572944 0.29722723 -0.16702504 0.29340896 0.16261736 0.15738621
0.0043607703 -0.03597247 0.07228681 -0.21804257 0.22135967 -0.12122323 -0.22416717 -0.22159305
-0.011756871 0.11252994 0.24813662 0.3016698 -0.14434765 0.0106651895 -0.05400107 0.13678358
0.16504925 -0.12255675 -0.11144384 0.30014706 0.31324854 -0.08962461 -0.07881326 -0.003745481
0.0074091298 0.1780894 -0.12922703 -0.0028574804 -0.026184617 -0.08137963 0.057035986 0.002462774
0.25114286 0.16366795 -0.093230374 -0.014328405 0.056262296 -0.17148255 0.20042828 0.054959055
0.030687548 0.14470705 -0.050760325 0.2391113 -0.11738352 -0.04505267 0.034424633 0.046569996
0.13436477 -0.028609911 -0.027752645 -0.03815405 -0.045440752 0.025258718 -0.13165553 0.06211511
0.10870024 -0.051206935 -0.07081095 -0.22631751 -0.23774245 -0.097655505 -0.050395053 -0.025756937
-0.03087089 0.120486125 0.11037875 -0.12812176 -0.1889459 -0.034367017 -0.2817509 -0.034376696
0.2029297 -0.34911966 0.14299333 -0.26254398 -0.43811357 -0.05768467 -0.040215347 -0.25627103
0.0640424 -0.18949832 -0.16466549 -0.04189864 0.05850735 -0.18950443 -0.3018987 0.048442494
-0.07065456 -0.10977119 -0.26958126 -0.07636773 -0.035027124 0.043945916 0.20932828 0.15877211
0.19220443 0.20334628 0.06538061 0.04943933 -0.08819274 0.05847308 0.09399939 -0.03514744
-0.055709448 0.067359686 -0.021114415 -0.08252919 0.06910667 -0.02760355 0.034241587 -0.13471925
0.011679197 -0.058883708 0.016992718 -0.10879291 -0.016727112 0.020904211 0.090862356 -0.0815075
-0.07121002 -0.124662966 -0.10582193 0.14210628 -0.045708295 0.18482085 0.13082545 0.008302679
0.38157412 0.048236955 0.15951002 -0.07993116 0.0017271731 0.3469725 -0.12927692 -0.19026227
-0.18927868 -0.26104525 -0.07516113 0.034901004 -0.14100844 0.0017691269 0.14029545 0.22089413
-0.11587455 -0.2308728 -0.14713891 0.13808092 0.00710112 0.44150162 0.33235228 0.29931697
-0.31576487 -0.19888118 0.12175362 -0.020620624 -0.07003447 -0.014314784 -0.28741086 0.17137222
-0.17638052 -0.18243085 0.09466898 -0.19986016 -0.0043434105 0.16812353 -0.06979287 -0.15948206
-0.006459841 -0.049217034 0.12937039 0.19111529 0.35748953 -0.07446513 -0.033368688 0.120090015
0.35366115 0.04890606 -0.04231963 -0.07968812 0.009236195 -0.048016686 -0.006609937 0.101295225
0.028147468 -0.099720635 -0.16837391 -0.07812772 -0.12927958 0.034452066 0.00794292 0.1057494
-0.117051415 0.05792362 -0.09200664 -0.0091378745 0.12879673 0.1506183 -0.07264921 0.05017339
0.30824357 0.12994996 0.23959155 -0.1659048 -0.052113637 -0.15161131 -0.2334954 -0.008821054
0.0069647566 -0.029849706 0.24369593 0.13986227 0.29775378 0.34045577 0.109029144 -0.015737467
0.052802972 -0.16022028 -0.020970177 0.16906427 0.23751728 0.086312436 0.04419945 0.020626772
00000000: f628 303e b5ec 9cbd a589 183e 99a0 83bd
00000010: 8497 6ebc ae52 41be 04c5 db3e 50fd 1d3c
00000020: da24 bbba 8d90 cd3c 3601 0abe 2cf3 23be
00000030: d551 ac3d 5e5a 2f3e ed8e 453e d1fe 743e
00000040: b1a6 cb3c 7090 713d d7e2 423e e80b bf3c
00000050: 0e3c a7bd 4149 17be 2294 623a 2024 9ebc
00000060: 305a b4bd 7609 32be d9db 423d 2b2e 983e
00000070: 9d08 2bbe b339 963e 2a85 263e da29 213e
00000080: cbe4 8e3b de57 13bd 1b0b 943d 8d46 5fbe
00000090: 1cac 623e e343 f8bd 148c 65be 4ae9 62be
000000a0: e49f 40bc 1976 e63d 8717 7e3e 7774 9a3e
000000b0: dfcf 13be 0cbd 2e3c 3a30 5dbd ff10 0c3e
000000c0: ac02 293e 09ff fabd ab3c e4bd e0ac 993e
000000d0: 1d62 a03e 1c8d b7bd d968 a1bd be76 75bb
000000e0: 49c8 f23b 115d 363e 1754 04be 9144 3bbb
000000f0: 1f81 d6bc 5daa a6bd 919e 693d 7e66 213b
00000100: cc95 803e 9298 273e 91ef bebd b0c1 6abc
00000110: 4b73 663d 1f99 2fbe 123d 4d3e bf1c 613d
00000120: 7464 fb3c 162e 143e 0fea 4fbd 98d9 743e
00000130: c566 f0bd 2689 38bd d800 0d3d 2ec0 3e3d
00000140: eb96 093e 555f eabc 8459 e3bc 6c47 1cbd
00000150: 1520 3abd 5feb ce3c b5d0 06be 6a6c 7e3d
00000160: 3b9e de3d 5dbe 51bd 5505 91bd c7bf 67be
00000170: c272 73be 9cff c7bd 0b6b 4ebd 3600 d3bc
00000180: f3e4 fcbc 6ec1 f63d 410e e23d 5a32 03be
00000190: 097b 41be 6ec4 0cbd a741 90be 94ce 0cbd
000001a0: cecc 4f3e d0bf b2be d86c 123e 2a6c 86be
000001b0: 6c50 e0be c346 6cbd d9b8 24bd f535 83be
000001c0: a928 833d d90b 42be 129e 28be e99d 2bbd
000001d0: 67a5 6f3d 730d 42be 7792 9abe a36b 463d
000001e0: 57b3 90bd b8cf e0bd 8e06 8abe af66 9cbd
000001f0: 9a78 0fbd a200 343d 275a 563e 2895 223e
00000200: 3dd1 443e 023a 503e 45e6 853d e580 4a3d
00000210: 659e b4bd 7881 6f3d c182 c03d c3f6 0fbd
00000220: 972f 64bd e0f3 893d 23f8 acbc 1005 a9bd
00000230: cc87 8d3d d720 e2bc e840 0c3d d8f3 09be
00000240: 1a5a 3f3c 0b30 71bd 5034 8b3c d1ce debd
00000250: 4c07 89bc 4f3f ab3c 0b16 ba3d 67ed a6bd
00000260: 8fd6 91bd 4c4f ffbd 2bb9 d8bd 4f84 113e
00000270: 9f38 3bbd ad41 3d3e 1bf7 053e f607 083c
00000280: af5d c33e 1d94 453d 9856 233e f3b2 a3bd
00000290: 5062 e23a 61a6 b13e 2b61 04be 1dd4 42be
000002a0: 45d2 41be b9a7 85be 14ee 99bd 5bf4 0e3d
000002b0: 8464 10be 0ce2 e73a 9ca9 0f3e 1232 623e
000002c0: a34f edbd eb69 6cbe 95ab 16be 1665 0d3e
000002d0: 83b0 e83b 800c e23e 142a aa3e 1340 993e
000002e0: efab a1be 82a7 4bbe f659 f93d 95ec a8bc
000002f0: 3b6e 8fbd 8e88 6abc 8427 93be 337c 2f3e
00000300: 189d 34be 27cf 3abe cfe1 c13d 24a8 4cbe
00000310: 2b53 8ebb 9328 2c3e 90ef 8ebd 444f 23be
00000320: 13ad d3bb cd97 49bd ac79 043e bab3 433e
00000330: de08 b73e 2d81 98bd 9bad 08bd c1f1 f53d
00000340: 1313 b53e b951 483d 5957 2dbd 8633 a3bd
00000350: 6953 173c 25ad 44bd 2c98 d8bb df73 cf3d
00000360: 8595 e63c 553a ccbd 366a 2cbe 6d01 a0bd
00000370: de61 04be 9c1d 0d3d 0523 023c 2493 d83d
00000380: a7b8 efbd 5141 6d3d fa6d bcbd 06b7 15bc
00000390: 4ae3 033e af3b 1a3e 1cc9 94bd 9d82 4d3d
000003a0: 1ad2 9d3e 9a11 053e 7d57 753e f3e2 29be
000003b0: 1c75 55bd ff3f 1bbe 6b19 6fbe 2f86 10bc
000003c0: 9d38 e43b 5f87 f4bc 6d8b 793e 0e38 0f3e
000003d0: 2f73 983e 3850 ae3e ac4a df3d dceb 80bc
000003e0: ee47 583d c910 24be a6c9 abbc 2f1f 2d3e
000003f0: bb37 733e 93c4 b03d 7c0a 353d 7af9 a83c

l1.bias f4 [256]
-0.06550882 -0.08698199 -0.019857768 0.08983952 0.13784954 0.075063266 -0.0909512 -0.0880862
-0.0002019484 -0.07747075 -0.12247178 0.08868193 -0.06563683 -0.06476924 -0.07747366 0.059403338
-0.005106765 0.0055556935 0.015934192 -0.015154539 -0.07165332 -0.18668708 -0.081937045 0.0228558
0.12105288 -0.06896679 -0.051242717 -0.09695995 -0.09401952 -0.1526787 0.10156163 -0.05878893
-0.05912119 -0.032727562 -0.11801755 0.092572354 -0.005533061 -0.042923804 -0.035868667 -0.13332869
0.07024758 0.00850546 -0.0480795 -0.09550164 0.002819132 -0.13223018 -0.044703167 0.02076062
0.017160337 0.03204838 0.026445892 0.0013659992 0.009174232 -0.07723118 0.01614879 0.09562078
0.12117265 -0.13132757 0.10473815 -0.1071717 -0.095884115 0.025719948 -0.034220666 -0.080986634
0.055511422 -0.07892798 -0.105579406 -0.11750395 0.013859292 0.13233456 0.06271995 0.05959477
0.013274347 0.07971181 -0.010461829 -0.062624454 -0.10670429 -0.08581066 0.14355738 0.07344585
0.028268581 -0.05001796 0.12586685 -0.09479828 0.019596914 -0.005954491 0.107150875 0.08283264
0.15258496 -0.029024877 0.1310918 -0.14500472 0.052063946 -0.07402868 0.0812632 -0.01893632
-0.16371576 0.06881939 -0.09458149 -0.13501723 -0.1370246 -0.109172225 -0.15498577 -0.190672
0.012014684 0.10545804 -0.04435951 -0.052271757 -0.19955845 -0.017531479 -0.04705947 0.056048315
-0.016465398 -0.025382811 0.01809257 -0.08376133 -0.030588714 0.099014185 -0.20493907 -0.06075031
0.0987551 0.011291929 0.007564962 -0.026994625 0.03853647 0.09671347 -0.19549748 -0.030477801
-0.023381855 -0.07042697 0.015660597 0.120322764 -0.07843637 0.09322954 0.11496177 0.15726854
-0.12371025 0.05823542 -0.11758243 -0.18856454 -0.12972666 -0.07434809 0.012616628 0.10424618
0.10799219 0.1626109 -0.13689223 -0.04433324 0.124718525 -0.19847958 -0.030026285 0.02145444
0.0247247 0.059149437 -0.052378576 -0.013091581 -0.073880106 -0.021854825 0.1353467 0.048451506
-0.14083897 -0.032919 0.1055365 -0.06028758 -0.06254031 0.018076388 -0.06306391 -0.001157097
0.13302453 0.15204096 0.009497772 0.007440665 0.08883187 0.19988304 -0.07884775 0.16341884
-0.13574328 -0.0029013173 0.0032236106 0.076546095 -0.008055773 -0.014788853 -0.115191795 0.012558281
-0.098939344 -0.2438184 0.027586112 -0.14490584 -0.16592437 0.13739629 -0.0014671062 0.20805077
0.10313592 -0.041031778 0.07044381 -0.08048133 -0.06816109 -0.055332467 0.0047331327 0.14880778
0.03820647 -0.06831377 0.021668028 -0.11109924 -0.16656806 0.16082555 -0.08565513 -0.003591905
0.04422108 -0.11663094 0.11588042 -0.14393696 0.123068765 -0.05913307 -0.011881787 -0.0031205793
0.17284296 0.10427623 0.00029898752 0.038539175 0.2053025 -0.018280398 0.122633725 -0.06896499
0.1973137 0.09389369 -0.05441613 -0.18136707 0.04506288 0.03328059 0.044880092 0.004858509
0.13604714 -0.010087545 -0.13450252 0.12658186 -0.17584878 0.046941362 0.025378095 0.0547945
0.11539101 0.05320107 0.014258802 -0.010858183 0.10005452 -0.10107088 -0.0058016093 0.07701403
0.07238004 -0.042322278 0.12714887 0.1090155 0.10213755 -0.0659662 0.02346498 0.10933296
00000000: 7d29 86bd 9d23 b2bd c2ac a2bc c8fd b73d
00000010: 6e28 0d3e c5ba 993d 9f44 babd 8a66 b4bd
00000020: 1cc2 53b9 fca8 9ebd 7cd2 fabd df9e b53d
00000030: 9a6c 86bd bca5 84bd 83aa 9ebd ea50 733d
00000040: a656 a7bb 890c b63b 6c88 823c be4a 78bc
00000050: fabe 92bd e62a 3fbe 9cce a7bd 163c bb3c
00000060: 93ea f73d 763e 8dbd e2e3 51bd f092 c6bd
00000070: 4e8d c0bd ce57 1cbe 8bff cf3d a9cc 70bd
00000080: 1029 72bd 560d 06bd 2fb3 f1bd 9396 bd3d
00000090: ae4e b5bb dfd0 2fbd 06eb 12bd 5187 08be
000000a0: f7dd 8f3d 7c5a 0b3c 03ef 44bd 5d96 c3bd
000000b0: 30c1 383b 5967 07be ab1a 37bd 2d12 aa3c
000000c0: d693 8c3c 2945 033d 0ea5 d83c 540b b33a
000000d0: 854f 163c 622b 9ebd 784a 843c d4d4 c33d
000000e0: 5e29 f83d bc7a 06be f580 d63d d67c dbbd
000000f0: e45e c4bd a4b2 d23c f82a 0cbd 52dc a5bd
00000100: f25f 633d fea4 a1bd 043a d8bd e9a5 f0bd
00000110: 1512 633c b682 073e 5173 803d a519 743d
00000120: a67c 593c f23f a33d 1768 2bbc 4041 80bd
00000130: c787 dabd 80bd afbd b500 133e c76a 963d
00000140: 8393 e73c a2df 4cbd 3de3 003e 9a25 c2bd
00000150: b589 a03c e41d c3bb eb71 db3d 29a4 a93d
00000160: 3b3f 1c3e 94c5 edbc ee3c 063e 1e7c 14be
00000170: 0141 553d 599c 97bd 526d a63d 5720 9bbc
00000180: 1ba5 27be 2ef1 8c3d f1b3 c1bd f541 0abe
00000190: 2d50 0cbe b095 dfbd 97b4 1ebe 853f 43be
000001a0: 3dd9 443c 63fa d73d 51b2 35bd e91a 56bd
000001b0: 0d59 4cbe 2d9e 8fbc 6ec1 40bd eb92 653d
000001c0: 71e2 86bc 9def cfbc df36 943c 0f8b abbd
000001d0: 2f95 fabc f3c7 ca3d 8cdb 51be 51d5 78bd
000001e0: 1d40 ca3d c801 393c 80e3 f73b d523 ddbc
000001f0: 6bd8 1d3d b611 c63d 7e30 48be 95ac f9bc
00000200: 4e8b bfbc 043c 90bd a74a 803c c86b f63d
00000210: 3fa3 a0bd 21ef be3d 1471 eb3d 010b 213e
00000220: cd5b fdbd 4488 6e3d 0fcf f0bd 1017 41be
00000230: 11d7 04be d043 98bd f9b5 4e3c 057f d53d
00000240: 022b dd3d 7983 263e 7a2d 0cbe c596 35bd
00000250: 6d6c ff3d 3b3e 4bbe aff9 f5bc 39c1 af3c
00000260: 748b ca3c ae46 723d eb8a 56bd 127e 56bc
00000270: 744e 97bd e408 b3bc 5398 0a3e 1675 463d
00000280: 1738 10be 13d6 06bd 8523 d83d 1cf0 76bd
00000290: 2215 80bd ef14 943c a727 81bd bca9 97ba
000002a0: 9537 083e a0b0 1b3e 8b9c 1b3c d2d0 f33b
000002b0: 7ced b53d 24ae 4c3e ee7a a1bd 4557 273e
000002c0: 4900 0bbe 0724 3ebb 3643 533b 33c4 9c3d
000002d0: 5cfc 03bc f24c 72bc ade9 ebbd 40c1 4d3c
000002e0: b6a0 cabd 88ab 79be 45fc e13c 3262 14be
000002f0: 14e8 29be 9db1 0c3e ea4b c0ba 430b 553e
00000300: ed38 d33d f010 28bd d844 903d 65d3 a4bd
00000310: 0b98 8bbd 4ca4 62bd 6518 9b3b 1161 183e
00000320: 637e 1c3d 17e8 8bbd 2681 b13c 0088 e3bd
00000330: d190 2abe 74af 243e f56b afbd 2b66 6bbb
00000340: 2a21 353d 34dc eebd b752 ed3d 3664 13be
00000350: 7a0b fc3d 8535 72bd d4ab 42bc a282 4cbb
00000360: bffd 303e c78e d53d 6dc1 9c39 41db 1d3d
00000370: d23a 523e c6c0 95bc 6427 fb3d 843d 8dbd
00000380: 9a0c 4a3e 564b c03d 73e3 5ebd 4ab8 39be
00000390: db93 383d 3a51 083d 30d4 373d 2134 9f3b
000003a0: f14f 0b3e 3b46 25bc 07bb 09be ad9e 013e
000003b0: b411 34be 9645 403d b9e5 cf3c 3370 603d
000003c0: 1f52 ec3d 5de9 593d c09d 693c 85e6 31bc
000003d0: 62e9 cc3d 40fe cebd 6d1b bebb 88b9 9d3d
000003e0: fd3b 943d 205a 2dbd 5033 023e 8543 df3d
000003f0: 7e2d d13d 4919 87bd a139 c03c f5e9 df3d

l2.weight f4 [256, 256]
-0.037531346 -0.025644602 -0.0856538 -0.023383744 -0.03638919 -0.04405943 -0.017489666 -0.049014572
-0.07149244 -0.028577335 0.023247808 -0.20214795 0.0020912588 0.16511257 0.004878033 0.041124985
0.16128045 0.11037565 -0.077951804 -0.06983245 0.17506407 -0.011052262 0.08692304 -0.05884252
0.0038265495 0.17086728 -0.07639533 0.20574167 -0.00096930825 0.21443309 -0.018788777 -0.12189385
0.052205108 -0.08528779 0.12700507 -0.18573381 -0.06037376 0.13356516 0.05038071 0.0680355
-0.05345207 0.38481897 -0.16594067 0.13276193 0.2017495 0.14407335 0.084652014 0.013815603
-0.10845438 0.06637623 -0.03614569 -0.15084901 -0.009919705 0.16437468 0.09108608 0.06673833
0.11268226 -0.13835537 -0.10915637 0.042821012 -0.0798754 -0.15044115 0.07709768 0.09464544
-0.004197574 -0.068243735 -0.01478671 0.0659362 0.090658285 -0.022380913 0.112428255 0.0033925178
-0.040889986 -0.010836459 0.085774444 0.14500153 0.023052337 0.08700143 0.087924436 -0.21813463
-0.19822909 -0.17894341 0.045769118 -0.12262032 -0.12541208 -0.003633587 -0.047872465 0.1253664
-0.15160795 0.03821172 -0.16909486 0.118068695 -0.121109664 0.07686664 0.12742966 0.026109632
0.031050377 -0.019653633 -0.007528025 0.09675712 0.14431684 0.016255332 0.10257656 0.00273102
0.16709216 0.08817232 -0.09055065 0.0060746265 0.018961223 0.24621858 -0.111952685 -0.014251219
0.29233766 -0.17633328 -0.07903908 0.29420578 0.08934838 -0.065094545 0.013774947 0.070983924
-0.13760112 -0.037442937 0.03495808 -0.058157552 -0.18279202 0.06007832 0.14363325 0.0020543889
0.048192743 0.02405275 -0.1130697 -0.17012322 0.058458596 -0.12732807 -0.083220445 -0.12526014
0.0030034885 -0.10496522 -0.038145073 0.12045786 0.15421875 0.06649224 -0.06967354 0.012709618
-0.028133389 -0.014140036 -0.06668631 -0.13691351 0.104531564 0.088946685 0.03386164 0.08342755
-0.06904192 -0.20619485 -0.08296016 -0.14799269 0.07948362 -0.05993086 -0.18125977 -0.04464082
0.07268954 -0.05753626 -0.11712849 0.16460826 -0.16455147 0.28133786 -0.028473794 -0.13346095
0.0057493947 -0.11859364 0.015926944 -0.014947582 -0.121516146 -0.17976032 -0.16227198 0.040047508
-0.14288604 0.15078793 0.17117015 0.03654958 0.079047814 0.04954254 0.19642681 0.11298514
0.2495893 -0.035106838 0.24620602 -0.034888398 0.14118323 -0.1629441 -0.056199647 -0.27076095
0.0061677187 -0.08593505 0.05142182 0.015678378 0.11136087 0.009170884 -0.18638086 -0.03964326
-0.045962986 0.02493106 -0.09743595 0.17267695 0.1082144 0.10366363 0.006105789 0.09108301
0.097295076 0.035216216 -0.16475834 0.13192932 -0.08793598 -0.112386286 -0.02038219 -0.09174835
-0.031271014 0.06283405 -0.012887076 -0.15141246 -0.015512056 0.11529569 -0.011405966 0.07694992
-0.09092916 0.068853825 0.17977469 0.27740562 -0.07860366 0.20433185 0.15246882 0.0368304
-0.050686024 0.06298803 -0.016478706 -0.014999437 0.17862384 0.02638821 0.07485089 0.009737805
0.0804203 0.041084863 0.055109296 -0.19023241 -0.12752078 -0.07555201 -0.31920975 -0.1534878
-0.005841407 0.10030713 0.07319205 -0.15070313 0.11064659 0.09327503 -0.06080398 -0.09895179
00000000: 78ba 19bd a114 d2bc 426b afbd 448f bfbc
00000010: d50c 15bd a977 34bd 7d46 8fbc 81c3 48bd
00000020: a16a 92bd 041b eabc 3072 be3c dfff 4ebe
00000030: 800d 093b 4513 293e e8d7 9f3b ac72 283d
00000040: b426 253e a10c e23d 32a5 9fbd 5104 8fbd
00000050: ff43 333e 8c14 35bc b504 b23d db04 71bd
00000060: d9c6 7a3b d5f7 2e3e 2875 9cbd f2ad 523e
00000070: 2d19 7eba 5994 5b3e ecea 99bc 7ca3 f9bd
00000080: 06d5 553d 5dab aebd 9e0d 023e 0131 3ebe
00000090: 7a4a 77bd 4ec5 083e 015c 4e3d 3256 8b3d
000000a0: 8ff0 5abd fe06 c53e 5aec 29be bef2 073e
000000b0: 6c97 4e3e f787 133e 095e ad3d d75a 623c
000000c0: 541d debd 43f0 873d 810d 14bd 2a78 1abe
000000d0: 4286 22bc d651 283e 578b ba3d 1bae 883d
000000e0: f5c5 e63d 08ad 0dbe 608d dfbd 1665 2f3d
000000f0: b795 a3bd 3f0d 1abe 63e5 9d3d 78d5 c13d
00000100: ce8b 89bb 5fc3 8bbd f543 72bc 8f09 873d
00000110: 0dab b93d 2d58 b7bc c940 e63d 0155 5e3b
00000120: 427c 27bd 678b 31bc 83aa af3d 487b 143e
00000130: 41d8 bc3c ce2d b23d ba11 b43d af5e 5fbe
00000140: 91fc 4abe f13c 37be 6678 3b3d 5d20 fbbd
00000150: 066c 00be 7921 6ebb eb15 44bd 0d60 003e
00000160: 1d3f 1bbe e483 1c3d 3427 2dbe 00ce f13d
00000170: 5808 f8bd 426c 9d3d ec7c 023e dee3 d53c
00000180: 5c5d fe3c a800 a1bc a7ad f6bb 9928 c63d
00000190: cbc7 133e e729 853c a913 d23d eafa 323b
000001a0: 351a 2b3e b093 b43d 9f72 b9bd a90d c73b
000001b0: 9154 9b3c b920 7c3e 7347 e5bd f27d 69bc
000001c0: 48ad 953e b690 34be 3edf a1bd 24a2 963e
000001d0: 49fc b63d 4a50 85bd 51b0 613c 0560 913d
000001e0: 4fe7 0cbe c45d 19bd 3430 0f3d 9d36 6ebd
000001f0: d52d 3bbe af14 763d 9814 133e eda2 063b
00000200: c165 453d 460a c53c 1691 e7bd c834 2ebe
00000210: 4872 6f3d 4a62 02be 7b6f aabd 3244 00be
00000220: 2dd6 443b 01f8 d6bd 023e 1cbd 9cb2 f63d
00000230: 85eb 1d3e 152d 883d 00b1 8ebd 003c 503c
00000240: fe77 e6bc 9cab 67bc d592 88bd 0e33 0cbe
00000250: a514 d63d ae29 b63d 81b2 0a3d 10dc aa3d
00000260: da65 8dbd be24 53be 04e7 a9bd 658b 17be
00000270: 4fc8 a23d 107a 75bd 299c 39be 4bd9 36bd
00000280: 41de 943d 24ab 6bbd 10e1 efbd 118f 283e
00000290: 2e80 28be 840b 903e e041 e9bc fda9 08be
000002a0: 6b65 bc3b 39e1 f2bd 3979 823c b4e6 74bc
000002b0: 75dd f8bd 1713 38be a02a 26be db08 243d
000002c0: b850 12be 2768 1a3e 3a47 2f3e 03b5 153d
000002d0: d2e3 a13d 1eed 4a3d 1c24 493e c164 e73d
000002e0: 5694 7f3e 30cc 0fbd 6e1d 7c3e 23e7 0ebd
000002f0: 5692 103e d1da 26be 9a31 66bd 2ea1 8abe
00000300: 931a ca3b b7fe afbd b09f 523d f16f 803c
00000310: 2b11 e43d 7a41 163c a0da 3ebe f960 22bd
00000320: af43 3cbd 393c cc3c 808c c7bd 3ad2 303e
00000330: 839f dd3d 994d d43d 1213 c83b bb89 ba3d
00000340: a442 c73d e13e 103d 69b6 28be 7b18 073e
00000350: c717 b4bd c82a e6bd 8df8 a6bc 8fe6 bbbd
00000360: 0916 00bd 23af 803d 5024 53bc de0b 1bbe
00000370: 4726 7ebc 2620 ec3d 17e0 3abc eb97 9d3d
00000380: 1139 babd 3c03 8d3d db16 383e 1c08 8e3e
00000390: f5fa a0bd 5e3c 513e c920 1c3e 79db 163d
000003a0: 269c 4fbd deff 803d 5afe 86bc 33c0 75bc
000003b0: 2be9 363e 162c d83c 6c4b 993d 518b 1f3c
000003c0: 66b3 a43d 9a48 283d 49ba 613d 49cc 42be
000003d0: cf94 02be 03bb 9abd 766f a3be e82b 1dbe
000003e0: 4669 bfbb d36d cd3d b7e5 953d ec51 1abe
000003f0: ae9a e23d fb06 bf3d 980d 79bd 3ca7 cabd

l2.bias f4 [256]
-0.11867262 -0.059409324 0.048916347 -0.078925356 -0.13482784 0.14372237 0.02266672 0.09026814
-0.22783639 -0.046296645 0.029235102 -0.0745951 -0.009652593 -0.06690294 -0.17838131 0.10699026
-0.05667342 -0.13019583 0.084451646 0.015782854 0.054641817 0.14847487 0.05798845 -0.1668802
0.044079676 0.05000699 -0.20490655 -0.20279732 0.0131729245 0.100320354 -0.16458093 -0.10408733
-0.047177408 0.15547219 -0.07891594 -0.0016411364 0.013354405 0.025089616 -0.1621502 -0.024023466
0.23083004 -0.10516814 0.03041654 -0.09190802 0.1922321 -0.09350884 -0.013399765 -0.1416816
0.18100853 0.10784504 -0.06524762 -0.026335262 0.043077014 0.02863695 -0.047327824 0.016409872
0.06837363 0.07777984 0.015324307 -0.089516394 0.026593067 0.13908792 -0.12545928 0.19903177
0.1302229 -0.13660695 0.05296779 -0.016077103 -0.03828563 0.0725655 0.04546079 0.056000363
-0.05792518 0.07174207 -0.03541631 -0.15537553 0.069438905 0.18772233 -0.13184234 0.06846058
0.14356342 0.17344296 0.02602832 0.13642791 0.019838246 0.10391195 0.07878279 -0.0039293137
0.20435193 -0.058646355 -0.032535423 0.03993177 0.0022015024 0.0897063 0.05878563 -0.10363516
-0.15585256 0.048716597 0.0044696806 0.10159098 0.08223335 -0.039589297 -0.022079926 -0.1777493
0.07210529 -0.013965823 0.18165357 0.0055559147 0.04239794 -0.009549189 0.041235276 0.06022431
-0.13237077 0.13197607 0.20390496 0.075508885 -0.04572784 0.049802717 0.08819227 -0.12773427
0.14626116 -0.047916535 -0.068088315 -0.07044867 -0.0600554 -0.09613369 -0.02967298 0.14337185
-0.028242951 -0.05040678 -0.075009 -0.01643981 0.0923295 0.14448926 -0.094217 -0.06474005
-0.07197376 -0.06513142 -0.007185338 0.012500727 -0.052159186 -0.16721661 0.19270016 -0.03712506
0.073974244 -8.9554815e-05 -0.019345168 0.026361316 0.10484011 0.057250764 0.003258355 0.03993045
0.011018055 -0.12757286 0.103435166 0.020747166 0.021452231 0.14551851 -0.18286033 -0.0027259155
0.02362917 0.06663222 0.19413677 -0.09064716 -0.0818002 0.04469361 -0.0502386 0.24525967
0.104805574 0.063169 -0.17404334 0.12665007 -0.10108126 0.104835935 0.009781376 -0.1372572
0.03988988 0.059623413 -0.10596901 0.13991502 0.0143940095 0.1839878 -0.006641444 0.14327239
-0.08228877 0.07457338 -0.066651165 0.25037104 0.057377636 0.0470174 -0.037056927 -0.06936586
0.048091613 0.06428444 0.1124335 -0.03681159 -0.033938896 -0.06961258 0.055620182 0.18112996
-0.029640028 0.10137576 -0.05728266 -0.01427912 0.030071039 -0.026644854 0.027722336 -0.04177023
-0.053997904 0.0020341044 -0.08713577 -0.03681841 0.06184911 -0.08712096 -0.09870351 -0.04483866
-0.021131236 -0.05033027 0.07411069 0.13179967 -0.22069992 0.09187096 -0.027135719 0.08993786
-0.10604726 -0.059129518 -0.05930629 0.14572404 0.038021278 -0.09070777 0.23391895 -0.050540093
-0.038644083 -0.051933695 -0.07458358 -0.10977403 0.0020862918 -0.105992205 -0.06004929 0.011898351
0.08160491 0.00040387528 -0.08764482 0.066351645 -0.01192648 -0.030710056 -0.09499817 0.06640148
-0.013343969 -0.047194995 -0.17295016 -0.11882911 -0.06347094 0.09004679 0.0045253756 -0.21927325
00000000: a10a f3bd 3157 73bd 825c 483d 9ea3 a1bd
00000010: 4f10 0abe f52b 133e 8faf b93c 81de b83d
00000020: f14d 69be 8da1 3dbd 747e ef3c 51c5 98bd
00000030: e925 1ebc 6904 89bd 97a9 36be b61d db3d
00000040: 6322 68bd 0e52 05be fcf4 ac3d 0b4b 813c
00000050: 19d0 5f3d cc09 183e 4c85 6d3d a5e2 2abe
00000060: e48c 343d 21d4 4c3d 06d3 51be 1aaa 4fbe
00000070: 40d3 573c c274 cd3d e787 28be bd2b d5bd
00000080: 193d 41bd 1a34 1f3e ae9e a1bd 661b d7ba
00000090: 6fcc 5a3c bd88 cd3c b40a 26be dccc c4bc
000000a0: b65e 6c3e 6562 d7bd 1c2c f93c 463a bcbd
000000b0: 7ed8 443e 9081 bfbd b08a 5bbc fb14 11be
000000c0: 4d5a 393e dcdd dc3d 8ba0 85bd 0cbd d7bc
000000d0: 8671 303d 0998 ea3c d2da 41bd ff6d 863c
000000e0: 7907 8c3d 094b 9f3d cd12 7b3c 5f54 b7bd
000000f0: b4d9 d93c 106d 0e3e 6678 00be fcce 4b3e
00000100: 2759 053e b1e2 0bbe c1f4 583d 21b4 83bc
00000110: 65d1 1cbd 399d 943d 1835 3a3d a360 653d
00000120: f442 6dbd 82ed 923d b110 11bd c31a 1fbe
00000130: fc35 8e3d 483a 403e ae01 07be 1035 8c3d
00000140: 4a02 133e 089b 313e 5839 d53c c2b3 0b3e
00000150: d183 a23c cacf d43d df58 a13d 79c1 80bb
00000160: a241 513e 2937 70bd dd43 05bd 7f8f 233d
00000170: 1547 103b f0b7 b73d 33c9 703d ac3e d4bd
00000180: d097 1fbe 0e8b 473d 6676 923b ef0e d03d
00000190: f569 a83d 6328 22bd f6e0 b4bc ea03 36be
000001a0: f0ab 933d e8d0 64bc 6503 3a3e 640e b63b
000001b0: 76a9 2d3d 3474 1cbc 52e6 283d c4ad 763d
000001c0: 348c 07be bc24 073e 76cc 503e 67a4 9a3d
000001d0: 1e4d 3bbd effd 4b3d 269e b43d c6cc 02be
000001e0: 7cc5 153e 2144 44bd e371 8bbd 6447 90bd
000001f0: a7fc 75bd bde1 c4bd c014 f3bc 12d0 123e
00000200: c35d e7bc 5777 4ebd 529e 99bd c8ac 86bc
00000210: 4017 bd3d fef4 133e d8f4 c0bd 6e96 84bd
00000220: fb66 93bd 9f63 85bd fc72 ebbb d9cf 4c3c
00000230: dfa4 55bd d53a 2bbe 3153 453e 7210 18bd
00000240: cf7f 973d 60cf bbb8 c279 9ebc b0f3 d73c
00000250: 69b6 d63d c77f 6a3d 208a 553b 1d8e 233d
00000260: 1285 343c 76a2 02be d1d5 d33d f6f5 a93c
00000270: 97bc af3c ce02 153e bd3f 3bbe 46a5 32bb
00000280: f691 c13c 7976 883d cacb 463e 38a5 b9bd
00000290: dd86 a7bd a610 373d fdc6 4dbd 5a25 7b3e
000002a0: 4ea4 d63d c05e 813d 6b38 32be 8eb0 013e
000002b0: b103 cfbd 39b4 d63d 1142 203c 278d 0cbe
000002c0: 9263 233d ae37 743d 4806 d9bd e245 0f3e
000002d0: dad4 6b3c 4c67 3c3e 78a0 d9bb ffb5 123e
000002e0: 0487 a8bd eeb9 983d 6880 88bd a230 803e
000002f0: d004 6b3d 5195 403d 01c9 17bd b00f 8ebd
00000300: b6fb 443d 8fa7 833d 8943 e63d c0c7 16bd
00000310: 8303 0bbd 0a91 8ebd fdd1 633d 227a 393e
00000320: a5cf f2bc 189e cf3d 39a1 6abd f8f2 69bc
00000330: 8a57 f63c 4f46 dabc f419 e33c 4317 2bbd
00000340: e82c 5dbd 9c4e 053b 3d74 b2bd e7ce 16bd
00000350: 7e55 7d3d 796c b2bd 1125 cabd bea8 37bd
00000360: 6a1b adbc 1d27 4ebd 58c7 973d 7ef6 063e
00000370: 29ff 61be d826 bc3d ba4b debc 5731 b83d
00000380: 4e2f d9bd cb31 72bd 27eb 72bd af38 153e
00000390: 33bc 1b3d ffc4 b9bd 7388 6f3e 2103 4fbd
000003a0: 4249 1ebd 6db8 54bd 47bf 98bd 35d1 e0bd
000003b0: 2bba 083b 7112 d9bd 3ff6 75bd 4df1 423c
000003c0: 7a20 a73d 39bf d339 217f b3bd 5fe3 873d
000003d0: 4867 43bc a893 fbbc 678e c2bd 80fd 873d
000003e0: aaa0 5abc 8a4f 41bd d919 31be ad5c f3bd
000003f0: 0dfd 81bd 746a b83d 9a49 943b 2b89 60be

l3.weight f4 [13, 256]
-0.16458637 0.5026968 0.1527965 0.06989978 0.061370943 -0.15215655 -0.2181052 -0.04478395
0.22704272 -0.15500377 0.17120239 -0.019050336 0.57361025 0.35314587 0.3810847 0.43979833
-0.08317458 0.10822457 -0.42652786 0.03370991 -0.10690369 0.16217193 0.075855196 -0.019522129
0.31397143 -0.21483998 0.22159588 0.11803926 -0.32533854 -0.18229128 -0.15143064 0.7652991
-0.24885833 -0.12486997 0.102297075 0.2961066 -0.3417764 0.2456468 0.23543014 -0.060905084
-0.028541045 -0.06137266 -0.27062213 -0.21823987 -0.10502127 -0.067484275 -0.14650366 0.05020834
-0.24462833 0.059064094 -0.12393285 -0.24864325 0.0057175956 -0.35540482 -0.049891602 -0.24781549
-0.009492879 -0.4275446 0.079146594 0.095423244 0.0069621922 -0.12507212 0.32573128 -0.4257872
-0.18825588 0.019302445 -5.070596e-05 0.047378685 -0.108872965 -0.36871615 -0.24641673 0.045804415
-0.040137693 -0.17022006 0.06191644 0.30854127 0.0776563 -0.14648443 -0.033066828 -0.09472095
-0.11428087 -0.9592474 -0.19927879 -0.5461931 0.1298563 -0.4138148 -0.15282196 -0.2409885
-0.2637653 -0.23861551 -0.13587369 0.13423099 -0.22624213 -0.07477405 -0.19188724 0.0857213
0.2531192 -0.27942824 0.179196 0.06499278 -0.37415326 0.5217791 0.38924965 0.02057719
0.09759582 0.7631539 -0.33117324 0.06969804 0.15608473 -0.44233444 -0.40825674 0.058164854
-0.04812863 -0.08986461 -0.12374298 -0.17080815 -0.14658797 -0.12775518 -0.4365764 1.0052403
-0.17107494 -0.023998521 0.18720658 0.30112422 -0.4539113 -0.050591093 0.18671991 -0.118301876
-0.13717824 0.10906914 -0.17013337 -0.6693627 0.0033221333 -0.19334118 -0.20946145 0.0887455
0.24454027 -0.03890822 0.07868687 0.18503205 0.015637744 0.15199876 -0.025557231 0.16983502
0.22502658 -0.2505142 0.43232185 0.11770237 -0.12921098 0.16661386 0.08464626 0.15609442
-0.5026644 0.023512606 -0.24271958 -0.02111147 -0.036914226 -0.13783747 0.107823305 0.06338506
0.14151354 0.21275523 -0.6670132 -0.0034484325 -0.3311045 0.0954713 -0.10528918 -0.45786992
-0.58504933 0.08227158 0.8768745 0.19276771 0.076950215 0.041782413 0.044480123 0.029370347
0.24269065 -0.3550062 0.19587617 -0.11574578 -0.027937187 0.040574834 0.23477279 -0.033797648
0.36485234 0.22855335 -0.063275956 -0.06640516 -0.0062796166 0.33891097 0.15748106 0.280766
0.25364152 -0.26832813 -0.24053104 0.079380974 -0.23642945 -0.18838108 -0.3184308 -0.2824942
-0.182101 -0.04886105 -0.028252833 -0.37305516 0.0838063 -0.22597721 -0.0848549 0.014513638
0.45828387 0.26746705 -0.22830378 -0.1928356 -0.12545028 0.44326723 -0.13170673 -0.2318756
0.36144647 -0.024554605 0.3208261 0.060757935 0.34500033 -0.5960547 0.21833447 0.079122625
0.11509964 -0.07567142 -0.0007240113 -0.13484526 -0.5267343 -0.044655837 -0.21818681 0.57454437
-0.10218088 -0.13870403 0.073555484 0.5292813 0.21744485 0.2796775 -0.017902331 0.12485019
-0.6050547 0.3270123 -0.24603537 0.0011399459 0.09719428 0.53978544 0.30578682 -0.6952773
-0.17642593 0.3729263 0.07671747 0.041515436 0.10928671 0.55307394 -0.60247844 0.12778644
00000000: 5489 28be bdb0 003f b076 1c3e 9e27 8f3d
00000010: 1960 7b3d edce 1bbe f856 5fbe 606f 37bd
00000020: e37d 683e 4fb9 1ebe ae4f 2f3e 730f 9cbc
00000030: 1fd8 123f 89cf b43e 891d c33e 3f2d e13e
00000040: 6f57 aabd d8a4 dd3d dc61 dabe 6713 0a3d
00000050: 52f0 dabd 6610 263e f859 9b3d dfec 9fbc
00000060: ddc0 a03e 03ff 5bbe 08ea 623e 91be f13d
00000070: c692 a6be 91aa 3abe a210 1bbe a4ea 433f
00000080: b8d4 7ebe d4bb ffbd 2181 d13d 499b 973e
00000090: 51fd aebe d68a 7b3e 9914 713e 9c77 79bd
000000a0: e9ce e9bc e661 7bbd fc8e 8abe 467a 5fbe
000000b0: 6415 d7bd 3235 8abd 0e05 16be 43a7 4d3d
000000c0: d97f 7abe 31ed 713d 82d0 fdbd 569c 7ebe
000000d0: ab5a bb3b 9ff7 b5be 235b 4cbd 58c3 7dbe
000000e0: 0588 1bbc 20e7 dabe 9c17 a23d 436d c33d
000000f0: 1a23 e43b e812 00be 40c6 a63e c800 dabe
00000100: 26c6 40be 2920 9e3c 1cad 54b8 2710 423d
00000110: caf8 debd 5dc8 bcbe ab54 7cbe 699d 3b3d
00000120: 6c67 24bd 2b4e 2ebe 189c 7d3d 1ff9 9d3e
00000130: 440a 9f3d 0400 16be 1571 07bd 0ffd c1bd
00000140: 170c eabd 3d91 75bf bd0f 4cbe 50d3 0bbf
00000150: 0df9 043e 89df d3be 5c7d 1cbe b0c5 76be
00000160: 3f0c 87be a057 74be 7922 0bbe d973 093e
00000170: 04ac 67be 2323 99bd 177e 44be a68e af3d
00000180: d798 813e 3811 8fbe 287f 373e ef1a 853d
00000190: 0491 bfbe 5193 053f bb4b c73e 7f91 a83c
000001a0: 51e0 c73d 0e5e 433f 8a8f a9be d9bd 8e3d
000001b0: add4 1f3e a979 e2be 0707 d1be 453e 6e3d
000001c0: 8722 45bd f00a b8bd f66c fdbd 55e8 2ebe
000001d0: 281b 16be 41d2 02be f186 dfbe b7ab 803f
000001e0: 452e 2fbe 8c98 c4bc 15b3 3f3e f42c 9a3e
000001f0: 1067 e8be 9b38 4fbd 8133 3f3e 4148 f2bd
00000200: 7478 0cbe a45f df3d 7137 2ebe 5b5b 2bbf
00000210: 26b8 593b 3bfb 45be 107d 56be 33c0 b53d
00000220: c468 7a3e 3a5e 1fbd 9526 a13d 0b79 3d3e
00000230: ba1a 803c 90a5 1b3e 665d d1bc 3be9 2d3e
00000240: 5e6d 663e 6643 80be 4a59 dd3e f10d f13d
00000250: e24f 04be d39c 2a3e 055b ad3d 37d7 1f3e
00000260: 9dae 00bf 829d c03c 7b8b 78be f6f1 acbc
00000270: 5f33 17bd 4425 0dbe 77d2 dc3d 07d0 813d
00000280: ede8 103e 82dc 593e 61c1 2abf 19ff 61bb
00000290: 8786 a9be 7586 c33d dba1 d7bd ed6d eabe
000002a0: cbc5 15bf 017e a83d d97a 603f e664 453e
000002b0: 1398 9d3d 0924 2b3d ca30 363d 159a f03c
000002c0: e683 783e 5fc3 b5be c393 483e 200c edbd
000002d0: 87dc e4bc cc31 263d 4768 703e 676f 0abd
000002e0: edcd ba3e e409 6a3e d396 81bd 6eff 87bd
000002f0: 3ec5 cdbb bd85 ad3e b742 213e 90c0 8f3e
00000300: 4ddd 813e 4e62 89be c54d 76be 7e92 a23d
00000310: 901a 72be f8e6 40be 5d09 a3be 14a3 90be
00000320: af78 3abe 8622 48bd 7c72 e7bc 1601 bfbe
00000330: a3a2 ab3d 9266 67be 68c8 adbd 9cca 6d3c
00000340: 2fa4 ea3e 71f1 883e 77c8 69be b276 45be
00000350: 0a76 00be ecf3 e23e 21de 06be cc70 6dbe
00000360: 830f b93e bd26 c9bc 5243 a43e 50dd 783d
00000370: e2a3 b03e 0a97 18bf 1293 5f3e 0b0b a23d
00000380: 5cb9 eb3d 9ef9 9abd 93cb 3dba e014 0abe
00000390: 0fd8 06bf 0ae9 36bd 5d6c 5fbe 5715 133f
000003a0: 3644 d1bd 6e08 0ebe 42a4 963d fb7e 073f
000003b0: dda9 5e3e e431 8f3e e9a7 92bc 75b1 ff3d
000003c0: dde4 1abf 286e a73e b2f0 7bbe 3d6a 953a
000003d0: cb0d c73d 612f 0a3f 1790 9c3e b1fd 31bf
000003e0: 00a9 34be 32f0 be3e 0d1e 9d3d 170c 2a3d
000003f0: b6d1 df3d 4196 0d3f 073c 1abf 73da 023e

l3.bias f4 [13]
-0.26103628 -0.41610342 -0.32111984 -0.2561708 -0.26130998 -0.28514352 -0.32828873 -0.37933373
-0.34400228 -0.36910304 -0.33145297 -0.37541533 -0.37406245
00000000: 8ca6 85be 820b d5be d269 a4be d228 83be
00000010: 6cca 85be 55fe 91be 7615 a8be 0838 c2be
00000020: 1121 b0be 13fb bcbe 34b4 a9be 7036 c0be
00000030: 1d85 bfbe
