Bot/data_time_keyword.pth (torch, 80543 bytes, 6 tensors)

l1.weight f4 [128, 17]
00000000: 0137 1abf 9c57 b8bf 0168 c9bf bd20 afbf
00000010: 5d18 0040 2f6c 713f 5886 103f b8af 86bf
00000020: a19c 58bf ffca 913f 20c6 273f 18a1 94bf
00000030: e4ff 8d3d 7677 cbbf cf04 ec3f c1f7 a3bf
00000040: 8d51 b3bf 0a5e c6bd 6107 acbf 7f32 6dbe
00000050: e9ab 873f 729b da3f 22ca 92bf a635 bbbf
00000060: 9d0e ffbe ba78 eabf 899e 813f 555d 533f
00000070: a27c 0d3f 1c50 bbbf 4c46 8bbf 4a82 c73f
00000080: 3cce 97bf fdc4 933f 82ef 80bf ba51 b9bf
00000090: 3c3d c3bf c5c6 edbf ddc9 a23f c716 0840
000000a0: d811 b83f d8a2 2fbf 77ae 373d 2604 663e
000000b0: 8c6b 613f 450b abbf cf81 cc3f 158e dabf
000000c0: 3a7b a93f 9223 b6be a536 ddbf d520 75bf
000000d0: 7bfe f2be d5e4 77bf 1946 e9bf e25e 8ebf
000000e0: 75a4 8c3f 5053 df3f 4f20 853e ee9b d03e
000000f0: 8a70 11bf 0418 88bf 17a8 e1bf e5c6 e13f
00000100: 5a7a 1abf 0399 8bbf 9a68 2c3e eb5a d4bf
00000110: 6baf 783f c5bc 3a3f 72b2 883f 799c ef3f
00000120: 2a5a 80bf b8f2 bcbf 6c2c 93bf 6da6 06bf
00000130: dde4 3dbf 804f 46bf 87d2 31bf 6413 963f
00000140: 881c e7bf 8454 163f c560 81bf 1058 62be
00000150: 8874 dd3f a7a9 94bf 79b0 99bf b077 84bf
00000160: dc4d f5bf 0fe5 0640 7c11 983f 14e4 043e
00000170: 5564 1bbf 8256 38bf a767 563f 4f72 a23f
00000180: 21cf c9bf 1c0e da3d 849f 72bf fe26 0640
00000190: 50a9 eabe 58dc fcbf d42c 0b3f 410b c1bf
000001a0: 286a e9bd ef34 7f3f 1463 fc3f 5ee5 89bf
000001b0: 5ca9 b4bf 882c 4fbf 1a67 0dc0 fcc3 3f3f
000001c0: c525 8a3f f6ee e43f 2f07 e2bf d930 e4bf
000001d0: dcc9 dc3f 2c24 cbbe a701 7d3f 7cfe 85bf
000001e0: f8af d9be bb1d 90bf b882 dabf ddde e5bf
000001f0: 4391 863f 9e27 c73f 8034 843f 0a8c ab3e
00000200: 9014 95bf df91 b9bf a647 aebf 3844 bc3f
00000210: fddb 0cbf 2f20 a8bf 2d84 3b3f 1f49 b6bf
00000220: 5894 81be c3ad afbf 9ab8 5f3e 5a64 963f
00000230: f72e e33f da85 82bf 4cee bebf 6799 423d
00000240: 5e4d 1dc0 1566 203f 8b6c 5f3f 0c5f a33f
00000250: 587b aebf 8aaf 8dbf 60c8 fc3f f54b a2be
00000260: fb6f af3f 5b4d 2bbf 413d 31bf 45d2 9abf
00000270: 7fb0 c0bf b10d c1bf da1c 3c3e 4063 a4be
00000280: d68c e23f a649 31bf 8bef 61bf bfa0 63bf
00000290: 1c74 86bf 528a 8ebf 97be 58bf 8fa4 afbf
000002a0: 70d4 9a3f d23f 9bbf 3680 823e 1a34 dbbf
000002b0: a357 9ebe f26a 693f 8176 0940 b4ee 9ebf
000002c0: 155e 7cbf 4d39 b9be aa9e e1bf 919a 8a3f
000002d0: 83a5 7d3f a3d6 903f 64c3 01c0 df63 69bf
000002e0: 35cc d43f f29d 69bf 0870 ae3f c8e5 813f
000002f0: 68d6 3dbf dcb9 953d b90c 0340 c404 433f
00000300: d2de 60bf 0c5b 7fbf 2cda a1bf 4273 01c0
00000310: 62a2 a03e 1fb9 b03e c7b1 0940 e4ae 9bbf
00000320: 1c1f 1fbf 020b 703f 2c87 7cbf 6a7b e93f
00000330: 240f 32bf 9600 2e3f 2f63 c9be 7700 a8bf
00000340: c8cd bbbf bc11 9bbf 395c 84bf d962 da3f
00000350: 662c cdbe 039d 76bf be9d 52bf d7b1 a4bf
00000360: ffe3 f1bf 3d52 0a3e ad9c a4bf c2ae d53f
00000370: 1e66 c8bf a3a1 3e3f 31d4 bb3f 417f 923f
00000380: 4fcf ee3f 9b08 82bf 6fe5 e6bf 1014 a6bf
00000390: 7dff 79bf 5be3 a43e 2411 fbbe 806a 44bf
000003a0: 913e 013f 95ad 0dc0 b579 d53f 39f1 61bf
000003b0: 0e0e 23bf 85fb ca3f 8aad 01bf 3644 5f3f
000003c0: ad8e 9f3e 15ed 95bf d68b 543d 5f89 62bf
000003d0: 7fae 30bf 555d 96bf 03b2 c63c 094e 0dbe
000003e0: f08a 5dbe 7b0a 3ebf e3c8 9fbf 56a0 a73f
000003f0: da9e 053f d2c1 4ebf af2a 23bf b93a 9bbf
-0.6024018 -1.4401736 -1.5734864 -1.3681866 2.001487 0.943057 0.5645499 -1.0522375
-0.84613997 1.1390074 0.6553669 -1.1611662 0.06933573 -1.5895832 1.8438967 -1.2809983
-1.4009262 -0.09685905 -1.3439752 -0.23163794 1.0599338 1.7078688 -1.1467936 -1.4625747
-0.49815837 -1.8318093 1.0126506 0.8256429 0.552683 -1.4633822 -1.0880828 1.5586636
-1.1859813 1.1544491 -1.0073092 -1.4478066 -1.5253062 -1.8576285 1.2717854 2.1263902
1.4380445 -0.68607855 0.044844117 0.2246252 0.8805473 -1.3362814 1.5977114 -1.707461
1.3240731 -0.35574013 -1.7282301 -0.9575322 -0.47459778 -0.96833545 -1.8224517 -1.1122706
1.0987688 1.74473 0.26001212 0.40743965 -0.56812346 -1.0632329 -1.7629422 1.7638823
-0.60342944 -1.090607 0.16836777 -1.6590246 0.97142667 0.7294429 1.0679457 1.8719627
-1.0027516 -1.4761572 -1.1497931 -0.52597696 -0.7417734 -0.7746506 -0.69461864 1.1724668
-1.8055582 0.5872271 -1.0107657 -0.22103906 1.7301188 -1.1614274 -1.200698 -1.0349026
-1.9164386 2.1077306 1.1880336 0.1297763 -0.6069997 -0.72007 0.8375191 1.2691134
-1.5766336 0.106472224 -0.9477465 2.09613 -0.458323 -1.9754744 0.5436528 -1.508156
-0.11397201 0.99690145 1.9717736 -1.0773122 -1.4114184 -0.80927324 -2.2094178 0.74908423
1.0792776 1.7885425 -1.7658442 -1.7827407 1.7249103 -0.39676034 0.98830646 -1.0468287
-0.42517066 -1.1259073 -1.7071142 -1.7958637 1.051308 1.5558965 1.0328522 0.3350528
-1.16469 -1.4497641 -1.3615615 1.4708319 -0.55023175 -1.3134822 0.7324856 -1.4241065
-0.2530849 -1.3724903 0.21847764 1.1749375 1.7748708 -1.0197098 -1.4916472 0.047509577
-2.457847 0.62655765 0.87275 1.2763381 -1.3631392 -1.1069195 1.974865 -0.31698576
1.3706049 -0.6691491 -0.6923409 -1.2095419 -1.5053862 -1.5082303 0.18370381 -0.32106972
1.769923 -0.69253004 -0.8825614 -0.88917154 -1.0504184 -1.1135962 -0.8466582 -1.3722094
1.2096081 -1.2128851 0.25488442 -1.7125275 -0.30926237 0.9117881 2.147858 -1.2416596
-0.9858106 -0.3617653 -1.7626545 1.082842 0.99080676 1.1315502 -2.0275507 -0.91168016
1.6624819 -0.9125663 1.3627939 1.0148249 -0.7415528 0.073108405 2.0476515 0.76179147
-0.87839997 -0.997483 -1.2644706 -2.0226598 0.31373888 0.34516236 2.1514757 -1.2162747
-0.62156844 0.93766797 -0.98643756 1.8240788 -0.6955435 0.67969644 -0.39333484 -1.3125142
-1.4672174 -1.2114787 -1.0340644 1.7061416 -0.40072936 -0.9633333 -0.82271945 -1.2866772
-1.8897704 0.13507934 -1.2860314 1.6693957 -1.5656164 0.7446539 1.4674131 1.1445085
1.8657016 -1.0158876 -1.8038768 -1.2974873 -0.9765547 0.32204708 -0.49036515 -0.76725006
0.50486094 -2.2137196 1.6677767 -0.882587 -0.6369332 1.5858008 -0.50655425 0.87213457
0.3116354 -1.1712977 0.05189117 -0.8849086 -0.6901626 -1.1747233 0.024254804 -0.137993
-0.21635032 -0.7423474 -1.2483181 1.3095806 0.52195513 -0.80764496 -0.63737005 -1.2127296

l1.bias f4 [128]
00000000: 234c 4bbf 1c3b 27bf c00a 04bf 2894 c7be
00000010: 7df6 32bf f27d 32bf be15 01bf bf99 c8be
00000020: 866e 30bf 4ffc 58bf e704 20bf f930 65bf
00000030: f06c 35bf 5bc7 11bf 327c 9cbf bf83 1cbe
00000040: 1d6d 61bf cea6 7cbf 2d13 1bbf e6df f9be
00000050: 509f 38bf be85 5cbf d009 51bf aef8 5ebf
00000060: d399 62bf fbe9 5cbf 8211 7abf 30be 7bbf
00000070: 6533 52bf 54a7 4fbf c053 ccbe 0cb2 27bf
00000080: 15c7 25bf 4396 75bf 1758 74bf c123 b8be
00000090: e2b9 95bf 2494 13bf 4820 6ebf 6afb 60bf
000000a0: 8079 2dbf 4057 9bbe 3e87 3fbf 3a45 62bf
000000b0: 0e9a 2cbf c7ee 3bbf a45c 1bbf 61be 6dbf
000000c0: 1a39 3bbf 16b6 76bf b133 6ebf 7479 aabe
000000d0: 70f1 c5be 1a2e 4bbf 196c 7abf fa58 34bf
000000e0: 4de6 6bbf d190 92be 015e 26bf 577f 2bbf
000000f0: c0fb 83bf 79dc 6fbf 5a0d 49bf f576 4fbf
00000100: d36f bcbf 8e2a 3fbf d6fe 47bf 4876 83be
00000110: 42df 15bf d507 88bf d18d cdbe 19fd 10bf
00000120: 8ac9 1fbf 1cc7 0cbf d1cf c5be 458b 3abf
00000130: b9f8 7cbe 3c4a 4ebf 74f9 64bf 2171 58be
00000140: 75ef 4abe 8ac0 87be e8b2 38bf 32f1 67bf
00000150: dc72 16bf b175 2fbf 5631 85bf d715 45bf
00000160: 4e3b 88bf a748 6ebf 92d5 0bbf 458b 3ebf
00000170: 363f 5ebf 0351 3abf e8d4 c6be 5b98 a5bd
00000180: a073 62bf ffbf 12bf d05e 18bf 64bc dbbe
00000190: 6336 68bf a4dd eebe 59c2 8cbe 6cc0 30bf
000001a0: 6edc 6fbf 1f9c e1be 49c1 1cbe 8a3a 2abf
000001b0: d1e1 1cbf 3281 1bbf ddc4 a4bf 0920 13bf
000001c0: 98aa aebf 8ef8 28bf ef62 e5be d8d6 a4be
000001d0: 4d4c c0bf f33f 85bf 5b43 52bf 7034 1fbf
000001e0: 93cd 66bf e87d 17be a47f 9cbf 00d4 9cbe
000001f0: e0f0 80bf b364 31bf d057 97bf d257 47bf
-0.7941305 -0.6532457 -0.51578903 -0.38980222 -0.6990736 -0.6972343 -0.504238 -0.391798
-0.68918645 -0.8475999 -0.6250748 -0.8952785 -0.7086935 -0.5694482 -1.2225401 -0.15284632
-0.8805712 -0.98692024 -0.60576135 -0.48803633 -0.7211809 -0.86141574 -0.816556 -0.87098205
-0.8851597 -0.86294526 -0.97682965 -0.9833708 -0.8210967 -0.811147 -0.39907646 -0.6550605
-0.647569 -0.95932406 -0.95446914 -0.35964778 -1.1697352 -0.5764792 -0.9301801 -0.8788363
-0.6776352 -0.30340004 -0.7481574 -0.8838688 -0.6742257 -0.7341122 -0.60688233 -0.9286862
-0.73134005 -0.9637159 -0.93047625 -0.33295786 -0.38660765 -0.7936722 -0.97821194 -0.7044827
-0.92148286 -0.2862611 -0.6498719 -0.6699118 -1.0311203 -0.9369579 -0.78536 -0.8104089
-1.4721626 -0.7467431 -0.78123224 -0.2567618 -0.5854379 -1.062739 -0.4014726 -0.56636196
-0.624169 -0.54991317 -0.38635114 -0.7286876 -0.24704255 -0.8058202 -0.89443135 -0.21136905
-0.19817908 -0.26514083 -0.7214799 -0.9060241 -0.5876901 -0.6853896 -1.0405681 -0.7698645
-1.0643098 -0.9307961 -0.5462276 -0.7443126 -0.868152 -0.72779864 -0.3883431 -0.080857
-0.8845768 -0.5732421 -0.5951967 -0.42917168 -0.9070799 -0.46653473 -0.27492025 -0.6904361
-0.93695724 -0.44064423 -0.15308107 -0.66495574 -0.6128207 -0.6074401 -1.2872578 -0.57470757
-1.3645811 -0.66004264 -0.44802043 -0.32195163 -1.5023285 -1.0410141 -0.82134026 -0.6218939
-0.9015743 -0.14794123 -1.2226453 -0.30630493 -1.0073509 -0.6929428 -1.1823673 -0.7786838

l2.weight f4 [128, 128]
00000000: a88e aa3d 51be dc3e 9821 493c 1596 22be
00000010: 43fb 2a3b 38cc 4e3e 1be3 153f aeb3 22be
00000020: f9df 1e3f a827 4c3e c09f ce3e 62e3 d03e
00000030: f948 ee3c 188f 9fbe fcbd 71be 662c 653e
00000040: bb83 8dbe c5ef 53be 0b16 0fbe d78a fbbd
00000050: ba10 9d3e ed4b a6be 11a8 6a3e 0856 30bd
00000060: 4b5d 66be 0329 fabe 1b3b c53e f3e3 3e3d
00000070: 9a04 cc3d b58c 12be 0756 3abe 8b5d 463e
00000080: 2f37 47bd 3ba8 da3d dad0 333e fccb fc3c
00000090: d561 503e e65b 9e3e a3f2 8b3e 64d9 69bc
000000a0: 0522 033f e754 16bf 837b 383e 3d60 61be
000000b0: 141e 193f fd34 d63e 8de4 e83d 7954 13bf
000000c0: 97d5 f73e 5688 e23d d591 dc3e 5676 25be
000000d0: 71ff 66be 7e84 febe 287f c0bc 2120 86be
000000e0: c12f 493e b5eb 6fbd 8a9c debc 8189 a83e
000000f0: f5ba 453e 0dcd 2e3e eac7 40bd 7bb7 d13d
00000100: c102 a1bd f3a3 983e fb29 ac3e 5104 45be
00000110: eaad 7f3e 42d5 ac3e 6854 ccbc 6b01 373e
00000120: 7922 193d 2990 85bc 140c b93e 6955 ea3e
00000130: 9a1a 3f3e 9ccd 2fbe ea8d c53e 31cd 51bd
00000140: 1dd8 54bf 8757 5a3f 4e4c 7b3e f704 52bd
00000150: 10fd b7be 8e21 0c3e eb72 843e 3207 3e3d
00000160: 4f2e bc3e 461d 39bd 6c48 72be 6606 4f3e
00000170: 00e8 b23d 266b 113e e6d5 90be 2c6e 2abf
00000180: ebc1 bc3e 32d3 96be 8c65 de3e ec73 553c
00000190: dcb2 68be 29c2 32bf 3e3b 8c3e dea8 3e3d
000001a0: 766a 283e 9fa0 dcbe 316b 88bd 4a12 07bd
000001b0: 5bc7 263e b464 f9bd ec4e 1bbd 704a a5be
000001c0: 6507 363e e4d7 4f3e 5dcb f83d 7900 e2bc
000001d0: df5f 503e 5938 913e 7260 f1ba 1ac6 64bc
000001e0: 553f e1be 58e6 cdbe d2a2 583e eb42 c43c
000001f0: 889f 47be 7dda a0bd 4f0d 1d3e 299e ddbd
00000200: 5225 183e 2848 e13c 1d8e 553e 6b85 803e
00000210: 63eb f63d 05b9 8f3e 75c9 733d b156 803e
00000220: 066a f23c 798d 723e f538 1f3e 49a2 d23d
00000230: 392c b23d 5b5a 3b3a 955b 293e e250 633e
00000240: 48ec 3d3e dfd5 323e e292 833e d0eb 9b3e
00000250: 285e 9a3e c9cf f43d dae3 18bb d8cc b83d
00000260: e2a4 323e a49b 313e e0ee 533d aaf2 4e3e
00000270: 1ae2 683e 6703 133e 0b3a ac3e 3b94 cc3d
00000280: a64b 8a3d b75f d83d a284 653e 74cc 963e
00000290: 687c 2a3e 6561 ce3d f7b4 633e d6fa f33d
000002a0: b7ac 183e af1f 683e e8f0 403e 82f4 8c3e
000002b0: edbd 333e 8aa3 a33d cd77 583e 45f7 5b3e
000002c0: 7e75 613d 0630 863e ee7e 0e3e 0d12 6b3e
000002d0: b48b 9c3e 8714 403e 2330 123e 1e93 c23d
000002e0: 0326 7f3e 36e2 9a3e 8d21 7f3d d766 ef3c
000002f0: 0115 ec3d 95e0 2c3e c6ea 353d df2f b63d
00000300: d537 973d 8b8d 7e3b e596 673d f212 363e
00000310: 5a82 c53d e4fc 3d3e 5424 853e 5f26 323e
00000320: 3052 8d3e 6bba 953e c2bc 8a3e 4cf6 8f3d
00000330: b77a 943e 30a7 f93b e2f6 333e 48dc 953e
00000340: b995 643e 7190 193e 6a27 293e 3117 7d3e
00000350: a691 403e 072f 0f3e f465 133e e4fb ce3d
00000360: 171a 483e ea6d 0c3e 17c7 c53c 118f a53d
00000370: baee 923d 383a 4f3d 5969 8d3e 8539 a63e
00000380: 8bd2 053e 4ba1 a63d 7253 043d e060 4e3e
00000390: bba4 1c3e b22f ad3e 904f 9c3e 5a1b 973d
000003a0: 878d 0e3d cabb 8e3e e3d2 a73e e234 e13d
000003b0: 9466 003e d17e 963e 3671 ef3d a4c3 8c3e
000003c0: a97f c63d 6f7a 6c3e 2606 ff3d 79c5 8c3e
000003d0: c438 8a3d 307c 043e 44ea 4b3e 223e 1c3e
000003e0: 4705 573e ea91 3b3e 507d 293e 7c43 9a3e
000003f0: 7010 403e de3c 183e 813c 4a3e ed7d 173e
0.08327991 0.4311395 0.012276076 -0.15877564 0.0026089705 0.20195091 0.5854966 -0.15888855
0.62060505 0.19937003 0.40356255 0.4079848 0.02908753 -0.3116386 -0.2360763 0.22380218
-0.27639565 -0.20696934 -0.13973252 -0.12282341 0.30676824 -0.32479802 0.22915675 -0.043050796
-0.22496526 -0.48859414 0.38521656 0.046604108 0.09961815 -0.14311488 -0.1819688 0.19371621
-0.04863661 0.10676619 0.1756014 0.030858986 0.2034982 0.30929488 0.27333555 -0.014273021
0.51223785 -0.587233 0.18015866 -0.22009368 0.5981152 0.41837302 0.113717176 -0.5755077
0.48405144 0.1106116 0.4308001 -0.16158423 -0.2255838 -0.4971046 -0.023498133 -0.26196387
0.19647123 -0.058574397 -0.027174253 0.32917407 0.193096 0.17070408 -0.047065653 0.10240074
-0.078618534 0.29812583 0.3362578 -0.19239928 0.24968687 0.33756453 -0.024942592 0.17871635
0.03738639 -0.016304092 0.36142027 0.45768288 0.18662491 -0.17168278 0.38584834 -0.051221076
-0.8314226 0.85289806 0.24540827 -0.051274266 -0.3593526 0.13684675 0.25868925 0.04639358
0.3675408 -0.045193933 -0.23660439 0.20217285 0.08735657 0.1420103 -0.28288192 -0.6657436
0.36866698 -0.29458004 0.4343685 0.013028126 -0.2272448 -0.69827515 0.27388948 0.046547763
0.16446862 -0.43091294 -0.0666107 -0.032976426 0.16286986 -0.12177411 -0.037917063 -0.32283354
0.17776258 0.202972 0.121481635 -0.027588116 0.20349072 0.28363302 -0.0018415584 -0.013963247
-0.4399363 -0.402148 0.21155861 0.02395769 -0.1949445 -0.07854173 0.15337108 -0.10821182
0.14857987 0.027500227 0.20854993 0.2510179 0.12056615 0.28070846 0.059518296 0.2506614
0.029591572 0.2368678 0.15549071 0.1028486 0.08699841 0.0007146948 0.16538842 0.22198823
0.18547165 0.17464398 0.25698 0.30453348 0.3014996 0.119536944 -0.002332917 0.09023446
0.1744571 0.17344528 0.05174148 0.20209756 0.22742501 0.14356767 0.33638033 0.0998921
0.0675271 0.10565131 0.22413877 0.2945286 0.1664902 0.1007717 0.22237001 0.119130775
0.14909635 0.22668336 0.18841898 0.27530295 0.1755292 0.07990177 0.2113945 0.21481045
0.05504369 0.26208514 0.13915607 0.22956105 0.30575335 0.1875783 0.14276175 0.095007166
0.24916844 0.3025071 0.062287856 0.029223843 0.11527444 0.16882546 0.04441335 0.088958494
0.07383696 0.003884169 0.05654039 0.17780665 0.09644003 0.18553501 0.2600428 0.1739745
0.27601767 0.29243788 0.27097136 0.07029399 0.28999874 0.0076188073 0.17574647 0.29269624
0.2232274 0.14996506 0.16518942 0.24715878 0.1880556 0.13982783 0.14394361 0.10106638
0.19541202 0.13713804 0.024142785 0.080839284 0.0717444 0.05059263 0.27619436 0.3246576
0.13068597 0.08136233 0.032306142 0.20154142 0.15297215 0.3382545 0.3052945 0.07378264
0.03480294 0.27877647 0.3277808 0.10996415 0.1253913 0.29393628 0.11691515 0.27493012
0.09692318 0.2309358 0.124523446 0.2749441 0.067491084 0.12937999 0.19913584 0.15258077
0.20998107 0.1831738 0.16551709 0.30129611 0.1875627 0.14866969 0.19749643 0.1479413

l2.bias f4 [128]
00000000: 0485 0e3d 5050 2f3e 6b5f 263e 1ffc 83bd
00000010: 020a 95be 90da d23d 9b57 9ebd 6af3 6cbc
00000020: da0e 13bd e3bb e6bc cca9 9abd 68b1 b3bd
00000030: 2862 08be ffea 143e 67c9 b43e 9caa 9bbd
00000040: 5d88 613c 60d7 953d ec63 5ebd 76cc d6bd
00000050: 301f 643e a640 0a3e b0a2 61bd 8958 e8bd
00000060: 0969 d5bd 4124 823d 24e9 2d3d b4f9 863e
00000070: d81c 74bd 26fc 933d 4241 bdbd fd43 853e
00000080: 3d45 dabd fd98 183d ea0a 41bc fe5c 3bbe
00000090: 8c12 10bd fdcf e8bd 925f 963d 2737 58bd
000000a0: ed66 51be 0dc0 ffbb 61ec 943d 6396 193e
000000b0: c788 72bb 5431 89bd cc01 ccbd 94f8 833c
000000c0: 3c0a da3d fad9 23be ef9a 343d 6585 c43d
000000d0: 827f 6dbd 3b08 893e 20cf 57bd 588a 963e
000000e0: d96b cf3d 4ace 81be b67f 753d dafd 74be
000000f0: 68e3 9ebd 3b4a 4abe cb89 863e 269f 4e3e
00000100: 3081 04be dc78 bebe 862a a73d adb2 373d
00000110: 58e6 f9bd 3f69 873e e5aa c5bc 1215 9f3b
00000120: 21d0 1a3e f604 263d a9f7 d3bd f445 823d
00000130: 205b 13be f282 b1bd 52b8 443e e631 dd3d
00000140: 12b8 b13d 0d68 2ebd 7d24 69be e2f9 933d
00000150: 734a 0cbe a622 193e 2591 1cbe 389b 3cbe
00000160: 851b f8bd 6a9d b73d 06f4 9fbd 70c7 303d
00000170: 097d cd3d 4024 4ebe 985e 11be 1e0f 8cbd
00000180: e1cd 2a3e ee91 9bbe 0b68 8bbe cb95 bf3d
00000190: ccef 433e 7cf4 0b3e 9b85 073e 1b0e 84bd
000001a0: 99ba 373d 5618 373d 0b6b aebd dc00 bbbd
000001b0: df93 e33d c92d b73c f41c d8bd 1ec1 d33d
000001c0: 4a69 23be 6255 e0bc 99d2 5bbd 8df4 b23d
000001d0: cea0 d0bd 41e9 42be 43e9 b6bd e885 29be
000001e0: 74f3 9f3e d588 ca3e 53e1 c23c c144 50bd
000001f0: 3728 843e 2909 48bd 03e2 b4bd bc4c 1bbd
0.034794822 0.1712048 0.16247337 -0.06444573 -0.29109198 0.10295594 -0.07731553 -0.014462331
-0.035902835 -0.028165763 -0.075519174 -0.08774072 -0.13318694 0.14542769 0.35309908 -0.076009005
0.013765422 0.0731647 -0.05429451 -0.104882166 0.22277522 0.13501224 -0.05508679 -0.11345012
-0.104204245 0.06354571 0.04245867 0.26362383 -0.05959782 0.07225828 -0.092409626 0.26028433
-0.106577374 0.037255276 -0.011782387 -0.18297192 -0.035173938 -0.113677956 0.07342447 -0.052786972
-0.2044942 -0.0078048767 0.07271648 0.14998774 -0.0037007795 -0.06698862 -0.0996128 0.016109742
0.10646483 -0.1600112 0.04409307 0.095957555 -0.05798293 0.26764092 -0.052687764 0.29402423
0.10127992 -0.253527 0.059936248 -0.23924962 -0.07758218 -0.19754879 0.26277003 0.20177898
-0.12939906 -0.37201583 0.081624076 0.044848133 -0.12202138 0.26447484 -0.02412934 0.0048548067
0.15118457 0.040532075 -0.10349972 0.06360999 -0.1439023 -0.08667554 0.19210938 0.10800533
0.08677687 -0.0425797 -0.22767825 0.07225396 -0.13700275 0.14954624 -0.15289743 -0.18418586
-0.12114624 0.08965571 -0.07810216 0.04315895 0.10033614 -0.20131016 -0.14196241 -0.06838821
0.16680099 -0.30384773 -0.27227816 0.093547426 0.19134444 0.13667482 0.1323456 -0.06448003
0.044855688 0.044700943 -0.085165106 -0.09131023 0.111121885 0.0223607 -0.10552397 0.103395686
-0.15958133 -0.027384464 -0.05366764 0.087380506 -0.10186921 -0.19034292 -0.0893121 -0.16554987
0.31240427 0.3955752 0.023789084 -0.05084682 0.25811931 -0.04883686 -0.08832171 -0.037914976

l3.weight f4 [5, 128]
00000000: 49f1 bbbe cf15 97bd cab0 d63d fde9 233f
00000010: f617 7abd 25c1 f8bd ca43 90bc 8001 303f
00000020: 9bc0 e43e 8f70 6d3e 06b3 c1bd 99fd 383e
00000030: ccd5 f03d 9c29 93be 4198 b43d 3301 90be
00000040: b081 68be 845a 25bf 4ec1 99be 2869 52be
00000050: 397b ad3e 0afd 593d b39c 36be 11c6 dc3e
00000060: b6bb dabb 953b 65be 5f03 bdbe 4fd4 85be
00000070: a664 a7be e6d3 5d3e 9ff5 723d e418 2d3c
00000080: abb0 563e 9cbf fcbd 650a cf3e 23b9 b1bc
00000090: c732 d3bd 2f62 59bd b050 b33c f91d c5bc
000000a0: 8aec ea3c b6ab 943e 4521 413e dba7 bbbc
000000b0: d0f2 6abe bdb6 db3d 861f 19bd 5f31 083e
000000c0: c452 8abd 949d b3be 254d 80be c467 66be
000000d0: f8e1 bb3e c022 033d a613 9d3e bb32 523d
000000e0: ae4a 673e dd4b 2fbe b283 e73e dcb7 08be
000000f0: eeb7 d1bd 7590 8c3d 8e86 493d 14f7 713c
00000100: 1a26 ce3b 1104 90bd 9bfc 25bb 9379 debe
00000110: 781a bdbe 706e 3dbd 1d8a 8dbd 5d9e 493e
00000120: b2aa 39be 2e1d 02be 129b 18be 206e 04bf
00000130: 435e 7dbd 2595 e9bd e643 dcbd 5009 4e3e
00000140: 250d 013e 9e86 90be 0cb4 7ebc 8f25 53be
00000150: 75fa 8b3c 1d33 c5be c968 ec3c 42d9 03be
00000160: e0df 0bbf 8d90 aa3e f0d3 403f d3cf fe3d
00000170: c6f9 673d 2206 17bd 8491 38be 4403 65bd
00000180: cd9f 563e dab1 02be 13c5 e03c bd77 1bbd
00000190: 5274 a2bd 1596 d73e 3e11 843d 2da7 2ebd
000001a0: 2481 d13e 199d babe 648f aebe cd41 58be
000001b0: 9830 0dbe 900f 64be f298 bebe 8265 173e
000001c0: fe5e 49be 3a32 72be 0ebe 443d 55b7 29bf
000001d0: df37 14be 9d57 d3bb 4a71 da3e b97f 7abe
000001e0: 264a 163c f574 c1bc c550 e5be bab9 33be
000001f0: 8d4b 0abd 2e71 4f3f c0c8 2cbd 9859 283d
00000200: 1a36 12bf 2062 25bd fa2f b83e 1e59 48be
00000210: 4fc9 f9bd de36 953d 34be d8bb 3af5 3ebe
00000220: f127 3bbe 0791 30bf 26de f6bd 6bd4 44bc
00000230: 2755 e5be 78ab b03e 671c 8fbd 335c 1f3f
00000240: ff72 8a3e 16e0 4c3e d831 8bbd 682d 49bf
00000250: 69fb 673e 95e6 6bbd 25fd a6be 7732 97be
00000260: 05fa 95bd 9556 ee3e d25f cabe 3450 62bd
00000270: 62b1 edbe 8e37 ea3e 743d f6bd 5f93 28be
00000280: 4f73 93be fb4f e33d 6374 08bf c81a 853c
00000290: 1bd1 d6bc 1cdf 1dbd 214a ac3e ff0f f23b
000002a0: f69d 423c 5186 c9be 46d0 b43e 49dd 153d
000002b0: cfcd fc3d fd80 0abe de04 61be 854a d23e
000002c0: 90eb 6cbe c18e 0dbe 8279 203e a3a1 f13d
000002d0: 4cf0 76be 9973 b0bc 0168 67be 215c d6bd
000002e0: 2158 143f fb8a 08be 9086 8bbe 0be5 0dbf
000002f0: 8445 1abd c749 33bd 3374 e2bd 8f92 81bd
00000300: efae 37be 49bb 95bc bfb4 f73c 82ef 1ebf
00000310: 98ac d0be 4522 663c 37f8 0f3f 9d6f 05bf
00000320: 4103 683f 9ce0 c03e ff1e ac3e cecd 9c3d
00000330: 93b6 05be 0377 20be 9e14 173d 3a3b 70bf
00000340: 15ef e53e e1a3 16bf 58ff 31bd 275f ea3d
00000350: 6087 cbbc eb19 723e 3f24 00bf 6892 9abd
00000360: c893 213f d0aa a53e bd73 c1be 0cbc 803e
00000370: 591c 1abe 473f 92bc 05c6 0dbc 461f 6e3e
00000380: 67d2 3c3f 92d5 08bc 5f89 7e3c 1e9d f63e
00000390: 09e9 bfbc a058 d43e a9da 9e3c 4152 133e
000003a0: f9dd a0be 658c 0a3e 4f8c a63b 1721 5dbc
000003b0: a876 f8bb ab99 21bf 3577 4dbe f19e 8fbc
000003c0: 48fd 94be ebcb 9f3d 631f 58bd 70bf 1e3e
000003d0: 169d b03d 4d78 04bd d360 a6be e6d7 a7be
000003e0: 36cd 87ba 788c 933d c14d af3d 7305 97bd
000003f0: c0e5 09be fc1b b3be 3925 d7bd 225a f5be
-0.36707523 -0.073772065 0.104829386 0.6402891 -0.061058007 -0.121462144 -0.01761045 0.6875229
0.44678196 0.23187469 -0.09457974 0.1806549 0.117595285 -0.28742683 0.08818103 -0.28125915
-0.22705722 -0.6459124 -0.30030292 -0.20547926 0.33883074 0.053219832 -0.17833214 0.43119863
-0.006675209 -0.2238601 -0.36916634 -0.2613854 -0.32693976 0.21662864 0.059316274 0.010565016
0.20965831 -0.12341234 0.40437618 -0.021694725 -0.103124194 -0.05307215 0.02188906 -0.024062144
0.028677244 0.29037255 0.18860348 -0.022907188 -0.22944188 0.10728214 -0.03738358 0.13300084
-0.067540675 -0.3508116 -0.25058857 -0.22500521 0.36695838 0.032015562 0.30679053 0.05131791
0.22587082 -0.17118783 0.45217663 -0.13351387 -0.1024016 0.068634905 0.049200587 0.014768381
0.006291163 -0.070320256 -0.0025327567 -0.4345213 -0.36934257 -0.0462479 -0.06911109 0.19689317
-0.18131521 -0.12706444 -0.14902905 -0.5173054 -0.061857473 -0.114054 -0.10755138 0.2012074
0.1260267 -0.28227705 -0.015545856 -0.20619796 0.0170872 -0.3851556 0.02885856 -0.12875846
-0.5463848 0.33313408 0.7532339 0.12441983 0.056634687 -0.036871083 -0.1802426 -0.055911317
0.20959397 -0.12763157 0.027437722 -0.03795599 -0.079323426 0.4210669 0.06448601 -0.0426399
0.4091884 -0.3644798 -0.34093773 -0.21118851 -0.13788068 -0.22271562 -0.37226063 0.14784816
-0.19665143 -0.23651972 0.048032813 -0.6629537 -0.14474438 -0.0064496533 0.42664558 -0.24462785
0.009172952 -0.02361534 -0.44788185 -0.17551318 -0.033763457 0.81032073 -0.042183638 0.04110107
-0.571138 -0.040376782 0.35974103 -0.19565246 -0.121966 0.07285856 -0.006614471 -0.18648234
-0.18276955 -0.68971294 -0.1205409 -0.012013535 -0.4479153 0.3450582 -0.06987839 0.6225006
0.2704086 0.20007357 -0.06796616 -0.7858491 0.22654499 -0.057592947 -0.3261501 -0.2953069
-0.07323078 0.46550432 -0.3952623 -0.05525227 -0.46424395 0.4574551 -0.1202344 -0.16462468
-0.2879891 0.110992394 -0.5330259 0.016248122 -0.026222756 -0.03854285 0.33650306 0.007387161
0.011878481 -0.39360288 0.3531515 0.036587987 0.123439424 -0.13525768 -0.21974513 0.4107248
-0.23136735 -0.13823988 0.15671352 0.11798408 -0.24115103 -0.021539496 -0.22598268 -0.10466791
0.57946974 -0.13334267 -0.272511 -0.55427617 -0.03766395 -0.04377153 -0.110573195 -0.06326782
-0.17937826 -0.018277781 0.030237554 -0.6208421 -0.4075668 0.014046256 0.5623812 -0.52123433
0.90629965 0.37671363 0.33617398 0.07656442 -0.13057928 -0.156704 0.036884896 -0.9384037
0.44908968 -0.5884381 -0.043456405 0.1144393 -0.024844825 0.236427 -0.5005531 -0.07547456
0.6311612 0.32356882 -0.37783614 0.25143468 -0.15049876 -0.017852439 -0.008653169 0.23254117
0.7375855 -0.0083517 0.0155356815 0.48166746 -0.02342655 0.41473866 0.019391375 0.14386846
-0.31419352 0.13530119 0.005082644 -0.013496659 -0.0075825043 -0.63125104 -0.20065005 -0.017531844
-0.29099488 0.07802566 -0.052764308 0.15502715 0.08623712 -0.03234129 -0.32495746 -0.32781905
-0.001036084 0.07204527 0.08559752 -0.07374086 -0.13466549 -0.34982288 -0.105051465 -0.47920328

l3.bias f4 [5]
00000000: 55ea dcbd e875 98ba 19ef 9dbd 6238 533d
00000010: e235 ee3c
-0.10786883 -0.0011631818 -0.0771162 0.051567443 0.029078428
