Bot/data_time_keyword.pth (torch, 79519 bytes, 6 tensors)

l1.weight f4 [128, 15]
0	0xbf433325	-0.76249915
1	0xbf84330f	-1.0328082
2	0xbf8c364e	-1.0954072
3	0xbf9c2b78	-1.2200766
4	0x3dc34d99	0.09536285
5	0xbe235456	-0.1595014
6	0xbeb580a2	-0.35449702
7	0xbe7904f5	-0.24318297
8	0xbf94bb76	-1.1619709
9	0xbee5ba1f	-0.44868562
10	0xbf4f8ed2	-0.810773
11	0x3ff9d8b1	1.9519254
12	0x3fcf656c	1.6202826
13	0xbeac603c	-0.3366717
14	0xbfa756a0	-1.3073311
15	0xbef6f407	-0.48233053
16	0xbfdb1939	-1.7117072
17	0xbf6ef7c8	-0.93346834
18	0xbf282526	-0.65681684
19	0xbf640659	-0.89072186
20	0xbf7d4dba	-0.98946726
21	0x3ff126e9	1.884
22	0xbee79f3a	-0.45238668
23	0xbeaf613f	-0.3425388
24	0xbf887fa0	-1.0663948
25	0xbfc31ede	-1.5243795
26	0x3f9c921f	1.2232093
27	0x3eea1918	0.4572227
28	0x3fdc2100	1.7197571
29	0xbf07cc38	-0.5304599
30	0xbf0ffdd9	-0.56246716
31	0xbfab7b84	-1.3397069
32	0xbfb5baa8	-1.4197588
33	0xbf48e394	-0.78472257
34	0x3fe9da6c	1.8269782
35	0x3ff2ff8e	1.8984239
36	0x3f73015b	0.94923943
37	0xbf249321	-0.64287
38	0xbf31f57e	-0.69515216
39	0x40084a5d	2.1295388
40	0xbfa437a9	-1.2829486
41	0xbf850348	-1.0391626
42	0xbf1b19ac	-0.6058605
43	0x3f9c4b9d	1.2210575
44	0xbf4e2875	-0.8053048
45	0xbf7c029b	-0.98441476
46	0xbfb137a2	-1.3845103
47	0xbfab3fb4	-1.3378816
48	0xbfbe293d	-1.4856335
49	0x3fcabdf8	1.5839224
50	0x3fe128a3	1.7590526
51	0x3f1dd3a1	0.61651045
52	0xbf0631d7	-0.524198
53	0xbf8ac8a4	-1.0842481
54	0x3ffdb17c	1.9819789
55	0xbf963932	-1.1736205
56	0xbe044bc1	-0.12919523
57	0x3e47e59a	0.1952118
58	0x3f45854b	0.77156514
59	0xbfa3ad8f	-1.2787341
60	0x3ecbb564	0.39786828
61	0x3f1dea05	0.6168521
62	0x3f2e9055	0.68188983
63	0x3f862b1b	1.0481905
64	0xbfcc2f61	-1.5951959
65	0xbfd61c38	-1.6727362
66	0xbf024886	-0.5089191
67	0xbf461f87	-0.77391857
68	0x3f164a8a	0.5870749
69	0xbfc963f3	-1.5733627
70	0x3f577b10	0.84172153
71	0xbf74f91e	-0.9569262
72	0xbf2b5037	-0.66919273
73	0xbd49a458	-0.049228996
74	0x3f6c72e2	0.923628
75	0xbf490c7d	-0.7853468
76	0x3fd50f9c	1.6645389
77	0x3f0186b4	0.50596166
78	0xbf71bf8f	-0.9443292
79	0xbf8ea4ef	-1.1144084
80	0xbf905550	-1.1276035
81	0xbf87db40	-1.0613785
82	0x3f83554d	1.0260407
83	0xbfc56113	-1.542025
84	0xc0033f88	-2.0507526
85	0x3f95fa68	1.1717043
86	0x3fca84c4	1.5821767
87	0x3fc4aeff	1.5365905
88	0xbf6048a7	-0.8761086
89	0xbfa150ea	-1.2602818
90	0xbf96ba98	-1.1775694
91	0x3fb1343b	1.3844064
92	0x3ed24594	0.4106871
93	0xbfc620f0	-1.5478802
94	0xbf2c4394	-0.67290616
95	0xbf51c4cf	-0.8194093
96	0xbf886772	-1.0656569
97	0x3f7df818	0.99206686
98	0xbfd112e9	-1.6333896
99	0xbfacc941	-1.3498918
100	0x3fb5a71b	1.4191622
101	0x3ffe1397	1.9849728
102	0x3fe74ac4	1.8069692
103	0xbf9f095b	-1.242473
104	0xbfcb1fda	-1.5869095
105	0xbf141659	-0.578466
106	0xbfa54583	-1.2911838
107	0xbfa53464	-1.2906613
108	0xbf5437d4	-0.82897687
109	0xbefed74e	-0.4977364
110	0xbf245f5d	-0.6420801
111	0x3fc49cb8	1.5360327
112	0xbec03d07	-0.3754656
113	0xbf945b6f	-1.1590403
114	0xbf53e1ca	-0.827664
115	0xbfaa499b	-1.3303713
116	0x4008c083	2.13675
117	0x3fd97097	1.6987485
118	0x3fb4c0ae	1.4121301
119	0xbf8e2936	-1.1106327
120	0x3f77a517	0.9673628
121	0xbfb9901f	-1.4497107
122	0xbe85b55d	-0.26114932
123	0x3fca083f	1.5783767
124	0x3ee790f6	0.45227784
125	0x3c0e62a3	0.008690509
126	0x3ed3fbb4	0.41402972
127	0xbfb00b9f	-1.3753546
128	0x4004bc0f	2.0739782
129	0x3e43b267	0.19111024
130	0xbfb388c4	-1.4026113
131	0xbfc42b59	-1.5325729
132	0xbfe40c1b	-1.7816194
133	0x3ef7d2fb	0.48403153
134	0x3f8e4179	1.1113731
135	0xbf5bd0c2	-0.85865414
136	0x3ffedbbe	1.991081
137	0x3f4f509c	0.80982375
138	0xbfa0f227	-1.2573899
139	0xbf8d8990	-1.1057606
140	0xbf7dd785	-0.9915698
141	0x3f31f409	0.69512993
142	0x3f059183	0.5217516
143	0xbfffe2fa	-1.9991143
144	0xbfc9b15e	-1.5757253
145	0x3ff0119d	1.8755375
146	0xbf57628b	-0.8413474
147	0xbef82fe5	-0.4847404
148	0x3ea96e61	0.33092025
149	0xbfa2ccf2	-1.2718794
150	0x3f72deb4	0.9487107
151	0xbf6e45a1	-0.93074995
152	0x3dc14bb1	0.09438265
153	0x3fca6b0d	1.5813919
154	0xbf107e62	-0.56442845
155	0xbf77e62f	-0.9683561
156	0xbfbefcf0	-1.492094
157	0xbf8c7587	-1.0973366
158	0x4005843e	2.0861964
159	0xbf0eddcf	-0.55807203
160	0xbf72d498	-0.9485564
161	0x3f182c6c	0.5944278
162	0x3dc49411	0.09598554
163	0xbf8bfa7a	-1.0935814
164	0x3fd4a902	1.6614077
165	0x3f7ba7c5	0.9830287
166	0x3daa2641	0.083080776
167	0x3eb0c5f2	0.3452602
168	0x3fca4f6f	1.5805491
169	0xbfda0982	-1.7034152
170	0xbfbd958a	-1.4811261
171	0x3df0b998	0.11754149
172	0xbf7107f2	-0.9415275
173	0x3fbbed5e	1.4681814
174	0xbfd9c5f5	-1.7013537
175	0xbd951f37	-0.072813444
176	0xbf494137	-0.78615135
177	0xbf0d6854	-0.5523732
178	0x3e230bde	0.15922496
179	0x3fa4e1d9	1.2881423
180	0xbf1354c0	-0.57551193
181	0x40074536	2.1135993
182	0x3f476873	0.7789375
183	0xbfc7ceb1	-1.5609952
184	0xbf8f98a4	-1.1218457
185	0xbfce4109	-1.6113597
186	0xbf366774	-0.71251607
187	0x3f81a760	1.0129204
188	0xbfdc298f	-1.7200183
189	0xbffe45e1	-1.9865075
190	0x3fc933b7	1.5718907
191	0x3f9e8b54	1.238627
192	0x3fb465f8	1.4093618
193	0xbf166405	-0.5874637
194	0xbf9437e6	-1.1579559
195	0x3f18723e	0.5954932
196	0xbe580e9c	-0.21099323
197	0x3e70ea1a	0.23526803
198	0x3fa04e44	1.2523885
199	0xbf98bccf	-1.193262
200	0xbf9a9d41	-1.207924
201	0x3e28989b	0.16464464
202	0xbeca49bc	-0.3950938
203	0x3f7c3913	0.9852459
204	0xbfbb82ac	-1.4649253
205	0xbda0b4bf	-0.078469746
206	0xbf9218a7	-1.1413773
207	0xbf9013dd	-1.1256062
208	0x3e459b49	0.19297518
209	0x3f925970	1.1433544
210	0xbf4a10e7	-0.7893204
211	0x3ffefccc	1.9920897
212	0x3f2f0b3a	0.68376505
213	0xbfeb54bd	-1.8385235
214	0xbf4fe4ba	-0.81208384
215	0xbf45a00a	-0.77197325
216	0xbfad4f41	-1.3539811
217	0x3f83cdbf	1.0297164
218	0xbff1d125	-1.8891951
219	0xbf9b1cf7	-1.2118214
220	0x3ff0ef85	1.8823096
221	0x3f40460c	0.75106883
222	0x3f96a58d	1.1769272
223	0xbfae6824	-1.3625531
224	0xbfbe6492	-1.4874442
225	0xbf61b344	-0.8816416
226	0x3f3fa8dd	0.7486704
227	0x3e89fbcd	0.2694992
228	0xbfb1dfc7	-1.3896416
229	0x3f95c1be	1.169975
230	0x3f8dcad6	1.1077526
231	0x3f1c3b53	0.6102802
232	0x3ecbd918	0.39814067
233	0xbfc3b712	-1.5290244
234	0x3f52fbfe	0.8241576
235	0x3f92af83	1.1459812
236	0xbfff7ffd	-1.9960934
237	0xbff73670	-1.9313488
238	0x3f04a900	0.51820374
239	0xbfdbc0a5	-1.7168165
240	0x3f1a8723	0.6036245
241	0xbf981d30	-1.1883907
242	0xbe4ccc87	-0.19999896
243	0x3fcd9af8	1.6062918
244	0xbcd5448a	-0.026033659
245	0xbe1ee3ec	-0.15516633
246	0xbe998ffc	-0.29992664
247	0xbf977d39	-1.183509
248	0x3ffbdb60	1.9676323
249	0x3da95fdd	0.082702376
250	0xbf7ac0a3	-0.9795019
251	0xbf859ddb	-1.0438799
252	0xbfae61d6	-1.3623607
253	0xbe3cfdad	-0.18456145
254	0x3fdd75c1	1.7301561
255	0x3d6f6e76	0.058454953

l1.bias f4 [128]
0	0xbf10d2fd	-0.5657194
1	0xbf12b5d6	-0.5730871
2	0xbee204ea	-0.44144374
3	0xbeab8c72	-0.3350559
4	0xbe8e437d	-0.27785864
5	0xbed62761	-0.4182692
6	0xbea9fc6f	-0.33200404
7	0xbeee91c2	-0.4659558
8	0xbe5089bc	-0.20365041
9	0xbf252078	-0.6450267
10	0xbef9aa73	-0.48762855
11	0xbeb4859d	-0.3525819
12	0xbede97b9	-0.4347513
13	0xbf17c946	-0.59291494
14	0xbeb80da5	-0.3594791
15	0xbea9437c	-0.330593
16	0xbebd926e	-0.3702578
17	0xbed352cc	-0.41274107
18	0xbecd48b4	-0.4009453
19	0xbf113f8d	-0.56737596
20	0xbe8fba0c	-0.2807163
21	0xbe98b288	-0.2982371
22	0xbf1ba014	-0.60791135
23	0xbe0f3ddd	-0.13988443
24	0xbd505f9a	-0.050872423
25	0xbea095b5	-0.31364217
26	0xbf088e04	-0.533417
27	0xbef26b4c	-0.47347486
28	0xbeb4017e	-0.35157388
29	0xbecfff7e	-0.40624613
30	0xbedf72fa	-0.43642408
31	0xbeab856f	-0.3350024
32	0xbf2c8615	-0.6739209
33	0xbeade961	-0.33967116
34	0xbebe75aa	-0.37199146
35	0xbeee7f0a	-0.46581298
36	0xbf00f6c6	-0.50376546
37	0xbef6469d	-0.4810075
38	0xbe940183	-0.28907403
39	0xbe4d46f1	-0.20046593
40	0xbf187013	-0.5954601
41	0xbe8bbfed	-0.27294865
42	0xbede5e5d	-0.43431368
43	0xbf166780	-0.5875168
44	0xbf0e9997	-0.5570311
45	0xbf0c8d01	-0.54902655
46	0xbebabd94	-0.36472762
47	0xbe7f2149	-0.24915041
48	0xbf16b7be	-0.5887412
49	0xbed75d39	-0.4206331
50	0xbeb63b35	-0.35592046
51	0xbf18730f	-0.59550565
52	0xbeb1c2b1	-0.3471885
53	0xbee24212	-0.44191033
54	0xbf264e5c	-0.64963317
55	0xbea2c10f	-0.31787917
56	0xbed2fab5	-0.412069
57	0xbe9e3302	-0.3089829
58	0xbf0b6914	-0.5445721
59	0xbeb0aec5	-0.3450834
60	0xbf0f4ac9	-0.5597349
61	0xbee937ab	-0.45550284
62	0xbd5847de	-0.052802913
63	0xbede1b83	-0.43380365
64	0xbf00bbc3	-0.502865
65	0xbf118e0d	-0.5685738
66	0xbe9754d8	-0.29556918
67	0xbd367207	-0.04454234
68	0xbf0e0fba	-0.55492747
69	0xbf0f9e76	-0.5610117
70	0xbe8eac33	-0.27865753
71	0xbee06da5	-0.43833652
72	0xbe5a4b08	-0.21317685
73	0xbf2c1969	-0.6722627
74	0xbf0afe4c	-0.54294276
75	0xbeec5cbf	-0.4616451
76	0xbecfafef	-0.40563914
77	0xbebe4c05	-0.37167373
78	0xbe978892	-0.29596382
79	0xbf0ae529	-0.5425592
80	0xbef71808	-0.48260522
81	0xbf1a3b26	-0.60246503
82	0xbf1550b4	-0.5832627
83	0xbe647ebd	-0.22313972
84	0xbed63afe	-0.41841882
85	0xbedb43df	-0.4282522
86	0xbf124137	-0.5713076
87	0xbeab8caf	-0.3350577
88	0xbec18e16	-0.37803715
89	0xbeb05ece	-0.3444733
90	0xbf0d41d1	-0.5517855
91	0xbeb74370	-0.35793638
92	0xbf19f055	-0.6013234
93	0xbed03e08	-0.40672326
94	0xbe179dac	-0.14806241
95	0xbf1a9079	-0.603767
96	0xbf09b7b7	-0.5379595
97	0xbf0197ad	-0.50622064
98	0xbeb5e84c	-0.3552879
99	0xbf176091	-0.59131724
100	0xbea9c211	-0.33155873
101	0xbf251c8b	-0.6449668
102	0xbea0e632	-0.31425625
103	0xbe4eb5a3	-0.20186476
104	0xbe879665	-0.2648193
105	0xbec45dc2	-0.38352782
106	0xbf0ace3b	-0.5422093
107	0xbf3f831c	-0.7480943
108	0xbf13ce41	-0.57736593
109	0xbe668b8e	-0.22514173
110	0xbeb2f624	-0.34953415
111	0xbeaa05d0	-0.3320756
112	0xbf2aa032	-0.6665069
113	0xbf062150	-0.5239458
114	0xbf000f27	-0.5002312
115	0xbf1b33c8	-0.60625887
116	0xbf79ca64	-0.9757445
117	0xbf43341e	-0.762514
118	0xbf07fd59	-0.5312095
119	0xbeb9dcf2	-0.3630138
120	0xbed078ec	-0.40717256
121	0xbf0f2b28	-0.55925226
122	0xbf09f690	-0.5389185
123	0xbeb68935	-0.35651556
124	0xbf32eb0f	-0.6988992
125	0xbf14e3e1	-0.58160216
126	0xbe4a33f4	-0.19746381
127	0xbeb6eaa4	-0.35725892

l2.weight f4 [128, 128]
0	0xbb9f618a	-0.0048639225
1	0x3db8cdb9	0.090236135
2	0x3df15bb6	0.117850706
3	0x3d1d3559	0.038380954
4	0x3dc8dab6	0.09807341
5	0x3e053d28	0.1301161
6	0xbc892089	-0.016739147
7	0x3da26fbf	0.0793147
8	0x3cd9645a	0.02653711
9	0x3ddead2e	0.10872875
10	0x3d04ff19	0.032469843
11	0x3e18b36c	0.14912194
12	0x3dedfdb0	0.11620653
13	0x3ae52686	0.0017482794
14	0x3d4c1ff4	0.04983516
15	0x3cd456fc	0.025920384
16	0x3d692261	0.056917552
17	0x3c1122f4	0.008858431
18	0x3cea73a0	0.028619587
19	0x3dc82f0d	0.09774599
20	0x3db940a5	0.09045533
21	0x3dd38b69	0.10329325
22	0x3dc4521c	0.095859736
23	0x3dfe533c	0.124182194
24	0xbb200151	-0.0024414847
25	0x3df836d6	0.12119834
26	0x3c835b9c	0.016034894
27	0xbbea8270	-0.0071566626
28	0x3dfdecd0	0.12398684
29	0x3e15b637	0.1462029
30	0xbbdb6f47	-0.006696615
31	0x3d0fd113	0.035111498
32	0x3d876ba5	0.066123284
33	0x3c6d0c6c	0.014468294
34	0x3e0bc114	0.13647872
35	0x3d2fd252	0.042925186
36	0x3d07f676	0.033194028
37	0x3dbc6cba	0.092004254
38	0x3dc96966	0.09834556
39	0x3e0bc309	0.13648619
40	0x3dfb502b	0.1227115
41	0x3db15cf7	0.0866031
42	0x3df6f406	0.120582625
43	0x3de323eb	0.11090835
44	0x3d821474	0.063515574
45	0x3c83ceb7	0.01608978
46	0x3d1e8dbf	0.0387094
47	0x3da0f276	0.07858746
48	0x3e24da0a	0.160988
49	0x3d6c6095	0.057709295
50	0x3b50aa21	0.0031839686
51	0x3d88559b	0.06656953
52	0x3d84c146	0.064821765
53	0xbc6182bc	-0.01376408
54	0x3dfd6a19	0.12373752
55	0x3d448b22	0.04798425
56	0x3dd3d269	0.10342867
57	0xbb040071	-0.0020141865
58	0xbc28ec30	-0.010310218
59	0x3e123390	0.14277482
60	0x3df6e44c	0.12055263
61	0x3d0add3f	0.033902403
62	0x3dbb7637	0.09153407
63	0x3d65f4cf	0.05614167
64	0x3dc46bba	0.0959086
65	0x3d024c1c	0.031810865
66	0x3d29d9c8	0.041467458
67	0x3dcb1c20	0.09917474
68	0xbc22474f	-0.009904697
69	0x3d8b2556	0.06794231
70	0x3e021e9b	0.12706988
71	0x3d70b2ea	0.058764376
72	0x3e17cd6b	0.14824454
73	0x3deb4985	0.11488632
74	0xbc559c9b	-0.013037826
75	0xbb965ead	-0.004588923
76	0x3deea784	0.11653045
77	0x3de9bc1f	0.114128344
78	0x3e23faf4	0.160137
79	0x3ccfe905	0.025379667
80	0x3dc3f23f	0.09567689
81	0x3e0930d9	0.1339754
82	0x3db52d7c	0.08846566
83	0x3da9ddd3	0.08294263
84	0x3df90bd8	0.12160462
85	0x3e2491ac	0.16071194
86	0x3e13c650	0.14431119
87	0x3d398b90	0.045299113
88	0x3e21e272	0.15809038
89	0xbbc6774f	-0.006056703
90	0x3c9a3174	0.01882241
91	0x3c712c02	0.014719965
92	0x3db30b60	0.08742404
93	0x3cd14c3d	0.025549049
94	0xbc8ca1f8	-0.017167076
95	0x3c044d5f	0.008075087
96	0x3ca95282	0.020669226
97	0x3db7854d	0.08960972
98	0x3b3e5ad6	0.0029045842
99	0x3d0a43d9	0.03375611
100	0x3ce0627b	0.02739071
101	0x3c88d688	0.016703859
102	0x3dac605d	0.08416817
103	0x3d436f16	0.04771336
104	0x3c49a715	0.012307902
105	0x3ce24466	0.027620506
106	0xbc3540bf	-0.0110628
107	0x3c856543	0.016283637
108	0xbbb5a623	-0.0055434867
109	0x3df80b96	0.12111585
110	0x3d4fa641	0.05069566
111	0x3d745f26	0.059661053
112	0x3e2a0bd3	0.16606073
113	0x3dfe8af9	0.12428851
114	0x3d8c635b	0.06854888
115	0x3e1be057	0.15222298
116	0x3d0fdfa2	0.035125382
117	0x3ca37fe6	0.019958448
118	0x3d3fde03	0.046842586
119	0x3ddf9e8f	0.109189145
120	0x3dd7b15d	0.10531876
121	0x3be106ce	0.0068672663
122	0x3c127b27	0.008940495
123	0xba5b4314	-0.00083641824
124	0x3dbd6cf8	0.092493
125	0x3d5f9b05	0.054591198
126	0x3d85ff68	0.065428555
127	0x3c0acaa0	0.008471161
128	0xbdf827d3	-0.12116971
129	0xbc84697f	-0.016163586
130	0xbe0c91a1	-0.13727428
131	0xbe2f24d6	-0.17103896
132	0xbe0192c3	-0.12653641
133	0xbdad4534	-0.08460465
134	0xbe1d6f84	-0.15374571
135	0xbd538df2	-0.05164904
136	0xbd8dee84	-0.06930259
137	0xbd5bab80	-0.053630352
138	0xbd11260a	-0.035436668
139	0xbd063d2e	-0.03277319
140	0xbdfff8c5	-0.12498621
141	0xbe2ac808	-0.16677868
142	0xbde8269a	-0.11335488
143	0xbd87351c	-0.06601927
144	0xbd2c6b57	-0.042094555
145	0xbd3ec4f3	-0.046574544
146	0xbe43c5c6	-0.19118413
147	0xbde7f69d	-0.113263346
148	0xbe01df8f	-0.12682937
149	0xbd4e0105	-0.05029394
150	0xbe0641c8	-0.13111031
151	0xbdfcafbc	-0.12338206
152	0xbd2478b8	-0.04015419
153	0xbd2267fa	-0.03964994
154	0xbbb4654a	-0.0055052387
155	0xbdbe8ab0	-0.09303796
156	0xbd11fea2	-0.035643227
157	0xbdf27656	-0.11838977
158	0xbe128b68	-0.14310992
159	0xbe45e5c6	-0.19325933
160	0xbe2d838e	-0.16944715
161	0xbdc682e9	-0.09692938
162	0xbe3cdefd	-0.18444438
163	0xbd3af2bc	-0.045641646
164	0xbddd2912	-0.10798849
165	0xbe09207f	-0.13391303
166	0xbd0b463e	-0.034002535
167	0xbe23f660	-0.16011953
168	0xbe02998e	-0.12753889
169	0xbe1d49a9	-0.1536013
170	0xbcc329ae	-0.023823585
171	0xbd1e9717	-0.03871831
172	0xbe030de8	-0.12798274
173	0xbe0f6d7c	-0.14006609
174	0xbd96f41a	-0.073707774
175	0xbd2372d8	-0.039904445
176	0xbde3d5fb	-0.11124798
177	0xbdc0ed48	-0.09420258
178	0xbe2ab385	-0.16670044
179	0xbd8b1a80	-0.06792164
180	0xbdb3d390	-0.08780587
181	0xbe003093	-0.1251853
182	0xbdd43466	-0.10361557
183	0xbdbe4ce2	-0.09292008
184	0xbda38340	-0.07984018
185	0xbe1613d8	-0.14656007
186	0xbd2868d3	-0.041115593
187	0xbd3adb0d	-0.04561906
188	0xbd9193f0	-0.07108295
189	0xbd0d15a1	-0.034444455
190	0xbc003013	-0.007823962
191	0xbd4f6d2d	-0.050641228
192	0xbe01db9d	-0.12681432
193	0xbe112461	-0.14174034
194	0xbdebcbf7	-0.115135126
195	0xbe32375c	-0.1740393
196	0xbe2d9bf1	-0.16954018
197	0xbe14db5a	-0.14536801
198	0xbd0f08ad	-0.034920383
199	0xbdac23c4	-0.08405259
200	0xbdfff37a	-0.12497611
201	0xbd9310b9	-0.07180924
202	0xbd44c37a	-0.048037983
203	0xbd0f18d2	-0.03493578
204	0xbda69bd1	-0.08135188
205	0xbe2b01ca	-0.16699901
206	0xbe0d7ba4	-0.13816696
207	0xbd390686	-0.045172237
208	0xbdaca735	-0.0843033
209	0xbd1c1175	-0.038102586
210	0xbd9ddf54	-0.07708612
211	0xbe07b189	-0.13251318
212	0xbe2abca2	-0.1667352
213	0xbe1c3dc0	-0.15257931
214	0xbe30edc4	-0.172782
215	0xbdd0f753	-0.10203423
216	0xbde149fa	-0.11000438
217	0xbdff526a	-0.12466891
218	0xbc468b4e	-0.012118174
219	0xbd8df759	-0.069319434
220	0xbe0b137e	-0.13581654
221	0xbda14b27	-0.07875662
222	0xbda2b389	-0.079444
223	0xbba4bd1e	-0.0050274273
224	0xbd16cb36	-0.03681489
225	0xbdb81c55	-0.08989779
226	0xbde52977	-0.111895494
227	0xbdb77ca2	-0.08959319
228	0xbde13858	-0.10997075
229	0xbe3a6141	-0.18201162
230	0xbe392801	-0.18081667
231	0xbe294910	-0.16531777
232	0xbdb4a154	-0.088198334
233	0xbe1347b4	-0.14382821
234	0xbe0ff037	-0.14056478
235	0xbd4c81e7	-0.049928572
236	0xbe3b5540	-0.18294239
237	0xbe0e78ea	-0.13913313
238	0xbda2c65a	-0.07947989
239	0xbd27cc67	-0.040966418
240	0xbd909557	-0.07059734
241	0xbd652564	-0.05594386
242	0xbe21b941	-0.15793325
243	0xbceb9de1	-0.028761806
244	0xbe211363	-0.15730052
245	0xbdd7a74a	-0.10529955
246	0xbd72a645	-0.0592406
247	0xbe3d51ad	-0.18488188
248	0xbe26140f	-0.16218589
249	0xbccb4e92	-0.024817739
250	0xbdaf29c8	-0.08552891
251	0xbe1f4d51	-0.15556838
252	0xbe0fbc72	-0.1403673
253	0xbdb69595	-0.08915249
254	0xbccdcad0	-0.025121123
255	0xbd36f81b	-0.044670206

l2.bias f4 [128]
0	0x3ddd3295	0.108006634
1	0xbe325528	-0.17415297
2	0xbde4be21	-0.11169077
3	0x3d00ff49	0.03149346
4	0xbde7478a	-0.11292942
5	0xbd0e062a	-0.034673847
6	0x3dc7a3d5	0.09748045
7	0xbdaa59a2	-0.08317877
8	0xbdaefe9b	-0.08544656
9	0x3de68ec5	0.112577
10	0xbd050559	-0.032475803
11	0xbd28076a	-0.041022696
12	0xbc985bf1	-0.018598529
13	0x3e2a7d12	0.16649273
14	0xbd2ad0aa	-0.041702904
15	0xbcb9e710	-0.022693187
16	0xbdfd9a7a	-0.1238298
17	0xbe1358d1	-0.1438935
18	0x3cba3bcd	0.022733593
19	0x3df42121	0.11920381
20	0x3d7d66d8	0.061865658
21	0xbd9afd64	-0.07567862
22	0xbe1d1109	-0.1533853
23	0xbda8504c	-0.082184404
24	0x3ca818dc	0.020519666
25	0x3cc09806	0.02350999
26	0x3ca006a3	0.019534415
27	0xbcf62adf	-0.03004974
28	0x3dfc68ee	0.12324701
29	0xbd675718	-0.056479543
30	0x3d685ac0	0.05672717
31	0xbe25db33	-0.16196899
32	0xbd8c9b35	-0.06865541
33	0x3c622024	0.013801608
34	0xbd31375d	-0.04326569
35	0x3c50ee21	0.012752087
36	0x3cc88eb1	0.024482103
37	0xbd28d6ec	-0.04122059
38	0xbe11f2ea	-0.1425282
39	0x3d7c3bfa	0.061580636
40	0x3bac1d38	0.0052525066
41	0xbda7dc5f	-0.08196329
42	0xbcafea9c	-0.021474175
43	0xbd60f2d9	-0.054919098
44	0x3c2ca85c	0.010538187
45	0xbcab979b	-0.020946315
46	0x3bdbcaab	0.0067075095
47	0x3d4f710c	0.05064492
48	0x3a95d169	0.0011430207
49	0xbd0b039a	-0.03393898
50	0xbe3010f4	-0.17193967
51	0x3df162fa	0.117864564
52	0xbe25b94c	-0.16183966
53	0xbdb170ce	-0.08664094
54	0xbdb0ed0e	-0.086389646
55	0xbcfa3774	-0.03054402
56	0x3d91180a	0.07084663
57	0x3c547d68	0.012969352
58	0x3dfe0d1d	0.12404845
59	0x3d636604	0.05551721
60	0xbd999d58	-0.07500714
61	0xbdbfa27f	-0.093571655
62	0xbe3f6164	-0.18689495
63	0x3d9741b3	0.07385578
64	0x3d27db90	0.040980875
65	0xbcc8df9a	-0.024520684
66	0xbe2118fe	-0.1573219
67	0x3e00a04f	0.12561153
68	0x3e1467ab	0.14492671
69	0x3d223b55	0.039607365
70	0x3d45fb74	0.048335508
71	0xbd8bc35e	-0.06824373
72	0x3dbcf8a4	0.09227112
73	0xbde91be4	-0.11382273
74	0xbe0099fe	-0.12558743
75	0x3d90a723	0.07063129
76	0x3e0f8319	0.14014854
77	0xbd4e6e44	-0.050398126
78	0x3b94c84c	0.004540479
79	0x3cfaef3a	0.03063165
80	0x3c8c46b5	0.01712356
81	0x3c97f626	0.01854999
82	0x3c01ab31	0.00791435
83	0xbe253e3b	-0.1613702
84	0x3d102c67	0.035198595
85	0x3c7d32d0	0.015454009
86	0x3d5f5f86	0.054534458
87	0xbd892ec5	-0.06698374
88	0xbd48410c	-0.04889016
89	0xbcce49e2	-0.025181714
90	0xbe03f253	-0.12885408
91	0x3de1e8c6	0.11030726
92	0x3bfb5c53	0.007670918
93	0x3cfeeacd	0.031117821
94	0xbd77096c	-0.06031172
95	0xbc1944e7	-0.0093548065
96	0x3e209836	0.15683064
97	0xbe16e190	-0.14734483
98	0x3d3f4e7d	0.04670571
99	0xbd176954	-0.036965683
100	0x3e17ed4a	0.14836612
101	0x3d9366eb	0.071973644
102	0xbc79d27e	-0.015247939
103	0xbe3dd5c4	-0.18538576
104	0xbd83d4bc	-0.0643706
105	0x3d5dd80b	0.054161113
106	0x3e56c4b6	0.20973477
107	0x3cece6d2	0.028918657
108	0xbcc61471	-0.02417967
109	0xbd81efd5	-0.063445725
110	0xbda33fec	-0.079711765
111	0xbd9cd431	-0.0765766
112	0x3dbe93d6	0.09305541
113	0x3e5b4a50	0.21415067
114	0xbdb63525	-0.08896855
115	0xbe2036a0	-0.15645838
116	0x3e07e928	0.13272536
117	0x3d83c942	0.06434871
118	0x3d014e40	0.031568766
119	0x3b14cf5f	0.002270661
120	0x3db4ebba	0.08834024
121	0x3db96615	0.09052674
122	0x3cd410b9	0.02588688
123	0xbe3836ba	-0.17989627
124	0xbdc7ebfe	-0.09761809
125	0x3d32e48d	0.043674994
126	0xbd263e7b	-0.04058693
127	0xbd6eee2d	-0.05833261

l3.weight f4 [5, 128]
0	0xbd988fe2	-0.074493185
1	0xbc448ba2	-0.011996182
2	0xbc5664fe	-0.013085602
3	0xbe0e6300	-0.13904953
4	0xbc3531a7	-0.011059201
5	0xbee6cc4b	-0.45077738
6	0xbef1a6db	-0.47197613
7	0xbce7edcd	-0.028311634
8	0xbd0f4cf5	-0.0349855
9	0x3e8d928e	0.27650875
10	0xbe5ca190	-0.21546006
11	0xbcc00f2d	-0.023444736
12	0xbf28a2ec	-0.658736
13	0xbe9dec6b	-0.30844435
14	0xbe01bd91	-0.1266997
15	0x3edde035	0.4333512
16	0xbc51e15c	-0.0128100775
17	0xbd7c3cc7	-0.0615814
18	0x3e25f69f	0.1620736
19	0xbc70a84b	-0.014688562
20	0x3edf4b27	0.43612024
21	0x3d05cee6	0.032668017
22	0x3cdde503	0.02708674
23	0x3d911a47	0.0708509
24	0x3e0b6ec5	0.13616474
25	0xbdd4e21d	-0.1039469
26	0xbc804816	-0.015659373
27	0x3e603834	0.2189644
28	0x3e056352	0.13026169
29	0x3a7bbacc	0.0009602725
30	0xbeb89700	-0.36052704
31	0x3d42d4d8	0.047566265
32	0xbc80d266	-0.015725326
33	0xbf049a6d	-0.51798135
34	0xbdfe9c13	-0.124321125
35	0x3e8e1cea	0.27756435
36	0xbed4312e	-0.4144377
37	0x3bd4f907	0.006499413
38	0x3d25a336	0.040438853
39	0xbeda0161	-0.42579177
40	0x3dc3e472	0.09565057
41	0x3f255422	0.645815
42	0x3ec6b6d1	0.38811353
43	0xbcef6200	-0.029221535
44	0xbe891565	-0.26774135
45	0x3e73326f	0.23749708
46	0x3de2dd91	0.11077417
47	0x3eb5e445	0.35525718
48	0xbe3bd68a	-0.18343559
49	0x3f21cb0a	0.6320044
50	0xbd42cbdb	-0.047557693
51	0x3e2df495	0.16987832
52	0xbd221303	-0.039568912
53	0xbd75e9a5	-0.060037274
54	0xbea6d673	-0.32585487
55	0xbeb9ad15	-0.36264864
56	0xbf2091ce	-0.6272248
57	0x3f3bc732	0.7335082
58	0x3bb670bd	0.0055676387
59	0x3eb806e9	0.35942772
60	0xbd1d5eef	-0.038420614
61	0xbdea8bee	-0.11452471
62	0xbe193817	-0.14962803
63	0x3e916fb4	0.28405535
64	0xbef86654	-0.4851557
65	0x3caf561a	0.021403361
66	0xbd2b8a24	-0.041879788
67	0xbec80886	-0.39069003
68	0xbe70f5cc	-0.23531264
69	0xbeafea2f	-0.34358355
70	0xbd22dadb	-0.039759498
71	0x3e431614	0.19051391
72	0x3e6ca048	0.23108017
73	0xbdba8683	-0.09107687
74	0xbea8fc6a	-0.33005077
75	0xbd5b43f6	-0.05353161
76	0xbf0d9010	-0.55297947
77	0x3e5b3644	0.2140742
78	0xbee506af	-0.44731662
79	0xbe6ea8ec	-0.23306626
80	0xbe9fbfe3	-0.31201085
81	0xbea1a41b	-0.31570515
82	0x3e4a91a2	0.19782117
83	0xbd663c55	-0.05620988
84	0xbeb7f780	-0.35931015
85	0xbe393f67	-0.18090592
86	0xbda647bc	-0.08119151
87	0x3c8e4b58	0.017369911
88	0x3d8e0405	0.069343604
89	0xbe8c926c	-0.2745546
90	0xbcf21f9e	-0.029556092
91	0xbec2f8c1	-0.3808041
92	0xbf149950	-0.58046436
93	0x3d6e2119	0.058137033
94	0x3d518a73	0.051157426
95	0xbdde6055	-0.108582176
96	0xbc41d576	-0.011830678
97	0x3ba34f71	0.0049838354
98	0x3d92098e	0.07130729
99	0x3e86c67f	0.26323316
100	0xbe9271a0	-0.28602314
101	0xbc86dd25	-0.016462872
102	0x3e6cc6c7	0.23122703
103	0xbd96bb83	-0.07359984
104	0x3d3b06b0	0.045660675
105	0x3d1cdd2f	0.038296875
106	0x3cbb3018	0.022850081
107	0x3e816a8c	0.252766
108	0x3f4e4198	0.8056884
109	0xbd5463e1	-0.051853064
110	0x3d2df4ae	0.042469673
111	0xbd8e6f5b	-0.06954833
112	0x3b910913	0.0044261306
113	0xbd929bde	-0.071586356
114	0xbdeba244	-0.11505559
115	0x3ce131eb	0.027489623
116	0x3e46e362	0.19422677
117	0xbe5d10be	-0.21588418
118	0x3e7684cc	0.24074095
119	0xbec90211	-0.3925939
120	0x3f03b381	0.51445776
121	0xbb9304bf	-0.0044866498
122	0x3ee78c36	0.4522416
123	0x3d495d14	0.04916103
124	0x3d2f7db2	0.04284448
125	0x3e11b79f	0.14230202
126	0xbe9a5871	-0.301456
127	0xbdcf7aef	-0.101308696
128	0xbdbb6504	-0.091501266
129	0xbd46e1cf	-0.04855519
130	0x3cca848e	0.02472141
131	0xbeb4921d	-0.35267726
132	0x3d9157db	0.07096835
133	0xbf4e9b5b	-0.80705804
134	0x3e7f4eb1	0.24932362
135	0x3f1e0a24	0.61734223
136	0xbc1623ed	-0.009163839
137	0xbe0f9a23	-0.14023642
138	0x3eeec6ef	0.4663615
139	0xbd254c10	-0.040355742
140	0x3eb62199	0.35572508
141	0x3e3f92be	0.18708321
142	0xbe649a70	-0.22324538
143	0xbec8edfc	-0.39244068
144	0xbe321a5e	-0.17392871
145	0x395942be	0.00020719596
146	0x3e2318be	0.15927407
147	0xbdec8fd6	-0.11550872
148	0x3de586d9	0.11207361
149	0xbda2c696	-0.079480335
150	0xbd88159d	-0.066447474
151	0xbdb4d32e	-0.08829342
152	0x3e572d4f	0.21013378
153	0xbe21b060	-0.15789938
154	0xbf08a77c	-0.5338056
155	0x3eac1144	0.33606923
156	0xbedbb4b6	-0.4291131
157	0x3be57f63	0.007003711
158	0x3f0e2ce0	0.55537224
159	0xbd13afa9	-0.036056194
160	0xbde2d592	-0.110758916
161	0xbf1db0b2	-0.6159774
162	0xbde5bcc0	-0.11217642
163	0x3e71f1a0	0.23627329
164	0x3e5176b6	0.20455441
165	0xbd416f7e	-0.047225468
166	0xbc4decd5	-0.012568672
167	0x3f202d9e	0.62569606
168	0x3e3b6f42	0.1830416
169	0xbe18bcd4	-0.14915782
170	0xbea61a3a	-0.32441884
171	0xbc8cf3a9	-0.01720603
172	0x3eb5197e	0.35371011
173	0xbe4e5b24	-0.20151955
174	0x3e5f60b7	0.21814238
175	0x3e75f07d	0.2401752
176	0x3e88a3bc	0.2668742
177	0xbe7e5919	-0.24838676
178	0x3d2698ff	0.040673252
179	0x3d2370ba	0.039902426
180	0xbcc7f373	-0.024408078
181	0xbd7a63a6	-0.06113019
182	0xbead98cb	-0.33905634
183	0xbea4a0a4	-0.3215381
184	0x3e2726b5	0.1632336
185	0xbe205612	-0.15657833
186	0xbd3e7a77	-0.04650351
187	0x3f1fa7ad	0.6236523
188	0xbc838219	-0.016053246
189	0x3e95deea	0.29271632
190	0xbdb9fd19	-0.09081478
191	0x3eb13e2b	0.34617743
192	0x3e9d00ed	0.3066477
193	0xbf030d8b	-0.5119254
194	0xbdb6d74a	-0.08927782
195	0x3e4b20f3	0.19836788
196	0x3db8d45e	0.09024881
197	0x3eff1b79	0.49825647
198	0x3ebd5c57	0.36984512
199	0xbed8bce4	-0.42331612
200	0xbe041fd0	-0.1290276
201	0xbdee6282	-0.116398826
202	0x3e22e2ab	0.1590678
203	0xbd4cc7f0	-0.049995363
204	0x3e89e221	0.26930335
205	0xbedb03a6	-0.4277622
206	0x3e8b977c	0.2726401
207	0xbebc6e72	-0.36803013
208	0xbedce346	-0.43142146
209	0xbeb567a4	-0.35430634
210	0xbe98036c	-0.2969011
211	0xbdbc8789	-0.09205539
212	0x3f372fa5	0.71557075
213	0x3e4970b1	0.19671895
214	0xbdcdfc06	-0.10057835
215	0xbdb85a10	-0.09001553
216	0xbe6d39a2	-0.23166516
217	0xbeaf9e3b	-0.34300408
218	0x3d085b33	0.0332901
219	0x3e88e087	0.267338
220	0x3d2e59ac	0.042565987
221	0xbeacf810	-0.33783007
222	0xbcaed0a5	-0.021339724
223	0xbd9ea171	-0.07745636
224	0xbdbdc880	-0.09266758
225	0x3d99b789	0.0750571
226	0xbf1a3747	-0.60240597
227	0xbe993125	-0.29920307
228	0x3eb65b4a	0.35616523
229	0xbcc0b0f4	-0.023521878
230	0xbed1822c	-0.40919626
231	0x3d86c693	0.06580844
232	0xbdeaa8ca	-0.11457975
233	0x3d4e80f3	0.050415944
234	0xbde9a716	-0.11408822
235	0xbedf8b42	-0.43660933
236	0xbe26be58	-0.16283548
237	0xbea32007	-0.31860372
238	0x3bbcf424	0.0057664085
239	0xbdc62553	-0.09675088
240	0xbdb99be6	-0.090629384
241	0x3cf838f3	0.030300593
242	0xbef266f2	-0.47344166
243	0xbdabc7cc	-0.083877176
244	0x3e3710cf	0.17877506
245	0xbe7fb280	-0.24970436
246	0x3e3a2d80	0.1818142
247	0x3e7d92a5	0.24762972
248	0xbed5e1da	-0.41773874
249	0xbed1c7a1	-0.40972617
250	0xbed2f98f	-0.41206023
251	0xbc2d5d2d	-0.010581297
252	0x3cb40b86	0.021978151
253	0x3e188519	0.14894523
254	0xbee27604	-0.44230664
255	0x3d5def74	0.05418344

l3.bias f4 [5]
0	0x3c476d56	0.012172064
1	0xbd91bfbc	-0.071166486
2	0xbd83bf73	-0.064330004
3	0x3db89d55	0.09014384
4	0xbe05a290	-0.13050294
