Bot/data_time_keyword.pth (torch, 84767 bytes, 6 tensors)

l1.weight f4 [128, 25]
-0.1269244 -0.632327 -0.31567737 -0.17134584 -0.616909 -0.077072285 -1.0974144 -1.0706618
-0.26598623 -0.028083505 1.6215092 -0.78821397 -0.5509588 -0.20275447 -0.5735611 1.204364
-0.45862556 -1.1022774 -1.2211443 -0.34617272 -0.7513564 -0.6617676 -0.3782634 1.1192945
-0.44046047 -0.10950998 0.5779692 1.3539261 0.7651315 1.0117859 0.73712844 -0.49439323
-0.6731515 -0.29503503 -0.22472659 -0.64558524 0.10883578 1.3142387 1.1286306 -0.7737177
-0.86062545 0.5339198 -0.26011804 -0.51688457 1.3494815 -1.6438625 -1.9772198 -1.3914689
-0.97305644 1.1163752 -0.16709064 0.6897332 -0.03517529 0.5532275 1.4546436 0.28701225
0.75093764 0.87026954 -0.27460667 -0.31615838 -0.3252926 -0.23133555 0.5994461 0.21673115
-0.5503393 -0.6577062 1.363856 0.9352116 0.9202241 0.08805563 -1.7043179 -1.6075782
-1.2493267 -0.23237965 1.0084667 -0.13420725 0.77580625 0.5722089 0.736936 1.7726228
0.6683602 -1.4189023 -1.2266452 -0.5069038 -0.43182033 -0.9673244 -0.603123 0.9667757
0.9340521 -0.6879253 -1.3287483 1.6130093 -1.3450933 -0.9270934 1.0736647 -1.1829929
-1.2302597 -1.1574486 -1.3469396 1.4909381 -0.7000269 0.99906456 -0.9074878 -0.008438395
1.7193644 0.045433007 -0.94019675 -0.75600004 -0.73023534 -0.73213977 -0.6696221 -0.9955293
-0.51706374 -0.9163482 -0.16749354 -1.026959 1.9761144 -0.43822375 -0.38547948 -1.0807085
-0.25490874 -0.20873006 -0.71874195 -0.7599052 2.071184 -0.13600132 0.7820684 -1.1108496
0.04660134 1.4575629 -0.2284262 -1.3697722 -1.0300062 -0.10950817 -0.065852106 0.56703943
-0.66516775 -0.56396234 -0.86553997 -0.21588938 1.0659673 1.9494098 -1.4205867 -1.3774635
-0.77620924 0.99092543 0.6430226 0.6961455 0.732908 1.3709555 -0.0076523116 -0.74751496
-0.65993905 -0.69878834 -1.2236669 -0.49759337 -0.4861143 -0.24165298 -0.04950794 -0.02001032
-1.3206247 -0.006904104 -0.9439932 -0.5661523 0.5012946 -1.4477856 -0.97771 -0.23400758
-0.23498508 -0.502575 1.8074915 1.959463 1.5893781 -1.0890108 -0.6938453 0.012925562
-0.2384659 -0.041207973 -0.15683593 0.013280251 -0.40041888 -1.4218665 -1.4574254 0.0297412
0.116732776 -0.96960044 0.19606431 -0.33872518 -0.04695999 0.020096255 -0.8718119 -0.28073934
-1.5174637 -1.2666461 0.24569067 1.51364 1.805756 1.50866 -0.65560275 -0.32429835
-0.08980137 0.17233726 -0.6825368 0.045557547 1.2531548 0.023857981 -1.3170397 -1.3011107
-0.07401271 -0.21640712 0.66554534 -0.783889 -0.61954546 -0.60096925 -0.60277885 0.8437964
1.0812641 -1.4521658 -1.3486613 -0.69369197 0.5758572 0.26540223 0.40975407 0.62431085
0.9565702 -0.35247144 -0.15896447 -0.44399148 -0.35826182 -0.7471326 -0.4699052 1.7219529
1.9327722 -0.24728563 -0.30900818 0.27926698 -0.36827227 -0.60401875 -0.48325646 -0.06534297
0.11039909 -0.21371008 1.9907435 2.116715 -0.57273495 -0.99485165 -1.1452231 -1.1472604
-0.031744365 -0.40649852 -0.06306157 -0.3963815 -0.64151865 -0.28055137 -0.9705859 -0.63296753
00000000: 78f8 01be 2fe0 21bf 77a0 a1be 4975 2fbe
00000010: c0ed 1dbf 13d8 9dbd 1378 8cbf 720b 89bf
00000020: 592f 88be 610f e6bc 9d8d cf3f 64c8 49bf
00000030: a30b 0dbf de9e 4fbe e6d4 12bf 9928 9a3f
00000040: f8d0 eabe 6d17 8dbf 754e 9cbf 8d3d b1be
00000050: e558 40bf 9a69 29bf beab c1be 0b45 8f3f
00000060: 0984 e1be c546 e0bd caf5 133f 734d ad3f
00000070: a8df 433f 3382 813f 73b4 3c3f 1c21 fdbe
00000080: a853 2cbf d50e 97be ba1e 66be 1345 25bf
00000090: 4be5 de3d f938 a83f f876 903f 5d12 46bf
000000a0: f351 5cbf f8ae 083f 312e 85be 8c52 04bf
000000b0: cfbb ac3f 166a d2bf 8a15 fdbf a71b b2bf
000000c0: 3a1a 79bf 62e5 8e3f cf19 2bbe 5b92 303f
000000d0: f713 10bd 51a0 0d3f c331 ba3f 45f3 923e
000000e0: 733d 403f fcc9 5e3f 3f99 8cbe 83df a1be
000000f0: c08c a6be 3ae3 6cbe 4d75 193f c5ee 5d3e
00000100: 09e3 0cbf 6f5f 28bf d592 ae3f 076a 6f3f
00000110: ce93 6b3f 8356 b43d 1727 dabf 1fc5 cdbf
00000120: f0e9 9fbf eef4 6dbe 7015 813f a06d 09be
00000130: 3d9b 463f 487c 123f d6a7 3c3f 4ee5 e23f
00000140: a719 2b3f 979e b5bf b602 9dbf 73c4 01bf
00000150: 8e17 ddbe 92a2 77bf 4566 1abf 9d7e 773f
00000160: 0a1e 6f3f df1b 30bf 6d14 aabf 1777 ce3f
00000170: 042c acbf fe55 6dbf d86d 893f 506c 97bf
00000180: 2679 9dbf 4727 94bf 8468 acbf 0fd7 be3f
00000190: f734 33bf b2c2 7f3f 1f51 68bf 3241 0abc
000001a0: 2214 dc3f f617 3a3d bcb0 70bf 3889 41bf
000001b0: b4f0 3abf 836d 3bbf 5b6c 2bbf 02db 7ebf
000001c0: 4a5e 04bf cc95 6abf 6d83 2bbe 6473 83bf
000001d0: 51f1 fc3f dd5e e0be 915d c5be a854 8abf
000001e0: 6683 82be 55bd 55be 79ff 37bf 2689 42bf
000001f0: 478e 0440 ee43 0bbe a235 483f 5230 8ebf
00000200: 0ce1 3e3d 6c91 ba3f 8fe8 69be b254 afbf
00000210: 3ed7 83bf d245 e0bd 78dd 86bd 7f29 113f
00000220: 6f48 2abf d65f 10bf 0794 5dbf 1b12 5dbe
00000230: 9e71 883f 4386 f93f c9d5 b5bf b950 b0bf
00000240: a6b5 46bf 4aad 7d3f 219d 243f 9736 323f
00000250: dc9f 3b3f 787b af3f 3ec0 fabb 245d 3fbf
00000260: c4f1 28bf cbe3 32bf 1ea1 9cbf 8fc4 febe
00000270: f9e3 f8be e173 77be d6c8 4abd afec a3bc
00000280: 3b0a a9bf d23b e2bb 8aa9 71bf 5bef 10bf
00000290: d854 003f 0a51 b9bf 344b 7abf af9f 6fbe
000002a0: ee9f 70be c1a8 00bf e25b e73f afcf fa3f
000002b0: be70 cb3f b564 8bbf d89f 31bf bdc5 533c
000002c0: 6830 74be b1c9 28bd 9999 20be 6995 593c
000002d0: b403 cdbe b9ff b5bf ea8c babf d1a3 f33c
000002e0: 9811 ef3d bc37 78bf 15c5 483e 636d adbe
000002f0: 1e59 40bd e7a0 a43c 112f 5fbf 11bd 8fbe
00000300: 403c c2bf 7621 a2bf 5696 7b3e f5be c13f
00000310: 0323 e73f c51b c13f 95d5 27bf 6f0a a6be
00000320: c8e9 b7bd 2e79 303e bbba 2ebf 8d9a 3a3d
00000330: 6067 a03f d071 c33c c294 a8bf cc8a a6bf
00000340: fa93 97bd d499 5dbe 2e61 2a3f f3ac 48bf
00000350: 889a 1ebf 1fd9 19bf b74f 1abf 0a03 583f
00000360: dd66 8a3f 92e0 b9bf efa0 acbf cc95 31bf
00000370: 616b 133f cde2 873e 49cb d13e d6d2 1f3f
00000380: c9e1 743f 2377 b4be 95c7 22be da52 e3be
00000390: 186e b7be 1544 3fbf 6a97 f0be f468 dc3f
000003a0: 1465 f73f 7238 7dbe 5236 9ebe 15fc 8e3e
000003b0: 2f8e bcbe f9a0 1abf 646d f7be 89d2 85bd
000003c0: eb18 e23d d1d6 5abe afd0 fe3f 4278 0740
000003d0: c29e 12bf 99ae 7ebf ac96 92bf 6ed9 92bf
000003e0: 6106 02bd 9320 d0be 6d26 81bd 84f2 cabe
000003f0: 913a 24bf 6ea4 8fbe 5178 78bf 290a 22bf

l1.bias f4 [128]
-0.9359683 -0.2644688 -0.3446636 -0.33956182 -0.5359022 -0.37709072 -0.45322105 -0.5119438
-0.5277672 -0.60277444 -0.6060893 -0.46299 -0.63317287 -0.4858036 -0.7655246 -0.4660619
-0.7485061 -0.3258015 -0.3469426 -0.7164682 -0.5353415 -0.72824436 -0.5888073 -0.4914099
-0.3340842 -0.22853616 -0.507474 -0.7697683 -0.36052987 -0.6688435 -0.25858894 -0.47767216
-0.67756736 -0.20441653 -0.6209962 -0.40852267 -0.457976 -0.18459785 -0.70837647 -0.36711082
-0.45447898 -0.29259595 -0.36444396 -0.27674598 -0.48791876 -0.3048532 -0.40183997 -0.44071996
-0.19114989 -0.68669516 -0.5047646 -0.42532557 -0.25466686 -0.6372661 -0.29423258 -0.3612229
-0.39367747 -0.42731637 -0.42861164 -0.24803612 -0.47353306 -0.4536857 -0.31892067 -0.5597916
-0.53105146 -0.48123696 -0.46973702 -0.49722308 -0.42498115 -0.41925806 -0.26738974 -0.5830799
-0.2778469 -0.3438266 -0.3274945 -0.13220091 -0.22282681 -0.16992463 -0.36653504 -0.563919
-0.13996021 -0.48281968 -0.33513072 -0.34339008 -0.26205 -0.49946207 -0.25774753 -0.50158334
-0.9668941 -0.46468174 -0.36566976 -0.28528455 -0.40160367 -0.4342068 -0.6905583 -0.7107235
-0.4201708 -0.41281533 -0.13394736 -0.8342869 -0.21667512 -0.5729143 0.025495052 -0.57301646
-0.38503075 -0.53294146 -0.25936154 -0.37943622 -0.24182847 -0.48380616 -0.40079403 -0.63289493
-0.46208227 -0.67673063 -0.11981219 -0.5733164 -0.22422832 -0.46429586 -0.37127155 -0.60203236
-0.40105253 -0.2731771 -0.26479542 -0.40229103 -0.23285452 -0.98974127 -0.56559044 -0.21161132
00000000: 9e9b 6fbf 7468 87be bf77 b0be 0cdb adbe
00000010: e330 09bf 0912 c1be 970c e8be c00e 03bf
00000020: c01b 07bf 6d4f 1abf ab28 1bbf 060d edbe
00000030: 9e17 22bf 40bb f8be 6cf9 43bf aa9f eebe
00000040: 199e 3fbf 74cf a6be 76a2 b1be 766a 37bf
00000050: 240c 09bf 396e 3abf 13bc 16bf 149a fbbe
00000060: 160d abbe 6205 6abe d1e9 01bf 890f 45bf
00000070: 5f97 b8be 5439 2bbf c565 84be 7291 f4be
00000080: 0e75 2dbf 9152 51be 9bf9 1ebf e229 d1be
00000090: d57b eabe 3807 3dbe 2958 35bf f3f5 bbbe
000000a0: 78b1 e8be 23cf 95be 6698 babe a6b1 8dbe
000000b0: 7dd0 f9be b815 9cbe f8bd cdbe 0ca6 e1be
000000c0: ccbc 43be 41cb 2fbf 4138 01bf 46c4 d9be
000000d0: b263 82be df23 23bf a7a5 96be 35f2 b8be
000000e0: 1890 c9be 36c9 dabe fc72 dbbe 2efd 7dbe
000000f0: ed72 f2be 7e49 e8be 9249 a3be 814e 0fbf
00000100: fdf2 07bf b164 f6be 5f81 f0be 0694 febe
00000110: 2197 d9be fea8 d6be 4fe7 88be b944 15bf
00000120: f341 8ebe 0a0a b0be 5cad a7be ad5f 07be
00000130: b62c 64be b900 2ebe 7baa bbbe ff5c 10bf
00000140: bb51 0fbe 2434 f7be 4196 abbe d3d0 afbe
00000150: 6b2b 86be 7eb9 ffbe 7cf7 83be c467 00bf
00000160: 5f86 77bf c4ea edbe 1139 bbbe d110 92be
00000170: ff9e cdbe 5b50 debe 6ec8 30bf faf1 35bf
00000180: a120 d7be 885c d3be 7f29 09be d493 55bf
00000190: 15e0 5dbe 83aa 12bf 00db d03c 35b1 12bf
000001a0: c022 c5be da6e 08bf 09cb 84be 7745 c2be
000001b0: e2a1 77be 71b5 f7be e034 cdbe 6705 22bf
000001c0: 0c96 ecbe 383e 2dbf 1860 f5bd ddc4 12bf
000001d0: 1c9c 65be 30b8 edbe 4e17 bebe cb1e 1abf
000001e0: c256 cdbe dedd 8bbe 4493 87be 17f9 cdbe
000001f0: 6a71 6ebe af5f 7dbf 89ca 10bf a3b0 58be

l2.weight f4 [128, 128]
0.10910038 -0.11902511 -0.37871462 -0.30354458 -0.35411417 -0.03491303 0.1677478 0.15113384
-0.049964264 -0.2464409 -0.15585211 -0.14613013 -0.38923338 -0.40548816 -0.29199848 -0.04013303
-0.06884037 -0.09855017 0.24074781 0.06354368 0.33742842 0.20624359 -0.0432307 -0.26970816
-0.15143938 -0.08487497 -0.25400662 0.12495013 0.06580863 -0.2157448 -0.096123435 0.052860707
0.104058504 -0.219007 -0.14746888 0.32070798 0.49817017 0.5049418 0.37000713 0.4018062
0.4319313 -0.043289572 -0.48620334 0.01158048 0.22254711 0.36596894 0.43613005 -0.11066076
0.56657386 0.23631836 0.07525728 -0.26400155 -0.13314931 0.261855 0.35678005 0.0906352
-0.005184162 0.3504643 -0.2021183 0.17750841 0.26969954 -0.06724663 -0.08165041 0.12439022
0.30084258 0.21576595 -0.079674825 0.4173694 0.28979167 0.23008315 0.13533182 -0.38035163
0.45182985 -0.334951 -0.23528296 -0.030439394 0.18598537 0.36062908 0.025477417 -0.16174069
0.104520686 -0.21302326 0.041551307 -0.14561343 -0.08333982 0.27446544 -0.4906167 -0.13884597
0.105850175 0.50766116 0.3808172 -0.5479248 -0.33685148 -0.27977234 0.30226916 -0.24207205
0.20659035 -0.06422195 -0.157403 0.15008512 -0.14280528 -0.11351985 -0.44240054 -0.41453665
0.0020899759 0.084591374 0.4064913 -0.05539658 -0.28592342 0.2830761 0.48728687 0.116901465
0.2369846 0.11581444 -0.053359717 0.32112017 -0.3776306 0.23389837 0.08110952 -0.22278264
0.2540346 -0.036055323 -0.4122796 -0.19151409 0.3363544 -0.19085708 0.01605509 -0.03456927
-0.09353767 -0.37970346 -0.414787 -0.25933403 -0.018750364 0.04447466 0.3716799 0.28046328
-0.06672863 -0.2607559 -0.2475189 -0.1146644 -0.06360217 -0.15812893 -0.05282549 -0.23439784
-0.24516092 -0.13875805 0.3669769 -0.06338111 0.14520462 -0.0074646045 -0.14184353 -0.13371064
-0.025762098 -0.19123568 -0.3547124 -0.16503869 0.25128514 -0.14559928 -0.20370734 -0.17732167
-0.25282332 -0.11664164 -0.23403355 0.29814035 0.0484212 -0.051469665 -0.12042455 -0.122620754
0.19813761 0.23915458 -0.08962585 0.09760113 -0.11652867 0.28331664 -0.086084746 -0.20989946
0.20774356 -0.18437715 0.27266452 -0.1702878 -0.29506132 0.2623915 0.14874917 -0.15018964
-0.26109275 0.2674474 -0.1317838 0.21552652 0.15164632 0.0844913 -0.1211935 0.26877892
-0.046217654 -0.28272423 0.050174884 0.17766975 0.22612463 -0.2702334 0.22914821 0.01132698
0.1315665 -0.40109238 -0.12088489 0.20988995 0.37236047 -0.31732017 0.29833126 -0.10442737
0.18664582 -0.16399506 -0.26149687 -0.09596209 -0.029495498 -0.04471444 -0.35502875 0.009177111
0.04910229 -0.18593995 -0.0346736 -0.13656348 0.06518185 -0.12271372 0.11122535 -0.043724094
-0.3270721 -0.17956658 0.000507757 0.12907237 0.03761429 -0.22986089 0.043243166 -0.24146397
-0.064959876 -0.35629427 0.078900866 0.1965749 -0.30760303 0.12363569 -0.03707615 -0.011437256
0.20474254 -0.20745745 -0.3765177 0.23304853 -0.31549892 0.29913148 -0.3171972 -0.07029373
-0.3166897 -0.25794688 -0.31276602 -0.12994601 0.33147612 -0.06869454 -0.20610748 0.32526734
00000000: 0570 df3d 70c3 f3bd e2e6 c1be 326a 9bbe
00000010: 744e b5be f700 0fbd 14c6 2b3e d4c2 1a3e
00000020: 54a7 4cbd 015b 7cbe b297 1fbe 23a3 15be
00000030: 9949 c7be 259c cfbe d380 95be 8862 24bd
00000040: 2efc 8cbd acd4 c9bd 9886 763e 3023 823d
00000050: 6bc3 ac3e 8531 533e ad12 31bd 3017 8abe
00000060: ed12 1bbe eed2 adbd 280d 82be dbe5 ff3d
00000070: adc6 863d 34ec 5cbe 5ddc c4bd 7884 583d
00000080: a01c d53d 5f43 60be 1502 17be d633 a43e
00000090: 2910 ff3e de43 013f 9371 bd3e 8bb9 cd3e
000000a0: 1926 dd3e 6850 31bd a5ef f8be 0ebc 3d3c
000000b0: 64e3 633e 4860 bb3e 704c df3e 1ca2 e2bd
000000c0: fc0a 113f 71fd 713e 7d20 9a3d 362b 87be
000000d0: 4b58 08be dc11 863e e0ab b63e f39e b93d
000000e0: e7df a9bb 0f70 b33e 1af8 4ebe c4c4 353e
000000f0: 0f16 8a3e 9ab8 89bd 5538 a7bd 4dc0 fe3d
00000100: 0a08 9a3e c0f1 5c3e 8e2c a3bd 71b1 d53e
00000110: 935f 943e eb9a 6b3e 6d94 0a3e 73bd c2be
00000120: 3e56 e73e b37e abbe 04ee 70be 095c f9bc
00000130: f372 3e3e 60a4 b83e 04b6 d03c 5a9f 25be
00000140: f10e d63d c522 5abe b431 2a3d b01b 15be
00000150: 11ae aabd bc86 8c3e 1d32 fbbe a32d 0ebe
00000160: fac7 d83d 15f6 013f 79fa c23e cd44 0cbf
00000170: cc77 acbe 523e 8fbe 06c3 9a3e bce1 77be
00000180: 6c8c 533e cc86 83bd 412e 21be eaaf 193e
00000190: 8c3b 12be 187d e8bd 5382 e2be 263e d4be
000001a0: faf7 083b 3e3e ad3d a11f d03e 86e7 62bd
000001b0: 8e64 92be 5aef 903e aa7d f93e 096a ef3d
000001c0: 17ac 723e 1f30 ed3d b88f 5abd dd69 a43e
000001d0: cc58 c1be 0e83 6f3e bf1c a63d 2221 64be
000001e0: d310 823e bfae 13bd 5016 d3be 451c 44be
000001f0: a536 ac3e 0a70 43be f785 833c 8298 0dbd
00000200: ae90 bfbd 7e68 c2be f65e d4be 6ec7 84be
00000210: 5d9a 99bc 102b 363d d44c be3e e298 8f3e
00000220: 05a9 88bd cc81 85be 9875 7dbe 2bd5 eabd
00000230: db41 82bd 8dec 21be 8a5f 58bd fd05 70be
00000240: 770b 7bbe 9716 0ebe 65e4 bb3e f5cd 81bd
00000250: 85b0 143e a499 f4bb 6e3f 11be 71eb 08be
00000260: 090b d3bc 49d3 43be dd9c b5be e7ff 28be
00000270: 72a8 803e fa17 15be a898 50be d093 35be
00000280: 0f72 81be d0e1 eebd 7ea6 6fbe daa5 983e
00000290: 4f55 463d dbd1 52bd 25a1 f6bd 9720 fbbd
000002a0: 96e4 4a3e f0e4 743e c28d b7bd 1ae3 c73d
000002b0: 95a6 eebd e10e 913e 334d b0bd e2ef 56be
000002c0: baba 543e 5dcd 3cbe af9a 8b3e ed5f 2ebe
000002d0: 4712 97be 2e58 863e b451 183e 50cb 19be
000002e0: f3ad 85be deee 883e 55f2 06be fcb2 5c3e
000002f0: 2c49 1b3e c609 ad3d 4c34 f8bd 649d 893e
00000300: b94e 3dbd 3bc1 90be 2e84 4d3d 0fef 353e
00000310: 378d 673e 085c 8abe d4a5 6a3e cc94 393c
00000320: 5eb9 063e fb5b cdbe 7f92 f7bd 64ed 563e
00000330: 08a6 be3e ca77 a2be e0be 983e 04de d5bd
00000340: 1520 3f3e 52ee 27be ebe2 85be c687 c4bd
00000350: 8ba0 f1bc 7d26 37bd 54c6 b5be 985b 163c
00000360: 7c1f 493d 0b67 3ebe e805 0ebd 4cd7 0bbe
00000370: 107e 853d 5551 fbbd 1eca e33d 0918 33bd
00000380: ff75 a7be 4de0 37be ff1a 053a 8c2b 043e
00000390: 7111 1a3d a760 6bbe bf1f 313d 5542 77be
000003a0: af09 85bd 346c b6be c796 a13d ee4a 493e
000003b0: 257e 9dbe b534 fd3d 29dd 17bd 5463 3bbc
000003c0: 07a8 513e ba6f 54be eec6 c0be 46a4 6e3e
000003d0: 1389 a1be c327 993e ac67 a2be 29f6 8fbd
000003e0: 2725 a2be 9d11 84be de22 a0be 9110 05be
000003f0: 3db7 a93e b9af 8cbd d70d 53be 7189 a63e

l2.bias f4 [128]
0.027685352 -0.04046828 -0.017815787 -0.06800912 0.2936115 0.094041 -0.049961507 -0.0782794
0.01610568 0.029222002 0.037702616 -0.08130751 0.14735183 -0.15088739 0.20012183 -0.018339977
-0.12789387 0.17694351 0.02033945 -0.17191699 0.21440616 0.10013096 -0.003314616 -0.011848302
0.1258215 0.0080086235 -0.06212815 0.031366326 0.08320273 -0.13585243 -0.06293982 -0.0027367396
0.030645961 -0.0049970383 -0.07560256 -0.07680597 -0.12259559 -0.118813105 0.1254022 0.012158888
-0.054352023 -0.061096303 0.0047674365 -0.06600155 -0.13193995 -0.11187872 -0.086531095 0.011722527
-0.030076358 -0.012541223 0.08080182 0.050420564 0.15862697 0.030875966 -0.023072314 -0.2277607
0.21898668 -0.116710104 -0.0659292 0.04864057 0.04064624 -0.029276358 -0.021003274 0.023278337
0.09966782 0.12036827 0.070639744 -0.034158166 -0.08454383 0.07979374 -0.01579541 -0.02041015
-0.10811136 0.036552552 0.011933376 -0.10764468 -0.031279363 -0.13664079 0.082861505 -0.08303405
0.07317385 0.010567746 -0.13322477 0.07364929 -0.14908324 0.020609437 -0.049546428 -0.030046768
-0.054160703 -0.10929276 0.0015476639 0.015657175 -0.04367966 0.02707915 -0.03980958 0.07446669
0.08012393 -0.028721282 0.09998591 0.01704797 -0.05182082 -0.005020413 0.09567909 -0.01915187
-0.090525135 -0.11033286 -0.0005144726 0.04038947 -0.010334881 0.12026314 -0.12046503 0.15525165
-0.20580578 0.2228815 -0.005517029 0.11805341 2.3037817e-05 0.051732745 0.08222926 -0.11712711
0.0020555663 0.004547415 0.02177287 -0.14093788 -0.056281637 -0.029373527 -0.008362624 -0.09425773
00000000: 64cc e23c 11c2 25bd 6af2 91bc 5e48 8bbd
00000010: 3f54 963e 9198 c03d 70a4 4cbd f350 a0bd
00000020: 0ff0 833c fb62 ef3c 0f6e 1a3d 8d84 a6bd
00000030: 66e3 163e 3982 1abe bdec 4c3e b83d 96bc
00000040: 9cf6 02be ae30 353e eb9e a63c 020b 30be
00000050: 4a8d 5b3e 7611 cd3d 073a 59bb 611f 42bc
00000060: 5ad7 003e 9a36 033c 167a 7ebd fa79 003d
00000070: 3166 aa3d e61c 0bbe 98e6 80bd df5a 33bb
00000080: 3d0d fb3c 32be a3bb 84d5 9abd 734c 9dbd
00000090: 6613 fbbd 4954 f3bd 6f69 003e 1336 473c
000000a0: 3aa0 5ebd 1e40 7abd 2838 9c3b d22b 87bd
000000b0: 441b 07be ac20 e5bd 3737 b1bd d80f 403c
000000c0: b262 f6bc b479 4dbc 6d7b a53d cb85 4e3d
000000d0: 1c6f 223e 98ef fc3c 2602 bdbc 1a3a 69be
000000e0: 0b3e 603e b505 efbd e305 87bd 563b 473d
000000f0: ac7c 263d f9d4 efbc 0f0f acbc 36b2 be3c
00000100: a41e cc3d a483 f63d 92ab 903d 6fe9 0bbd
00000110: 5125 adbd e66a a33d 6065 81bc 3033 a7bc
00000120: 7d69 ddbd 21b8 153d 3584 433c d074 dcbd
00000130: ca1e 00bd 90eb 0bbe 4bb3 a93d c20d aabd
00000140: 2cdc 953d 5724 2d3c 136c 08be 70d5 963d
00000150: 47a9 18be 1fd5 a83c 32f1 4abd a424 f6bc
00000160: 9dd7 5dbd e2d4 dfbd fcda ca3a 7a43 803c
00000170: 71e9 32bd 18d5 dd3c 5f0f 23bd fe81 983d
00000180: 0418 a43d e548 ebbc 6ac5 cc3d 2fa8 8b3c
00000190: 1142 54bd 4782 a4bb 66f3 c33d 62e4 9cbc
000001a0: 3e65 b9bd 32f6 e1bd acdd 06ba 6e6f 253d
000001b0: a253 29bc 854c f63d 5fb6 f6bd 4afa 1e3e
000001c0: c0be 52be 0c3b 643e 32c8 b4bb fcc5 f13d
000001d0: 5641 c137 b7e5 533d d067 a83d 57e0 efbd
000001e0: aeb6 063b 7b02 953b 055d b23c 0552 10be
000001f0: 9387 66bd c0a0 f0bc 6303 09bc 320a c1bd

l3.weight f4 [5, 128]
-0.58109546 -0.285105 -0.029543245 -0.2206077 -0.020837761 -0.31495282 -0.15468346 -0.07954967
-0.21133691 -0.4354542 0.5551588 0.011374775 -0.6638519 -0.03155918 -0.07023188 -0.0752451
-0.045638755 0.3147348 -0.45191437 -0.032855034 -0.13496722 -0.547134 -0.36753017 -0.32678002
-0.6575486 -0.869123 0.560874 0.32414046 -0.74187577 0.99693584 0.13837095 -0.24121985
0.2939555 -0.122827195 -0.047578793 -0.09318536 -0.16140366 -0.06857437 0.05384314 -0.017301561
-0.06844099 -0.38921022 0.32340097 -0.19325869 -0.0008110232 -0.08271969 0.4390125 -0.44180647
0.110339604 -0.18789169 0.32342646 -0.23677829 -0.09945369 0.3838757 0.08978507 0.06319059
-0.16129097 -0.047804117 0.07605836 -0.01921049 0.34876195 0.3533089 0.013050619 -0.2207078
0.3458047 -0.050435737 0.31703794 -0.22959182 -0.043592457 -0.3113874 0.2626523 0.40331557
0.33111727 -0.09201118 -0.27671352 0.23407647 -0.02961157 0.06752818 0.51009387 -0.48724875
-0.3485635 -0.39981893 -0.4082308 -1.1062689 -0.07817079 0.2727312 -0.18917735 -0.4714071
0.5997807 0.8101571 0.17398402 0.6363352 0.35703114 -0.5865511 -0.4139621 -0.19936728
-0.40458527 0.10212295 0.2593497 0.3155918 -0.43058592 -0.19952767 0.015629504 0.76981914
0.23185362 -0.14959656 -0.13615635 0.010891332 -0.43592745 0.13124949 0.1820538 0.18987243
0.028542347 -0.13306269 -0.385829 0.63466275 -0.2920023 0.33611843 -0.44127035 0.06928565
0.45635754 -0.7833694 -0.3069357 -0.05653377 -0.031694744 0.19134673 0.5297473 0.009166636
0.31100726 -0.1809338 -0.01216503 -0.13847613 0.06463661 0.4263526 -0.2103452 0.044347413
-0.18591303 -0.630239 -0.525008 0.021745581 0.5408183 0.0015190558 -0.054845247 -0.0082931025
0.13793677 -0.59479326 -0.5860166 -0.098131925 0.019928133 0.13401818 -0.3415902 0.37649405
0.19196363 0.4635686 -0.51017964 -0.39746436 0.5153751 -0.2629282 0.28542376 -0.081167415
-0.86724275 -0.034170672 -0.031343803 -0.11060217 -0.08463557 -0.0044302107 -0.0870203 0.01060982
0.12294946 -0.50547624 -0.64195776 -0.26211524 0.017752701 -0.1087435 -0.37490734 -0.45671353
-0.04420957 -0.2944769 -0.6059041 -0.24275689 -0.011558218 0.46941468 0.18529943 -0.009314356
-0.05259167 0.0756567 0.051235836 -0.042172797 -0.3725161 -0.35862583 0.18100621 -0.23780048
-0.7360088 -0.029280799 -0.86889815 -0.26144093 -0.020585805 -0.5062548 -0.74377984 -0.4466702
0.46651688 -0.15845296 -0.25171575 0.33228362 -0.042589318 0.053687293 -0.34881827 0.58733886
-0.27964544 0.23891939 0.5122565 0.22533005 -0.030230895 -0.72840786 0.19216108 -0.48308372
-0.1721273 -0.296448 -0.53764087 0.5985288 -0.32995477 0.7442386 0.42789367 -0.3579317
-0.544517 0.2953421 0.5042043 0.5215507 -0.40178096 0.47089553 -0.031336494 -0.2436321
0.50744677 -0.023278164 0.07242507 0.10102404 -0.6777078 0.22733307 0.37398908 0.19215061
0.054558367 0.008257178 0.72503644 -0.44553748 0.4063423 -0.8374063 0.6872479 0.10388135
-0.5058728 0.17608218 0.52859354 0.033706166 -0.084233984 -0.43906474 0.65009356 0.005145577
00000000: acc2 14bf 48f9 91be ad04 f2bc fce6 61be
00000010: f4b3 aabc 7f41 a1be 5765 1ebe f0ea a2bd
00000020: b468 58be daf3 debe e31e 0e3f 445d 3a3c
00000030: 33f2 29bf 3344 01bd bbd5 8fbd 1a1a 9abd
00000040: b4ef 3abd eb24 a13e 5261 e7be 0093 06bd
00000050: d934 0abe f910 0cbf ea2c bcbe b64f a7be
00000060: 1b55 28bf d87e 5ebf 7095 0f3f bdf5 a53e
00000070: 92eb 3dbf 3037 7f3f 1db1 0d3e 5602 77be
00000080: 5681 963e d38c fbbd fbe1 42bd f7d7 bebd
00000090: 0047 25be b870 8cbd a08a 5c3d 01bc 8dbc
000000a0: ca2a 8cbd 9046 c7be d094 a53e 9be5 45be
000000b0: d89a 54ba f168 a9bd 3fc6 e03e 7534 e2be
000000c0: bbf9 e13d ae66 40be 2798 a53e 0276 72be
000000d0: 60ae cbbd 5b8b c43e 3ce1 b73d 116a 813d
000000e0: 7629 25be 40ce 43bd 7cc4 9b3d 515f 9dbc
000000f0: ed90 b23e e7e4 b43e 43d2 553c 3a01 62be
00000100: 500d b13e b495 4ebd cc52 a23e 1e1a 6bbe
00000110: 018e 32bd 2b6e 9fbe 5d7a 863e 617f ce3e
00000120: 3488 a93e 5c70 bcbd 65ad 8dbe beb1 6f3e
00000130: f793 f2bc 374c 8a3d 8395 023f ab78 f9be
00000140: ea76 b2be 11b5 ccbe a103 d1be 389a 8dbf
00000150: 0218 a0bd 6da3 8b3e b5b7 41be 455c f1be
00000160: 3a8b 193f 7566 4f3f de28 323e dde6 223f
00000170: c9cc b63e 3628 16bf d7f2 d3be f026 4cbe
00000180: cd25 cfbe d625 d13d 7cc9 843e 4095 a13e
00000190: c275 dcbe fb50 4cbe 7209 803c de12 453f
000001a0: 096b 6d3e d72f 19be 926c 0bbe 8f71 323c
000001b0: e231 dfbe 4466 063e 506c 3a3e eb6d 423e
000001c0: a4d1 e93c 9641 08be 618b c5be 4279 223f
000001d0: 5381 95be b717 ac3e 30ee e1be a3e5 8d3d
000001e0: b2a7 e93e e68a 48bf ad26 9dbe f48f 67bd
000001f0: 59d2 01bd 66f0 433e 859d 073f a82f 163c
00000200: 583c 9f3e b646 39be d64f 47bc b0cc 0dbe
00000210: 3360 843d e34a da3e bb64 57be a2a5 353d
00000220: fc5f 3ebe 5857 21bf ed66 06bf ca23 b23c
00000230: 1173 0a3f 0e1b c73a 69a5 60bd cbdf 07bc
00000240: 4c3f 0d3e 5f44 18bf 2f05 16bf 64f9 c8bd
00000250: 5340 a33c 103c 093e e9e4 aebe d4c3 c03e
00000260: 1d92 443e dd58 ed3e 229b 02bf 7380 cbbe
00000270: 9fef 033f 869e 86be 1023 923e 1a3b a6bd
00000280: 9f03 5ebf 8cf6 0bbd 5c62 00bd 6483 e2bd
00000290: 6a55 adbd 4d2b 91bb b337 b2bd cfd4 2d3c
000002a0: edcc fb3d e466 01bf 5857 24bf f833 86be
000002b0: 1d6e 913c eab4 debd dbf3 bfbe 5bd6 e9be
000002c0: 1815 35bd adc5 96be 881c 1bbf 4395 78be
000002d0: ae5e 3dbc 1f57 f03e 22bf 3d3e 3e9b 18bc
000002e0: 5d6a 57bd e6f1 9a3d abdc 513d 62bd 2cbd
000002f0: 6eba bebe ce9d b7be b159 393e f881 73be
00000300: 136b 3cbf 49de efbc 1c70 5ebf 96db 85be
00000310: 90a3 a8bc ea99 01bf 5b68 3ebf f5b1 e4be
00000320: 4ddb ee3e 7e41 22be e3e0 80be 1421 aa3e
00000330: 2372 2ebd 35e7 5b3d 4f98 b2be d75b 163f
00000340: b02d 8fbe 49a7 743e 3e23 033f ecbc 663e
00000350: c8a6 f7bc f078 3abf e0c5 443e c056 f7be
00000360: 2442 30be 08c8 97be d5a2 09bf 2f39 193f
00000370: d5ef a8be 6c86 3e3f e114 db3e d342 b7be
00000380: 7765 0bbf 1437 973e 8813 013f 5984 053f
00000390: 3cb6 cdbe 3819 f13e b25a 00bd b17a 79be
000003a0: 08e8 013f d9b1 bebc 9853 943d b1e5 ce3d
000003b0: 427e 2dbf 00ca 683e 7f7b bf3e 21c3 443e
000003c0: 9878 5f3d 1d49 073c fd9b 393f 7d1d e4be
000003d0: 190c d03e 4260 56bf 7aef 2f3f bfbf d43d
000003e0: e180 01bf e34e 343e e851 073f 7a0f 0a3d
000003f0: de82 acbd 18cd e0be 886c 263f 3a9c a83b

l3.bias f4 [5]
-0.00934819 0.08151772 -0.06896436 0.04367664 -0.16070206
00000000: 2729 19bc c3f2 a63d 303d 8dbd 47e6 323d
00000010: 158f 24be
