Bot/data_stock_keyword.pth (torch, 849311 bytes, 6 tensors)

l1.weight f4 [128, 1086]
0.6239318 -0.21488181 -0.1682639 -0.3713692 -0.28100914 0.38384947 0.34647262 -0.04619484
0.16878092 0.7577374 -0.6740922 0.25450742 -0.13842991 0.06006593 -0.22481848 -0.17324762
0.5004711 -0.29991984 -0.1773373 0.032096922 0.9734218 0.1667407 -0.27327794 -0.010034157
0.050060682 0.06945868 0.03394291 -0.04028962 -0.38959396 -0.016668346 0.44448468 -0.123074666
-0.021579783 0.2987338 -0.23044267 0.039206587 -0.19126348 0.42557988 -0.4310386 -0.13683575
0.75929964 -0.12441611 0.047356606 -0.010338982 -0.21781223 -0.018241955 0.2782158 0.54245657
-0.020589152 -0.11896416 -0.10689921 0.86952364 0.079442695 -0.13994183 0.38973948 0.64453477
0.091833904 0.09833363 0.56387764 -0.3685421 0.46622515 0.011602647 -0.058616646 -0.17469335
-0.59713584 -0.026204165 -0.12705788 0.6008162 -0.01004012 0.05034816 0.00834828 -0.00010443727
0.071046665 -0.14506808 0.11361431 -0.09956507 -0.101886965 0.35338047 -0.75534964 -0.22417998
0.061650366 0.035459843 0.058619943 0.059920106 0.2825772 -0.13202804 -0.35586998 -0.7825765
0.4174136 -0.17169194 0.20179954 -0.0054005645 0.10986023 0.17632973 -0.06404541 -0.18370745
0.62977487 -0.37267616 -0.49813208 -0.21471156 -0.19504397 0.4853618 0.07217127 0.02518726
0.1070141 -0.08108085 -0.61360955 -0.17498723 -0.15382826 0.16606092 0.08791323 -0.47092164
-0.1390741 -0.64901185 -0.24861318 0.07598387 -0.3472011 -0.2533237 -0.29356822 0.24240594
-0.24250957 0.009278415 0.24137777 -0.15241565 0.32826346 -0.069137804 0.03488322 -0.18858378
0.3875488 -0.4616171 0.27811638 -0.13870585 -0.06471852 -0.13390306 -0.116445936 0.07523004
0.18320161 -0.012435822 -0.60101116 0.03463401 -0.35418683 -0.5796161 -0.4511322 -0.084161766
-0.09427001 0.6109262 -0.14885786 -0.3129155 -0.107013226 0.2590439 0.19696265 0.12128668
0.23994534 0.5135134 -0.16287047 -0.17131154 0.32240206 -0.3125309 -0.13983284 0.03331492
-0.1613515 -0.056225445 -0.006701726 -0.69944376 -0.036496475 -0.22655463 -0.31435418 -0.32148623
-0.35641935 -0.04243433 0.1531095 -0.19557367 -0.2769682 -0.39839247 -0.2439584 -0.35373953
-0.044475134 0.07022297 -0.51567453 -0.28899163 -0.6141109 0.28184742 0.46672323 -0.20849237
0.111440554 -0.2342215 0.072486125 -0.11561186 0.50165963 0.2602627 -0.07415985 0.15326303
-0.3063023 -0.76537484 -0.23544914 0.2695535 -0.25746766 0.10295992 0.27768752 -0.26417568
0.38052717 0.1657455 0.045987792 -0.44475034 -0.23787633 0.08825137 0.5612968 -0.17870624
-0.0071374765 -0.37224013 -0.06700008 -0.032670658 0.068728514 0.024360318 -0.2649838 -0.19077186
-0.3043403 -0.094213 -0.31718242 -0.104581565 -0.51370734 0.047293242 -0.14140306 -0.5082289
-0.29762036 0.054898612 0.52164173 0.09890342 -0.12944254 -0.012835869 0.6019437 -0.030096725
-0.31616893 -0.17967467 -0.06350403 -0.13319921 -0.28250366 0.050220262 0.6726868 -0.15935658
-0.10265214 -0.21362886 -0.26655895 0.08460072 0.07507553 -0.057921223 -0.2784674 -0.14456072
-0.4236113 -0.10036478 -0.32158342 0.04294977 -0.29078656 -0.24673517 -0.53784513 -0.2768145
00000000: ffb9 1f3f fa09 5cbe 5f4d 2cbe 1b24 bebe
00000010: 6ee0 8fbe eb87 c43e dc64 b13e cd36 3dbd
00000020: e8d4 2c3e 14fb 413f 4e91 2cbf cc4e 823e
00000030: 92c0 0dbe b107 763d d136 66be d367 31be
00000040: e01e 003f 188f 99be e997 35be 1078 033d
00000050: 2c32 793f 13be 2a3e 16eb 8bbe 4e66 24bc
00000060: 6e0c 4d3d 5a40 8e3d b907 0b3d bb06 25bd
00000070: dc78 c7be 0e8c 88bc 7f93 e33e 920e fcbd
00000080: 16c8 b0bc a3f3 983e 2af9 6bbe 1697 203d
00000090: 93da 43be 9be5 d93e 17b1 dcbe ac1e 0cbe
000000a0: 7661 423f e0cd febd 00f9 413d d564 29bc
000000b0: 2b0a 5fbe 2770 95bc 4d72 8e3e 6fde 0a3f
000000c0: 95aa a8bc 7ba3 f3bd f9ed dabd 1a99 5e3f
000000d0: dab2 a23d e94c 0fbe ef8b c73e 3b00 253f
000000e0: 6a13 bc3d 2463 c93d 495a 103f 8db1 bcbe
000000f0: 10b5 ee3e 0719 3e3c 0218 70bd d0e2 32be
00000100: e5dd 18bf 1eaa d6bc 761b 02be 17cf 193f
00000110: 517f 24bc df39 4e3d 39c7 083c 5505 dbb8
00000120: ea80 913d ba8c 14be 9fae e83d c5e8 cbbd
00000130: 1daa d0bd 49ee b43e 985e 41bf 708f 65be
00000140: 1885 7c3d 573e 113d 771b 703d c96e 753d
00000150: f5ad 903e 5c32 07be 9734 b6be ef56 48bf
00000160: 3cb7 d53e 03d0 2fbe 8aa4 4e3e 38f7 b0bb
00000170: 66fe e03d c88f 343e 3d2a 83bd ce1d 3cbe
00000180: ed38 213f 69cf bebe 2b0b ffbe 59dd 5bbe
00000190: 9bb9 47be 5881 f83e 88ce 933d 8355 ce3c
000001a0: 352a db3d b70d a6bd 8415 1dbf da2f 33be
000001b0: 2885 1dbe e00b 2a3e da0b b43d a41c f1be
000001c0: 7169 0ebe a425 26bf 7494 7ebe 6e9d 9b3d
000001d0: 58c4 b1be a5b3 81be 934e 96be 4339 783e
000001e0: 6e54 78be 7e04 183c bc2b 773e d912 1cbe
000001f0: 2612 a83e 1f98 8dbd b5e1 0e3d 1b1c 41be
00000200: cc6c c63e 1459 ecbe 4565 8e3e e808 0ebe
00000210: 258b 84bd e21d 09be 357b eebd 3512 9a3d
00000220: 3499 3b3e 9ebf 4bbc dedb 19bf 64dc 0d3d
00000230: fa57 b5be b961 14bf cdfa e6be 015d acbd
00000240: a310 c1bd a965 1c3f 326e 18be 7636 a0be
00000250: c029 dbbd 67a1 843e 94b0 493e 2765 f83d
00000260: 3bb4 753e 9d75 033f 84c7 26be 4b6c 2fbe
00000270: e211 a53e 0d04 a0be 5730 0fbe 3a75 083d
00000280: 5439 25be a74c 66bd 279a dbbb bf0e 33bf
00000290: 547d 15bd f0fd 67be 08f3 a0be d899 a4be
000002a0: 997c b6be 9fcf 2dbd bdc8 1c3e 7744 48be
000002b0: c7ce 8dbe 19fa cbbe 3bd0 79be 591d b5be
000002c0: 8f2b 36bd 0fd1 8f3d 3f03 04bf b6f6 93be
000002d0: 5f36 1dbf 4e4e 903e 59f6 ee3e 067f 55be
000002e0: f23a e43d c3d7 6fbe 9b73 943d e9c5 ecbd
000002f0: c46c 003f 2741 853e 1fe1 97bd fcf0 1c3e
00000300: a8d3 9cbe 9bef 43bf 9419 71be eb02 8a3e
00000310: cdd2 83be a7dc d23d 0f2d 8e3e 0942 87be
00000320: 75d4 c23e 30b9 293e b25d 3c3d 51b6 e3be
00000330: da95 73be 22bd b43d 26b1 0f3f c5fe 36be
00000340: 7ee1 e9bb 4296 bebe 5737 89bd abd1 05bd
00000350: 89c1 8c3d 4a8f c73c f5ab 87be b359 43be
00000360: 7ed2 9bbe bff2 c0bd bc65 a2be dc2e d6bd
00000370: 5382 03bf 8fb6 413d f7cb 10be 4a1b 02bf
00000380: b261 98be 5edd 603d 508a 053f e08d ca3d
00000390: 968c 04be 894d 52bc fb18 1a3f 688d f6bc
000003a0: e5e0 a1be a3fc 37be 670e 82bd 6065 08be
000003b0: 52a4 90be c3b3 4d3d 3435 2c3f 5f2e 23be
000003c0: 493b d2bd 86c1 5abe 6a7a 88be 2443 ad3d
000003d0: 33c1 993d ce3e 6dbd 4793 8ebe ba07 14be
000003e0: 95e3 d8be 0d8c cdbd 95a6 a4be 19ec 2f3d
000003f0: fae1 94be 25a8 7cbe 38b0 09bf a1ba 8dbe

l1.bias f4 [128]
0.069065705 -0.081389904 -0.36444068 0.15114178 -0.1627436 -0.21783762 -0.055556897 -0.16837215
0.16670117 -0.102349386 -0.10254655 -0.19863325 -0.23192951 -0.059344575 0.22533876 0.05432379
0.0437415 -0.17977145 -0.042207476 -0.057053424 0.06889846 0.089837946 -0.41742513 0.21413222
0.1375424 -0.015472558 0.2731017 0.023019297 0.004878724 0.07917094 -0.18464664 0.11810722
-0.0018111636 -0.17818512 -0.08087606 0.021934712 0.020456152 0.3755025 0.15402181 -0.052656848
0.1257002 -0.9367355 0.45577326 -0.09069159 0.056416377 0.0025577608 -0.04975981 -0.02109633
-0.20058073 0.0059329346 -0.28649965 -0.41257125 -0.24038292 0.010247488 0.10263768 -0.14109538
0.004723205 0.007125279 0.049262907 -0.20854646 0.004216177 -0.22820602 0.12571271 8.585211e-05
-0.107692786 0.14409369 -0.00636438 -0.27715015 0.18287842 0.076335005 0.096370965 -0.18017346
-0.048947476 -0.121923156 -0.08694968 -0.106814705 -0.21550953 -0.1297484 -0.12954523 -0.02823841
-0.26693803 -0.010470189 -0.019676361 0.0081447875 0.007258409 0.101684846 0.09803182 -0.31201923
-0.10168625 -0.12296471 0.3746019 -1.0590724 0.0033316808 -0.2764066 -0.254285 0.008905369
-0.14583632 0.09292711 -0.10777025 0.19557244 -0.14805745 0.26058936 -0.20572378 0.0782115
0.031938564 -0.0050295596 -0.0719121 0.17968108 -0.08862649 0.043947145 1.0365568 -0.15691568
0.19891763 0.030289253 -0.12865835 -0.13007732 -0.099219605 0.057982866 0.2750239 0.034816004
0.09993449 0.23000431 0.037890956 0.3460117 0.23107675 0.014423456 0.02669054 -0.04749543
00000000: 5272 8d3d c0af a6bd f897 babe e9c4 1a3e
00000010: 42a6 26be d310 5fbe a18f 63bd c069 2cbe
00000020: b6b3 2a3e 8e9c d1bd ed03 d2bd 8466 4bbe
00000030: ee7e 6dbe 4c13 73bd 34bf 663e 9f82 5e3d
00000040: 492a 333d 0216 38be bfe1 2cbd dab0 69bd
00000050: a31a 8d3d f5fc b73d bfb8 d5be 7a45 5b3e
00000060: ead7 0c3e 9d80 7dbc fcd3 8b3e f792 bc3c
00000070: b4dd 9f3b 6024 a23d 0214 3dbe 33e2 f13d
00000080: 9164 edba 2976 36be 59a2 a5bd 6db0 b33c
00000090: a993 a73c dd41 c03e e5b7 1d3e b5ae 57bd
000000a0: 8eb7 003e e6cd 6fbf 1d5b e93e 83bc b9bd
000000b0: dc14 673d 1ba0 273b f1d0 4bbd 36d2 acbc
000000c0: 0965 4dbe 1069 c23b 15b0 92be 8a3c d3be
000000d0: f126 76be 14e5 273c b433 d23d 4f7b 10be
000000e0: 1ec5 9a3b 2c7b e93b e7c7 493d 348d 55be
000000f0: db27 8a3b d7ae 69be d5ba 003e 800b b438
00000100: 098e dcbd 4c8d 133e 4a8c d0bb a0e6 8dbe
00000110: 7b44 3b3e 8755 9c3d 245e c53d 647f 38be
00000120: 267d 48bd d9b2 f9bd ac12 b2bd abc1 dabd
00000130: 88ae 5cbe c4dc 04be 81a7 04be 3d54 e7bc
00000140: 1aac 88be 288b 2bbc 5230 a1bc b771 053c
00000150: f3d7 ed3b 2540 d03d e8c4 c83d fcc0 9fbe
00000160: e140 d0bd ecd4 fbbd d2cb bf3e af8f 87bf
00000170: 5458 5a3b 2a85 8dbe a531 82be d3e7 113c
00000180: 1e56 15be 9250 be3d a6b6 dcbd 2444 483e
00000190: 5f9c 17be f86b 853e 41a9 52be 5a2d a03d
000001a0: 03d2 023d 01cf a4bb a746 93bd 51fe 373e
000001b0: ce81 b5bd ec01 343d e5ad 843f 81ae 20be
000001c0: 10b1 4b3e 2b21 f83c 04bf 03be fd32 05be
000001d0: a633 cbbd 717f 6d3d efcf 8c3e 3a9b 0e3d
000001e0: 74aa cc3d 4086 6b3e 8c33 1b3d 7228 b13e
000001f0: 629f 6c3e 5c50 6c3c 1fa6 da3c 918a 42bd

l2.weight f4 [128, 128]
-0.002096551 -0.20486607 0.09304991 0.39857146 -0.036578514 0.20525023 -0.3081655 0.21930647
0.68951005 -0.091383964 0.24693297 -0.19948305 -0.2814666 -0.34526893 0.3500207 0.08279474
0.010134147 -0.22977507 0.04843956 0.0072253183 0.15686405 -0.5789845 0.52033395 -0.17184374
0.56674045 -0.39569047 -0.10992955 0.030858492 0.40246984 -0.17013194 -0.26654205 -0.07821923
-0.13633475 -0.18492173 0.26213288 -0.4947985 0.38850862 0.27504596 -0.051721733 -0.14378539
-0.14674787 -0.08709651 0.4910758 -0.09580228 0.43058476 0.6146898 -0.24394701 -0.06287916
0.20777327 -0.11942096 -0.5192212 0.33270726 0.2508817 0.1957152 0.43100965 -0.06371138
-0.14356166 0.15391664 -0.3408079 -0.16242415 -0.075239204 0.20743187 0.24889739 0.1921481
0.42358607 -0.3719183 -0.0058041373 -0.34650925 -0.119036585 0.32065898 -0.13819467 0.09142769
0.15491472 0.5468284 -0.11166222 -0.3967668 0.02248674 0.74685293 -0.31306753 -0.067802384
-0.628217 -0.033289924 -0.07143299 0.27211243 -0.15014248 -0.039930757 0.083287075 -0.18560292
0.245698 0.13205704 0.22145054 0.9230907 -0.054207526 -0.35951298 0.33567226 0.23528612
-0.09420848 -0.12781012 -0.12251556 0.18286103 0.026923416 -0.28509432 0.612287 -0.008528526
-0.0799654 -0.17200403 0.03609961 -0.15820503 0.04651241 0.011187019 -0.5922264 -0.012839225
-0.07744785 -0.46145928 -0.09115094 -0.11004685 0.1083386 0.069636755 -0.054408662 -0.09237049
-0.1595517 0.015726438 -0.2364145 -0.3129593 0.37691453 0.1830468 -0.28992802 -0.72140175
0.5693937 0.6333348 -0.124715425 0.6902531 -0.5585556 0.14008063 -0.4184629 0.030504655
1.1136371 -0.24211094 0.654573 -0.56178594 0.35219976 -0.817352 1.2543786 1.0159358
-0.060258564 0.69196945 -0.6181647 -0.29654935 -0.35599178 -0.41406962 0.95078486 -0.56735146
0.11332547 -1.5947976 0.47451222 0.4575676 0.54067534 -0.16540775 -0.2797924 0.24476445
-0.29912266 1.0043421 0.63056505 -0.48308247 0.10748278 -0.36712873 0.34563857 0.67939204
0.088099234 -0.037925012 0.5478795 -0.55894554 -1.3593264 -0.6710927 0.23093368 0.2995752
0.3741281 -0.74590504 -0.6176961 -0.92709976 -0.36250165 1.3513893 -0.35811472 -0.57004523
1.0246398 -0.10177257 0.3982479 -0.014999479 0.14522645 -0.051946074 0.295753 0.90810853
0.5646411 -0.72009325 1.4130076 0.5583779 0.37493894 0.6856346 0.67473316 -0.30355594
0.03782555 -0.07509117 0.6891286 0.4346654 1.1749294 0.59283835 0.029465407 0.8523777
0.47717464 -1.0630512 -0.72168624 -0.4594725 0.4147863 -0.30141667 0.3461066 -0.20687118
0.07048243 0.4570026 0.73166466 -0.123449095 -0.5833239 0.8421014 0.12727436 -0.2875612
1.1609192 1.1018265 0.6101383 -0.47163686 -1.0918303 -1.1815779 -0.14299175 -0.8676852
0.46865252 -0.8985682 1.3886863 -1.24593 -0.6189798 0.2901772 -0.05736803 -0.47402653
0.2464698 0.5571688 0.03803688 -0.23038052 -0.18292248 -0.48509774 -0.009325869 -0.5444657
-0.7075987 -0.7501577 -0.089242324 0.23830087 -1.0573258 0.06981798 0.23305783 -0.7041587
00000000: 4a66 09bb 69c8 51be f490 be3d 8f11 cc3e
00000010: 5ad3 15bd 1e2d 523e dec7 9dbe e091 603e
00000020: bb83 303f 8427 bbbd ffdb 7c3e 4945 4cbe
00000030: 641c 90be 17c7 b0be ea35 b33e 4a90 a93d
00000040: b109 263c 284a 6bbe 8f68 463d 5dc2 ec3b
00000050: f8a0 203e 5438 14bf 9b34 053f cef7 2fbe
00000060: e715 113f f197 cabe be22 e1bd f3ca fc3c
00000070: 8710 ce3e 1137 2ebe 3378 88be 6731 a0bd
00000080: 569b 0bbe 1f5c 3dbe 4836 863e 3b56 fdbe
00000090: 9aea c63e d3d2 8c3e 2bda 53bd 7a3c 13be
000000a0: 1345 16be a85f b2bd 4a6e fb3e fc33 c4bd
000000b0: 9b75 dc3e 505c 1d3f 3fcd 79be cac6 80bd
000000c0: 84c2 543e fa92 f4bd aeeb 04bf 9b58 aa3e
000000d0: 9173 803e 9169 483e 4cad dc3e 1d7b 82bd
000000e0: d401 13be 539c 1d3e 607e aebe 8452 26be
000000f0: 0317 9abd 0569 543e f5de 7e3e 79c2 443e
00000100: 46e0 d83e 136c bebe a230 bebb a969 b1be
00000110: 74c9 f3bd 6a2d a43e e782 0dbe 713e bb3d
00000120: f7a1 1e3e f2fc 0b3f 29af e4bd 0525 cbbe
00000130: 1d36 b83c c131 3f3f 634a a0be fadb 8abd
00000140: d4d2 20bf 045b 08bd 764b 92bd 5252 8b3e
00000150: f3be 19be 6f8e 23bd 6a92 aa3d b10e 3ebe
00000160: 4298 7b3e f639 073e eec3 623e ac4f 6c3f
00000170: b608 5ebd 1612 b8be 3cdd ab3e d8ee 703e
00000180: 60f0 c0bd a8e0 02be 70e9 fabd ec3f 3b3e
00000190: 7f8e dc3c e2f7 91be d7be 1c3f 3bbb 0bbc
000001a0: e6c4 a3bd d321 30be 2fdd 133d 8000 22be
000001b0: cc83 3e3d c249 373c 269c 17bf 9d5b 52bc
000001c0: fa9c 9ebd 6444 ecbe 58ad babd 3e60 e1bd
000001d0: a1e0 dd3d b79d 8e3d 9edb 5ebd bd2c bdbd
000001e0: 8561 23be bbd4 803c a516 72be 343c a0be
000001f0: f1fa c03e 9f70 3b3e 7271 94be c9ad 38bf
00000200: c9c3 113f 3b22 223f cd6a ffbd 6db4 303f
00000210: 80fd 0ebf 4c71 0f3e c540 d6be e6e4 f93c
00000220: a98b 8e3f eeeb 77be 1992 273f 34d1 0fbf
00000230: 8753 b43e fb3d 51bf 7a8f a03f 2f0a 823f
00000240: afd1 76bd e924 313f 0b40 1ebf 51d5 97be
00000250: 8e44 b6be ef00 d4be a366 733f f23d 11bf
00000260: 2f17 e83d 5422 ccbf 44f3 f23e 4d46 ea3e
00000270: b369 0a3f a660 29be f340 8fbe 88a3 7a3e
00000280: 9b26 99be 488e 803f b66c 213f 9656 f7be
00000290: ef1f dc3d 4cf8 bbbe 8af7 b03e a3ec 2d3f
000002a0: 5f6d b43d 4257 1bbd d541 0c3f 0e17 0fbf
000002b0: 68fe adbf bbcc 2bbf e179 6c3e ec61 993e
000002c0: b88d bf3e a2f3 3ebf 5521 1ebf 6956 6dbf
000002d0: d199 b9be 53fa ac3f d05a b7be 7cee 11bf
000002e0: 6627 833f 236e d0bd 26e7 cb3e 60c0 75bc
000002f0: 3eb6 143e 68c5 54bd f06c 973e cd79 683f
00000300: 528c 103f 0858 38bf 6fdd b43f dbf1 0e3f
00000310: fff7 bf3e c085 2f3f 50bb 2c3f af6b 9bbe
00000320: f7ee 1a3d 66c9 99bd bb6a 303f 778c de3e
00000330: 1664 963f 41c4 173f 7061 f13c 6d35 5a3f
00000340: 3c50 f43e 1012 88bf 6ec0 38bf fb3f ebbe
00000350: df5e d43e 4953 9abe e234 b13e 0ad6 53be
00000360: 1859 903d 3ffc e93e 604e 3b3f e1d2 fcbd
00000370: b754 15bf f593 573f 3654 023e 393b 93be
00000380: 0099 943f a708 8d3f 0632 1c3f 637a f1be
00000390: 18c1 8bbf f23d 97bf 6e6c 12be 9e20 5ebf
000003a0: 39f3 ef3e 9108 66bf 79c0 b13f a27a 9fbf
000003b0: 7675 1ebf 1b92 943e bdfa 6abd 9bb3 f2be
000003c0: 9462 7c3e 9da2 0e3f 8fcc 1b3d dfe8 6bbe
000003d0: 0850 3bbe bb5e f8be 88cb 18bc 1b62 0bbf
000003e0: 3025 35bf 560a 40bf aec4 b6bd 2505 743e
000003f0: 7456 87bf bbfc 8e3d b6a6 6e3e bf43 34bf

l2.bias f4 [128]
0.60983175 0.062762946 -0.6886293 -0.05916308 0.15137638 0.63980204 0.7428809 0.3078921
0.7795765 -0.6239902 -0.25088915 0.34050485 -0.5334382 -0.59017634 0.6586916 -0.862351
0.58895147 0.072513305 -0.069843896 -0.8605323 -0.77772194 0.66062784 -0.46829677 -0.6130865
0.6647509 -0.5671541 0.55294997 -0.10753188 0.16117832 -0.89313996 -0.68019646 -0.68409413
-0.7721791 -0.58683884 0.26998413 -0.8677753 -0.7583726 -0.30963686 0.7382797 -0.52914613
0.049893256 0.54554915 -0.057324067 0.33309126 0.5653655 -0.7032743 -0.6078223 0.10062286
-0.55826133 -0.4344397 -0.49221498 -0.19983801 -0.21810573 0.36484703 -0.6358212 0.70941705
-0.60459435 0.7064734 -0.6662036 -0.6066592 -0.48393473 0.090750605 -0.37743112 -0.48683426
-0.690971 0.45945665 0.54924524 0.14570044 -0.5353953 0.49597117 0.55205274 -0.59387606
0.27592993 -0.58622533 0.024706515 0.34484458 0.2259896 0.7408601 -0.7171196 0.5006806
0.17103685 0.38856477 0.6664304 0.6872603 0.03754895 -0.1472328 0.32163897 -0.66445446
0.8079108 0.49563977 0.31870338 -0.48308885 0.8210833 -0.6245458 0.69333315 0.70112133
-0.159523 0.5635002 -0.82425034 0.36782834 -0.3605848 -0.40972897 -0.6622665 0.40707242
0.4991768 0.6560978 -0.7922473 0.4807558 -0.49162608 0.7326132 -0.725106 -0.19207692
0.56186646 -0.46158203 0.5529793 -0.3633326 -0.44532412 0.37634194 -0.7816864 -0.21733299
-0.03141182 -0.79621863 -0.5224684 0.6998625 0.5125314 0.11381353 0.70219463 0.08568579
00000000: ef1d 1c3f dc89 803d 034a 30bf fc54 72bd
00000010: 6902 1b3e 11ca 233f 712d 3e3f 09a4 9d3e
00000020: 5392 473f d2bd 1fbf 8b74 80be a756 ae3e
00000030: 688f 08bf cc15 17bf 03a0 283f 09c3 5cbf
00000040: 86c5 163f db81 943d 510a 8fbd d84b 5cbf
00000050: c918 47bf e81e 293f 98c4 efbe 3df3 1cbf
00000060: 1d2d 2a3f 0331 11bf 218e 0d3f ad39 dcbd
00000070: ee0b 253e d2a4 64bf 5b21 2ebf cb20 2fbf
00000080: 88ad 45bf 123b 16bf 5c3b 8a3e 8626 5ebf
00000090: b524 42bf b988 9ebe e6ff 3c3f 1f76 07bf
000000a0: df5c 4c3d 1ca9 0b3f a4cc 6abd f08a aa3e
000000b0: cbbb 103f c909 34bf 3e9a 1bbf 5c13 ce3d
000000c0: 37ea 0ebf e16e debe 9a03 fcbe 56a2 4cbe
000000d0: 1c57 5fbe 3bcd ba3e 2ec5 22bf 5b9c 353f
000000e0: b2c6 1abf 71db 343f 528c 2abf 044e 1bbf
000000f0: 4bc6 f7be 74db b93d a73e c1be 5742 f9be
00000100: 7ae3 30bf e73d eb3e 569b 0c3f 7f32 153e
00000110: ab0f 09bf efef fd3e 5453 0d3f 4308 18bf
00000120: b046 8d3e dd12 16bf 5165 ca3c 788f b03e
00000130: d169 673e 02a9 3d3f 2695 37bf 9b2c 003f
00000140: 4924 2f3e f6f1 c63e 2f9b 2a3f 4bf0 2f3f
00000150: eecc 193d 32c4 16be ddad a43e b019 2abf
00000160: 3ed3 4e3f 7fc4 fd3e 172d a33e 6c57 f7be
00000170: 8432 523f 3ce2 1fbf 487e 313f b07c 333f
00000180: ff59 23be 8d41 103f 1202 53bf ff53 bc3e
00000190: 929e b8be ffc7 d1be 4c8a 29bf cc6b d03e
000001a0: 1a94 ff3e 07f6 273f b8d0 4abf a025 f63e
000001b0: 6ab6 fbbe 8a8c 3b3f 8ca0 39bf d0af 44be
000001c0: 7bd6 0f3f 7b54 ecbe 0d90 0d3f bb06 babe
000001d0: 8601 e4be e4af c03e 9a1c 48bf 8a8c 5ebe
000001e0: aea9 00bd fcd4 4bbf 7dc0 05bf 302a 333f
000001f0: 4235 033f 1117 e93d 07c3 333f 087c af3d

l3.weight f4 [396, 128]
-0.38712665 -0.19574259 0.21253526 -0.6028962 0.39753363 -0.17468123 -0.05040807 -0.008102949
-0.03178936 1.0265931 -0.19803941 0.27989605 0.73112893 0.8638838 -0.87121874 0.2102757
-0.08772289 -0.5446235 -0.15179619 0.021856466 -0.010520373 -0.53433204 -0.12869227 -0.024313098
-0.31426224 0.21629915 -0.5655793 -0.4334055 -0.24360684 0.8604098 0.30835265 0.4099862
1.0704722 0.22088115 -0.545619 0.059381317 1.1613123 -0.19141208 0.10785546 0.9985497
-0.37756363 -0.238928 -0.07436531 0.21936336 -0.92735445 0.17099924 0.13120474 0.23559743
0.33894363 -0.16763188 0.12284607 -0.28612924 -0.21811688 0.005488781 1.2100464 -0.1972083
-0.32269815 -0.074551485 0.22783759 0.49822745 -0.13806528 -0.33827895 -0.10877836 -0.15318286
0.21014968 -0.40946397 0.014375119 -0.387549 0.37515083 0.29807672 -0.5164478 0.14804788
0.36344457 0.13290593 -0.48543262 -0.3946037 0.17415346 0.045063138 0.3435654 0.18847956
0.45514947 0.07723817 -0.2972087 -0.86154044 -0.29063228 0.3591647 0.008084896 -0.13943316
-0.15875089 0.283149 0.2488599 0.8158553 -0.75721955 0.1208924 -0.97633153 0.18693507
-0.14442867 -0.35087287 0.068698786 0.2911752 -0.19241063 0.13597108 -0.06523885 -0.61049414
-0.056739863 -0.6469082 0.41218588 0.3331883 -0.04893399 -0.35162225 -0.08701603 0.4072553
-0.09492002 -0.17647986 -0.08817507 0.52413934 -0.24349125 0.2243673 0.13500519 0.31817827
-0.09298898 0.7742913 0.7685039 -0.18007964 0.27627957 0.18892461 0.011275475 0.4614195
-0.18575992 0.35383198 0.27614447 -0.6892134 -0.15429854 -0.5461261 -0.12647444 -0.6080731
-0.61233515 0.050057694 0.32732138 -0.5960604 -0.31088346 -0.12534453 -1.0557238 0.15780213
-0.18225788 0.3311074 0.45920986 1.0041267 0.06467819 0.010455488 0.77796024 0.825011
-0.82981175 0.29959556 -0.69584763 -0.199183 -0.43172443 0.5176282 0.7422057 0.32992175
0.36739346 0.38415557 -0.3823647 -0.123892434 0.20132586 0.36554253 0.30810106 0.31707498
0.4198727 -0.14324543 -0.47709474 0.29136565 -0.620793 0.18850286 0.16685331 -0.5790968
-0.08210854 -0.4267106 0.24824165 -0.38420522 -0.4318454 0.16971628 0.15231687 -0.2627917
-0.2544007 -0.13050832 0.029466748 0.20675762 -0.06701986 0.047895033 -0.26505622 -0.20856729
0.33458933 -0.46418473 -0.29597712 -0.20529762 0.9340429 -0.6524279 -1.2002693 -0.010195246
0.501403 0.46602243 -0.34452897 0.24537472 0.10482534 0.09240589 0.016098352 -0.67443925
-0.32927763 0.074417055 -0.008240397 -1.0119545 0.2956782 0.31427097 -0.0012592635 0.17968464
-0.8139792 0.117552355 -0.5296258 0.6534934 -0.14073107 0.2962462 -0.051885247 0.04461296
-0.4611373 -0.29130906 0.3794559 0.25428224 -0.17784443 0.08052038 0.22702724 -0.31162578
-0.2250585 -0.04823596 0.17185327 -0.4854931 0.31810752 -0.37726054 0.702585 0.3268408
0.0012606995 0.4652267 -0.33015212 -0.2365258 0.75098455 -0.6418583 0.18806297 -0.3782497
-0.32875115 0.21448287 -0.0055846903 -0.011121522 -0.67049354 0.24956273 -0.37234882 0.0012443123
00000000: 7735 c6be bf70 48be d8a2 593e 6857 1abf
00000010: 8789 cb3e a3df 32be b178 4ebd 3bc2 04bc
00000020: 8f35 02bd 6767 833f d8ca 4abe 894e 8f3e
00000030: 442b 3b3f 7d27 5d3f 3108 5fbf 8352 573e
00000040: 0fa8 b3bd 726c 0bbf 7670 1bbe 550c b33c
00000050: a45d 2cbc fcc9 08bf e8c7 03be 432c c7bc
00000060: fbe6 a0be 867d 5d3e cec9 10bf 53e7 ddbe
00000070: 1274 79be d143 5c3f 66e0 9d3e b6e9 d13e
00000080: 3c05 893f ab2e 623e b0ad 0bbf d339 733d
00000090: e2a5 943f 8701 44be 53e3 dc3d f4a0 7f3f
000000a0: 0550 c1be 8ba9 74be d74c 98bd caa0 603e
000000b0: 1a67 6dbf 6d1a 2f3e 895a 063e 7440 713e
000000c0: 058a ad3e b1a7 2bbe b896 fb3d 887f 92be
000000d0: 085a 5fbe 3bdb b33b cde2 9a3f f9f0 49be
000000e0: b138 a5be 73ae 98bd 424e 693e ab17 ff3e
000000f0: fc60 0dbe e632 adbe 30c7 debd f8db 1cbe
00000100: 7a31 573e 43a5 d1be 9e85 6b3c d36c c6be
00000110: c513 c03e 839d 983e ec35 04bf dd99 173e
00000120: 6815 ba3e 7e18 083e a08a f8be 7f09 cabe
00000130: 4955 323e 2094 383d cee7 af3e c900 413e
00000140: 5a09 e93e 0c2f 9e3d bd2b 98be ea8d 5cbf
00000150: c1cd 94be 70e4 b73e 8376 043c 91c7 0ebe
00000160: 988f 22be e8f8 903e 21d5 7e3e e5db 503f
00000170: 24d9 41bf 6f96 f73d ddf0 79bf e86b 3f3e
00000180: 1ce5 13be 9ca5 b3be f3b1 8c3d ea14 953e
00000190: 4b07 45be 013c 0b3e f29b 85bd 5849 1cbf
000001a0: 0f68 68bd c79b 25bf 070a d33e a897 aa3e
000001b0: 026f 48bd d507 b4be 7635 b2bd c483 d03e
000001c0: 6d65 c2bd 23b7 34be 2295 b4bd ff2d 063f
000001d0: c555 79be 8bc0 653e cd3e 0a3e 43e8 a23e
000001e0: 0271 bebd f437 463f acbc 443f cc66 38be
000001f0: 8474 8d3e 7475 413e c5bc 383c 2d3f ec3e
00000200: d937 3ebe 7729 b53e cf62 8d3e 4a70 30bf
00000210: 7000 1ebe ecce 0bbf 8482 01be aeaa 1bbf
00000220: ffc1 1cbf 4c09 4d3d ab96 a73e 6a97 18bf
00000230: 1e2c 9fbe 515a 00be f521 87bf e296 213e
00000240: cfa1 3abe e986 a93e 8e1d eb3e 3987 803f
00000250: 0076 843d 7f4d 2b3c 6728 473f ec33 533f
00000260: 8b6e 54bf 9764 993e 1223 32bf a1f6 4bbe
00000270: fc0a ddbe 4883 043f 3101 3e3f 81eb a83e
00000280: ff1a bc3e 0ab0 c43e 4ec5 c3be 51bb fdbd
00000290: 5e28 4e3e 6428 bb3e 6cbf 9d3e a757 a23e
000002a0: 8ef9 d63e eeae 12be c345 f4be e12d 953e
000002b0: 4aec 1ebf e506 413e 98db 2a3e b03f 14bf
000002c0: 8628 a8bd d079 dabe 0f33 7e3e 8cb6 c4be
000002d0: d71a ddbe 1bca 2d3e f4f8 1b3e a28c 86be
000002e0: cf40 82be f9a3 05be 4064 f13c 45b8 533e
000002f0: b541 89bd 952d 443d 73b5 87be aa92 55be
00000300: 4b4f ab3e 9fa9 edbe 508a 97be 8a39 52be
00000310: 6f1d 6f3f 8405 27bf 6da2 99bf f609 27bc
00000320: f25b 003f 7e9a ee3e 1a66 b0be 8343 7b3e
00000330: abae d63d 4d3f bd3d b1e0 833c 0da8 2cbf
00000340: 1497 a8be f867 983d bb02 07bc ba87 81bf
00000350: 2263 973e 20e8 a03e df0d a5ba 40ff 373e
00000360: f160 50bf 4abf f03d 8e95 07bf 584b 273f
00000370: ce1b 10be 95ad 973e a085 54bd 14bc 363d
00000380: 301a ecbe 7626 95be 0b48 c23e 4831 823e
00000390: da1c 36be dee7 a43d d479 683e 6a8d 9fbe
000003a0: bc75 66be 1293 45bd 4efa 2f3e 8d92 f8be
000003b0: fdde a23e 4b28 c1be 9cdc 333f ad57 a73e
000003c0: 0e3e a53a 3232 ee3e b309 a9be d233 72be
000003d0: 8640 403f d350 24bf 9493 403e f2a9 c1be
000003e0: 1252 a8be 66a1 5b3e c7ff b6bb 0b37 36bc
000003f0: 77a5 2bbf 5f8d 7f3e 81a4 bebe 3118 a33a

l3.bias f4 [396]
-3.083827 -2.5863557 -2.5393581 -2.5644903 -2.4558456 -2.851759 -2.9653394 -2.5738494
-2.683315 -2.7159572 -2.5626876 -2.6958034 -1.132727 -2.7013798 -2.6908615 -2.720529
-2.7504363 -2.9648495 -2.7994251 -2.5493944 -2.4541988 -2.6867647 -2.6225286 -2.6681554
-2.3347702 -2.7085147 -2.6585937 -2.8610795 -2.7629244 -1.309451 -2.8078582 -2.6624818
-2.6987026 -2.379728 -2.888666 -2.8768878 -2.4891071 -2.6099932 -2.5372539 -2.4578125
-2.4904525 -2.8566206 -2.7916882 -2.6101644 -2.7786295 -2.6914916 -2.942504 -2.4842315
-2.6316178 -2.5637114 -2.6656027 -2.4198627 -2.9448864 -2.581137 -2.455996 -2.4357727
-2.6138196 -2.6869643 -2.5981636 -2.6162305 -2.8376205 -2.3975017 -2.2813113 -2.456654
-2.4256036 -2.5652783 -2.738371 -2.507703 -2.6786973 -2.706124 -2.7332325 -2.5076253
-2.6016817 -2.5404582 -2.5109859 -2.715426 -2.6573298 -2.3782966 -2.5689273 -2.6992743
-2.8344185 -2.6497753 -2.664191 -2.701998 -2.8303826 -2.606092 -2.6902363 -2.676328
-2.337906 -2.8549669 -2.9566443 -2.53596 -2.701333 -2.6855872 -2.6100988 -2.6696985
-2.8484154 -2.5833519 -2.6164174 -2.6349018 -2.175932 -2.6109638 -2.6260858 -2.5514534
-2.7711356 -2.9364567 -2.8561246 -2.513405 -2.567143 -2.6250696 -1.4727263 -2.7197986
-2.4472382 -1.326597 -2.7804368 -2.5880823 -2.8064885 -3.0239553 -2.5958297 -2.4454536
-2.4751735 -2.6415355 -2.6605208 -2.7359378 -2.6668704 -2.5901186 -2.558641 -2.470476
-2.5073946 -2.8084984 -2.761413 -2.8819416 -2.6790612 -2.9047356 -2.6061215 -2.460885
-2.6093838 -2.521246 -2.6481755 -2.664563 -2.6585338 -2.6246502 -2.8048856 -2.6866598
-2.6970818 -2.470866 -2.7408724 -2.696602 -2.5345845 -2.72138 -2.5596585 -2.5492113
-2.7704806 -2.7053592 -2.9534626 -2.5069659 -2.667039 -2.6268516 -2.499132 -2.5804436
-2.7152965 -2.8415532 -2.5792186 -2.736233 -2.7810142 -2.6427646 -2.7592108 -2.3575494
-2.7067018 -2.6257627 -2.5891356 -2.5278592 -2.5864594 -2.6904109 -2.5110776 -2.4861367
-2.58606 -2.6619728 -2.654551 -2.6212962 -2.6698506 -2.815315 -1.4086037 -2.9178264
-2.6267476 -2.5645177 -2.6938596 -2.7451184 -2.9372172 -2.5593429 -2.6951442 -2.4271865
-2.5973938 -2.509026 -2.7149813 -2.615586 -2.5821419 -2.4618163 -2.2534776 -2.8593833
-2.5779212 -2.8750112 -2.4796827 -2.4876792 -2.5518882 -2.7508817 -2.420121 -2.6151655
-1.290684 -2.676694 -2.5871694 -3.0246534 -2.5502706 -2.5311515 -2.6704981 -2.687278
-2.7036428 -2.6090639 -2.5744183 -2.5898857 -2.7620132 -2.608634 -2.3964064 -2.5969877
-2.8509388 -2.6133287 -2.7028272 -2.6485121 -2.4709654 -2.6765072 -2.7120247 -3.0709116
-2.6141818 -2.6269534 -2.8365226 -2.6133885 -2.4708757 -2.6472523 -2.6565208 -2.456618
-2.7229657 -2.6525166 -2.762862 -2.6910698 -2.5768955 -2.5084715 -2.4926693 -2.5974133
-2.533912 -2.5955145 -2.504184 -2.6647053 -2.7365708 -2.5703573 -2.6416523 -2.7465808
00000000: 6c5d 45c0 da86 25c0 d884 22c0 9c20 24c0
00000010: 932c 1dc0 3883 36c0 1fc8 3dc0 f3b9 24c0
00000020: 6fbb 2bc0 3ed2 2dc0 1303 24c0 0b88 2cc0
00000030: 33fd 90bf 68e3 2cc0 1337 2cc0 261d 2ec0
00000040: 2607 30c0 18c0 3dc0 c829 33c0 4729 23c0
00000050: 9811 1dc0 f4f3 2bc0 82d7 27c0 0fc3 2ac0
00000060: e06c 15c0 4e58 2dc0 6626 2ac0 ed1b 37c0
00000070: c1d3 30c0 179c a7bf f3b3 33c0 1a66 2ac0
00000080: 8bb7 2cc0 774d 18c0 e7df 38c0 ee1e 38c0
00000090: 884d 1fc0 210a 27c0 5e62 22c0 cd4c 1dc0
000000a0: 9363 1fc0 dfd2 36c0 05ab 32c0 ef0c 27c0
000000b0: 11d5 31c0 6641 2cc0 fc51 3cc0 a6fd 1ec0
000000c0: 6d6c 28c0 d913 24c0 3c99 2ac0 08df 1ac0
000000d0: 0579 3cc0 5931 25c0 0a2f 1dc0 b3e3 1bc0
000000e0: d248 27c0 39f7 2bc0 5048 26c0 5270 27c0
000000f0: 939b 35c0 ab70 19c0 0101 12c0 d239 1dc0
00000100: 173d 1bc0 852d 24c0 7841 2fc0 357e 20c0
00000110: c76f 2bc0 2331 2dc0 48ed 2ec0 ef7c 20c0
00000120: f481 26c0 de96 22c0 feb3 20c0 8ac9 2dc0
00000130: b111 2ac0 0336 18c0 4e69 24c0 e9c0 2cc0
00000140: 1d67 35c0 eb95 29c0 1b82 2ac0 89ed 2cc0
00000150: fd24 35c0 36ca 26c0 d52c 2cc0 f548 2bc0
00000160: 40a0 15c0 c7b7 36c0 a939 3dc0 2b4d 22c0
00000170: a4e2 2cc0 a9e0 2bc0 dc0b 27c0 57dc 2ac0
00000180: 704c 36c0 a355 25c0 6273 27c0 3ba2 28c0
00000190: 7842 0bc0 081a 27c0 ca11 28c0 034b 23c0
000001a0: 495a 31c0 e8ee 3bc0 bfca 36c0 a1db 20c0
000001b0: 124c 24c0 2401 28c0 4c82 bcbf 2e11 2ec0
000001c0: 8d9f 1cc0 eecd a9bf adf2 31c0 24a3 25c0
000001d0: 829d 33c0 7c88 41c0 1322 26c0 5082 1cc0
000001e0: 3e69 1ec0 eb0e 29c0 f945 2ac0 9b19 2fc0
000001f0: 01ae 2ac0 81c4 25c0 c6c0 23c0 471c 1ec0
00000200: 2779 20c0 70be 33c0 feba 30c0 bb71 38c0
00000210: bd75 2bc0 30e7 39c0 b2ca 26c0 247f 1dc0
00000220: 2500 27c0 185c 21c0 b57b 29c0 3388 2ac0
00000230: 6b25 2ac0 45fa 27c0 3f83 33c0 3cf2 2bc0
00000240: fd9c 2cc0 ab22 1ec0 746a 2fc0 2195 2cc0
00000250: a236 22c0 172b 2ec0 72d1 23c0 4726 23c0
00000260: 8e4f 31c0 9b24 2dc0 8805 3dc0 2172 20c0
00000270: c4b0 2ac0 561e 28c0 c7f1 1fc0 fd25 25c0
00000280: 6bc7 2dc0 02dc 35c0 eb11 25c0 711e 2fc0
00000290: 23fc 31c0 0e23 29c0 e996 30c0 17e2 16c0
000002a0: 9a3a 2dc0 7f0c 28c0 66b4 25c0 72c8 21c0
000002b0: 8d88 25c0 b12f 2cc0 7fb5 20c0 dd1c 1fc0
000002c0: 0282 25c0 c35d 2ac0 2ae4 29c0 51c3 27c0
000002d0: d5de 2ac0 1f2e 34c0 204d b4bf abbd 3ac0
000002e0: a21c 28c0 0f21 24c0 3268 2cc0 05b0 2fc0
000002f0: 5efb 3bc0 46cc 23c0 3e7d 2cc0 0657 1bc0
00000300: b33b 26c0 e293 20c0 41c2 2dc0 c365 27c0
00000310: d041 25c0 668e 1dc0 fa38 10c0 2300 37c0
00000320: a9fc 24c0 2f00 38c0 1fb3 1ec0 2336 1fc0
00000330: 2352 23c0 720e 30c0 43e3 1ac0 df5e 27c0
00000340: 2235 a5bf f44e 2bc0 2f94 25c0 ec93 41c0
00000350: a237 23c0 63fe 21c0 71e9 2ac0 5dfc 2bc0
00000360: 7c08 2dc0 e7fa 26c0 45c3 24c0 b0c0 25c0
00000370: d3c4 30c0 dcf3 26c0 b95e 19c0 0c35 26c0
00000380: c875 36c0 c740 27c0 1ffb 2cc0 3981 29c0
00000390: 4c24 1ec0 e54b 2bc0 d091 2dc0 d189 44c0
000003a0: c14e 27c0 0120 28c0 9689 35c0 c241 27c0
000003b0: d422 1ec0 956c 29c0 7004 2ac0 3b39 1dc0
000003c0: 1245 2ec0 d5c2 29c0 bbd2 30c0 7d3a 2cc0
000003d0: dbeb 24c0 cc8a 20c0 e587 1fc0 053c 26c0
000003e0: 9d2b 22c0 e91c 26c0 8d44 20c0 888a 2ac0
000003f0: fa23 2fc0 bc80 24c0 d510 29c0 fbc7 2fc0
