Bot/data.pth (torch, 359903 bytes, 6 tensors)

l1.weight f4 [256, 77]
0	0xbe2bd234	-0.16779405
1	0xbdb8c597	-0.09022062
2	0xbe4f4391	-0.20240618
3	0xbcbb2c07	-0.022848142
4	0xbbe11deb	-0.0068700216
5	0x3bd904b4	0.006622875
6	0x3df51be4	0.1196821
7	0x3e488691	0.19582583
8	0xbd3e79e5	-0.046502966
9	0xbc831a2f	-0.016003696
10	0x3ddd57b8	0.10807747
11	0x3dfc064b	0.12305888
12	0xbe069c91	-0.13145663
13	0xbe7afb09	-0.24509825
14	0xbeb48150	-0.35254908
15	0xbe1c9c95	-0.15294106
16	0xbdddeee1	-0.10836578
17	0xbe32b61a	-0.17452279
18	0x3cb95fc4	0.022628672
19	0xbd6312f6	-0.055438004
20	0x3e1408b9	0.14456452
21	0x3e123644	0.14278513
22	0xbd0f1ffa	-0.034942605
23	0xbe255672	-0.16146258
24	0xbe7ef1ca	-0.24896923
25	0xbe1b3097	-0.15155254
26	0x3dafb851	0.085800774
27	0x3e946362	0.28982073
28	0xbe6b58da	-0.22983113
29	0x3e9c2455	0.3049647
30	0xbebfd553	-0.3746744
31	0xbeb06a76	-0.34456223
32	0x3d7b0de0	0.06129253
33	0xbd08357e	-0.03325414
34	0xbe11564f	-0.1419308
35	0x3e51f433	0.20503311
36	0xbec54b79	-0.38534144
37	0xbdef5140	-0.11685419
38	0xbe662c62	-0.22477868
39	0xbe8ef715	-0.27922884
40	0xbd62bd0b	-0.055356067
41	0xbe9d16c6	-0.30681437
42	0x3e847b65	0.25875393
43	0x3d017aa2	0.031611092
44	0xbde8f721	-0.11375261
45	0xbe1f6e65	-0.15569456
46	0xbde18fe0	-0.1101377
47	0x3dc5d392	0.096594945
48	0xbd9c3ea7	-0.076291375
49	0x3e6f2e4b	0.23357503
50	0x3e69c41f	0.2282872
51	0x3e8bfd4d	0.2734169
52	0x3e6e02dd	0.2324328
53	0x3d42b6dd	0.047537673
54	0x3e230343	0.15919213
55	0xbd604886	-0.054756664
56	0x3e17170c	0.14754885
57	0x3cbb008a	0.022827405
58	0x3d8732ee	0.06601511
59	0x3d56c8df	0.05243766
60	0x3a70ba8d	0.00091830717
61	0x3e3a986e	0.1822221
62	0x3dcd3a58	0.10020894
63	0x3e45e875	0.19326957
64	0x3e5ef97d	0.2177486
65	0xbd2e299d	-0.042520154
66	0xbda02b17	-0.07820719
67	0xbcf1781c	-0.029476218
68	0x3df21b61	0.11821628
69	0xbe21fc30	-0.15818858
70	0xbe1ede4f	-0.15514491
71	0x3d99dd2a	0.07512887
72	0x3bdb0528	0.0066839643
73	0xbd9048a5	-0.07045106
74	0xbca9d9cb	-0.020733735
75	0x3e428de2	0.18999436
76	0xbc5aec4c	-0.013362002
77	0x3dcbbed2	0.099485055
78	0xbea0e7f4	-0.31426966
79	0xbd8a732d	-0.06760249
80	0x3d710b4e	0.05884867
81	0xbe1f8fea	-0.15582243
82	0x3d474074	0.04864545
83	0x3c3d328f	0.011547699
84	0xbcb212bc	-0.021737449
85	0xbdbb8c9f	-0.09157681
86	0xbd11f22e	-0.03563135
87	0x3d701636	0.058614932
88	0x3e6f175c	0.23348755
89	0xbc2a650b	-0.010400067
90	0x3e11ebed	0.14250155
91	0x3d27eeb1	0.04099912
92	0x3d975845	0.07389883
93	0xbcbdb9d4	-0.023159899
94	0x3da7fb89	0.082022734
95	0x3e46dfbc	0.19421285
96	0x3e44cec5	0.19219501
97	0x3d061995	0.03273924
98	0x3e23805c	0.15966934
99	0x3e2821c2	0.16419128
100	0xbea34ea0	-0.31895924
101	0xbe79a038	-0.24377525
102	0xbdd03328	-0.10166007
103	0x3e102752	0.140775
104	0x3c8881a2	0.016663376
105	0xbe9127d5	-0.28350702
106	0x3d6efbff	0.05834579
107	0xbdd1211d	-0.10211394
108	0xbe594f9b	-0.21221773
109	0x3c655e3b	0.013999517
110	0xbd60259d	-0.05472337
111	0xbe604f0b	-0.21905152
112	0xbc89b4a8	-0.016809776
113	0xbd8c0ba6	-0.06838159
114	0xbe7ecc9f	-0.24882744
115	0xbe31d8fc	-0.17367929
116	0xbe9d17ce	-0.30682224
117	0xbd693287	-0.056932952
118	0x3e1c1a38	0.15244377
119	0x3e2e48dd	0.17019983
120	0x3b72413f	0.003696516
121	0xbdd9a0a7	-0.10626345
122	0xbda1ad2c	-0.07894358
123	0x3e7a9543	0.24471001
124	0x3c54110d	0.012943518
125	0x3e0a58db	0.13510458
126	0x3d951a60	0.07280421
127	0x3e6f6b6a	0.23380819
128	0x3d0a93fc	0.033832535
129	0x3df90d7c	0.12160775
130	0x3d92a5ab	0.07160505
131	0x3e7d4409	0.24732985
132	0x3e49e4a2	0.19716123
133	0x3cb58a44	0.022160657
134	0x3d87649b	0.06610986
135	0xbdc17930	-0.09446943
136	0xbd50d57b	-0.05098484
137	0xbd50cc89	-0.05097631
138	0x3d8ae53a	0.06782003
139	0x3dace573	0.084422015
140	0x3da23843	0.07920887
141	0x3de16ea8	0.11007434
142	0x3e4cfc69	0.20018162
143	0x3dea2940	0.11433649
144	0xbdd6e26d	-0.10492406
145	0x3c716fbf	0.014736115
146	0x3ea3a556	0.3196208
147	0xbddaba5b	-0.10680076
148	0xbe176e7d	-0.14788242
149	0x3dd8e397	0.10590284
150	0x3e23c1db	0.15991919
151	0x3c7dcc55	0.015490611
152	0xbd0f7715	-0.035025675
153	0x3d58d18e	0.052934222
154	0xbd5308b2	-0.051521964
155	0x3d83c87b	0.06434723
156	0xbd0c08d1	-0.034188095
157	0xbdaf0691	-0.08546174
158	0x3de39ee9	0.11114294
159	0xbe6b6814	-0.22988921
160	0xbd47534d	-0.048663426
161	0x3e3370c3	0.17523484
162	0xbc0a529a	-0.008442545
163	0x3e10dd51	0.14146926
164	0xbcd8bf34	-0.02645836
165	0xbe8f5973	-0.27997932
166	0x3daf836d	0.08569989
167	0xbd900830	-0.07032812
168	0xbe2e24f4	-0.17006284
169	0xbdb5d63a	-0.08878751
170	0xbd27a998	-0.04093322
171	0xbd1c6e93	-0.03819139
172	0x3e471e5f	0.1944518
173	0x3e497f8a	0.19677559
174	0xbe238cee	-0.15971729
175	0xbdd685a4	-0.10474709
176	0xbe27acad	-0.16374464
177	0x3c435782	0.011922719
178	0x3e25ca4c	0.16190451
179	0x3e06e9e7	0.13175164
180	0x3d89a118	0.06720179
181	0xbdb0bb53	-0.08629479
182	0x3e66bd91	0.22533251
183	0xbd6a27a1	-0.0571667
184	0xbd27a2ac	-0.04092662
185	0x3df76782	0.120802894
186	0x3aebbb08	0.0017984817
187	0xbde91756	-0.11381404
188	0xbddf5003	-0.10903933
189	0x3d255c6f	0.040371355
190	0x3da0646f	0.07831656
191	0xbc226e78	-0.009914033
192	0x3daccb31	0.08437193
193	0xbd79ed5e	-0.061017387
194	0xbd293501	-0.041310314
195	0xbdb2d84e	-0.08732663
196	0x3ce8ae4f	0.02840343
197	0xbd23fcc2	-0.04003597
198	0xbe0a3782	-0.13497737
199	0xbd81b03a	-0.06332441
200	0xbe3e8997	-0.18607174
201	0x3dd81e3b	0.10552641
202	0xbd5cff44	-0.053954378
203	0xbe7dd5dc	-0.24788612
204	0xbe98b5e6	-0.29826277
205	0xbd45ef83	-0.04832412
206	0x3da6d9be	0.08147
207	0xbe05300a	-0.13006607
208	0xbeba824b	-0.3642753
209	0xbdef1d72	-0.11675538
210	0x3ca5584d	0.020183707
211	0xbd35c79b	-0.04437981
212	0x3e17d01b	0.1482548
213	0xbe6d9ca0	-0.23204279
214	0xbd241ab9	-0.040064547
215	0x3de734ea	0.112893894
216	0xbcbbc66a	-0.02292176
217	0x3d203256	0.039110504
218	0x3b594813	0.0033154532
219	0x3e01524c	0.1262905
220	0xbe84d765	-0.25945583
221	0x3df843b4	0.12122288
222	0x3b80882d	0.0039224834
223	0xbe9159af	-0.28388736
224	0x3d03f375	0.0322146
225	0xbd672aab	-0.056437176
226	0x3b43b643	0.0029863275
227	0x3ddcc295	0.10779301
228	0xbd23cdcf	-0.039991196
229	0xbe0aa385	-0.1353894
230	0xbd458988	-0.048226863
231	0x3c854c30	0.01627168
232	0x3eb6c0b3	0.35693893
233	0x3d7ff31d	0.06248771
234	0x3d12d2c8	0.035845548
235	0xbd4fcac5	-0.050730485
236	0xbdd02a8e	-0.10164367
237	0xbc666c52	-0.0140639115
238	0xbde4d8d1	-0.11174167
239	0x3cc27d1a	0.023741294
240	0xbdb8f6c9	-0.090314455
241	0xbc2667e0	-0.010156602
242	0x3e5b7888	0.21432698
243	0x3df9e5aa	0.12202008
244	0x3e663b0d	0.22483464
245	0x3e4bdaa0	0.19907618
246	0x3e9c9f9e	0.30590528
247	0x3e353c6d	0.17698832
248	0x3dc15021	0.094391115
249	0xbe0d3ca0	-0.13792658
250	0xbe374858	-0.1789869
251	0x3def33fc	0.11679837
252	0x3e64e09a	0.22351304
253	0x3dc85d69	0.097834416
254	0x3e708840	0.23489475
255	0x3c04583d	0.008077678

l1.bias f4 [256]
0	0x3c356d4c	0.011073422
1	0x3cb55383	0.022134548
2	0xbd1425c5	-0.036168832
3	0xbce47d20	-0.027891695
4	0x3ca118ca	0.01966514
5	0xbe051e1d	-0.12999769
6	0xbda72f00	-0.081632614
7	0xbd9e966f	-0.07743537
8	0xbd9cba41	-0.076527126
9	0xbd83d8ba	-0.06437822
10	0xbd255006	-0.04035952
11	0x3d11549a	0.035481073
12	0x3e162bfe	0.14665219
13	0xbd84076b	-0.06446727
14	0xbe76b3d7	-0.24092041
15	0xbe148501	-0.14503862
16	0xbcec1f11	-0.028823407
17	0xbd8a72dc	-0.06760189
18	0xbcc26801	-0.023731234
19	0xbd7a47ff	-0.061103817
20	0x3d0e5555	0.034749348
21	0xbde265dd	-0.11054585
22	0x3d865f59	0.06561155
23	0x3d71db3d	0.059046973
24	0x3cbc5529	0.022989826
25	0xbe0bc640	-0.13649845
26	0x3dba1f2d	0.090879776
27	0xbd8df096	-0.06930654
28	0xbc0e1354	-0.0086716
29	0x3db6919a	0.0891449
30	0xbd0c79a5	-0.034295697
31	0x3db62524	0.08893803
32	0x3d635c2a	0.055507816
33	0x3df085b2	0.1174425
34	0x3da9f2b7	0.08298247
35	0xbdeaa49c	-0.11457178
36	0xbe1520ab	-0.14563243
37	0x3c2c3a35	0.0105119245
38	0xbc0de871	-0.008661375
39	0xbde58a58	-0.112080276
40	0x3dba2a05	0.09090046
41	0x3d5f5e71	0.054533426
42	0xbe29dfea	-0.16589323
43	0x3d31ca24	0.043405667
44	0xbd5a6b39	-0.05332491
45	0x3c46a135	0.012123396
46	0xbdee822b	-0.11645921
47	0x3c7a9c5a	0.015296066
48	0x3d006836	0.031349383
49	0x3df15818	0.11784381
50	0x3c9c952a	0.019114096
51	0xbd905a0b	-0.07048424
52	0x3c282ff2	0.010265337
53	0x3d3d294e	0.04618197
54	0xbd71f623	-0.059072625
55	0x3e059efc	0.13048929
56	0xbcfe0317	-0.031007333
57	0xbd771d02	-0.0603304
58	0xbdb41ffc	-0.08795163
59	0xbb934151	-0.0044938703
60	0x3c471acd	0.012152386
61	0xbc89023f	-0.016724704
62	0x3c0e5d2a	0.008689204
63	0xbc3073ad	-0.010769767
64	0xbb552ddf	-0.0032528562
65	0x3da52083	0.08062842
66	0x3e0c4257	0.13697182
67	0xbd252cca	-0.040325917
68	0xbdd920a2	-0.10601927
69	0x3dd6961a	0.10477848
70	0xbde3cdd6	-0.111232445
71	0x3de96f16	0.11398141
72	0x3ca31660	0.01990813
73	0x3df51b8a	0.11968143
74	0x3d9fe667	0.07807618
75	0x3cdde6ea	0.027087647
76	0x3d0488b4	0.032356933
77	0xbd5cd182	-0.05391074
78	0x3da5442f	0.080696456
79	0xbd97544a	-0.07389124
80	0x3e00e1c1	0.12586118
81	0xbcc5e7d8	-0.024158403
82	0x3e1bd67c	0.15218538
83	0x3e0b52a6	0.13605747
84	0xbcb84caf	-0.022497503
85	0x3db6061c	0.08887884
86	0xbd00d743	-0.03145529
87	0x3db4e811	0.08833326
88	0xbde1a151	-0.11017097
89	0xbe45d2da	-0.19318715
90	0x3e1c7d3c	0.15282148
91	0x3ddd0464	0.10791853
92	0xbcf249ff	-0.0295763
93	0xbb28f714	-0.0025782036
94	0xbda84ffc	-0.08218381
95	0x3d21a494	0.039463595
96	0x3d476ea8	0.048689514
97	0xbdecd9be	-0.115649685
98	0x3d38ca92	0.04511506
99	0x3d052b69	0.032512102
100	0x3c8e66f2	0.017383073
101	0x3da904d8	0.08252877
102	0x3dd19f52	0.10235466
103	0x3df2c2b4	0.11853543
104	0x3e1fc408	0.15602124
105	0x3cece030	0.028915495
106	0xbc864766	-0.016391467
107	0x3dae55b6	0.08512442
108	0x3e2842aa	0.1643168
109	0x3c93939f	0.018014727
110	0xbcfb2321	-0.0306564
111	0x3d446e8e	0.047956996
112	0xbd6f9b5c	-0.05849777
113	0xbe029bb9	-0.12754716
114	0x3de1afcd	0.110198595
115	0xbd9135cb	-0.07090338
116	0x3d04c724	0.032416478
117	0x3dcf2d8b	0.101161085
118	0xbd2a02e7	-0.041506674
119	0xbd206bac	-0.039165184
120	0x3d33b830	0.043876827
121	0xbcb160df	-0.021652637
122	0xbdf837e1	-0.12120033
123	0x3e2d2908	0.16910183
124	0x3da22d18	0.07918757
125	0x3da4667b	0.08027359
126	0xbc242b48	-0.010020085
127	0x3e03f75c	0.12887329
128	0xbd141afe	-0.036158554
129	0xbc06122e	-0.008183045
130	0xbc096957	-0.008386931
131	0xbdbe6520	-0.09296632
132	0x3d79a329	0.060946617
133	0xbda7a5d1	-0.08185924
134	0xbe1699e5	-0.14707144
135	0xbdb2e2d5	-0.08734671
136	0x3e221ab8	0.15830505
137	0x3b4846f7	0.0030559876
138	0xbaae5a6e	-0.0013302097
139	0x3dfa5668	0.12223512
140	0x3db1d48a	0.08683117
141	0x3c8c6f82	0.017143015
142	0xbd3f1e15	-0.046659548
143	0x3d6f724b	0.058458608
144	0xbd466017	-0.048431482
145	0x3d23da4c	0.040003106
146	0xbc58183e	-0.013189374
147	0xbb913f09	-0.004432563
148	0xbdb4ca1b	-0.08827611
149	0x3c9072a1	0.017632784
150	0x3e4ab693	0.19796209
151	0xbd8731a5	-0.06601266
152	0xbd5165a1	-0.05112231
153	0x3b9210bb	0.004457561
154	0xbc600cca	-0.013674924
155	0x3d499f93	0.049224447
156	0xbe115548	-0.14192688
157	0x3e048b2b	0.12943713
158	0xbd8d0a03	-0.06886675
159	0xbdea6042	-0.11444141
160	0xbddd9e47	-0.10821205
161	0x3c9910e5	0.018684814
162	0x3d8cfd29	0.06884224
163	0xbd64ae53	-0.05583031
164	0xbde15fc9	-0.11004598
165	0xbd9c605e	-0.07635568
166	0xbe36650d	-0.17811985
167	0xbd161422	-0.036640294
168	0x3cd9faa0	0.026608765
169	0xbc93fd9f	-0.018065272
170	0xbdf00832	-0.11720313
171	0x3d1b4962	0.03791178
172	0x3dd80740	0.10548258
173	0x3da53aad	0.08067832
174	0x3d6191b2	0.055070587
175	0x3c5af1ee	0.013363345
176	0x3d693f5a	0.056945182
177	0xbd9d235c	-0.0767276
178	0xbe186ffb	-0.14886467
179	0x3c9a9bb9	0.018873082
180	0xbce22ec0	-0.027610183
181	0xbdce1b05	-0.10063747
182	0x3db4b94d	0.08824406
183	0xbcd3b910	-0.02584508
184	0xbdeaa003	-0.11456301
185	0x3dca2cb9	0.098718114
186	0x3e0b460e	0.13600942
187	0xbe44bc0f	-0.19212364
188	0x3e02e2e2	0.12781861
189	0x3da147ac	0.078749985
190	0x3e04d289	0.12970938
191	0xbe27d8dc	-0.16391319
192	0xbe1d532b	-0.15363757
193	0x3e4d1ac3	0.2002974
194	0xbdcd565a	-0.10026236
195	0x3c1cde4e	0.009574486
196	0xbdfbebdc	-0.12300846
197	0x3d85f33f	0.06540536
198	0x3e038970	0.12845397
199	0x3e3b194e	0.18271372
200	0x3c0792e2	0.008274766
201	0xbdaefc4f	-0.08544218
202	0xbcbcca48	-0.023045674
203	0x3c242284	0.010017995
204	0x3e306212	0.17224911
205	0x3d3e8b37	0.046519484
206	0x3ba95189	0.0051671905
207	0xbd72186a	-0.059105314
208	0xbc4ae611	-0.012383954
209	0xbe201f8c	-0.15637034
210	0x3d746a83	0.05967189
211	0xbe1017f6	-0.1407164
212	0xbd205bc2	-0.039150007
213	0xbd37c56d	-0.044866014
214	0x3d8cc679	0.06873793
215	0x3dbc232a	0.091863945
216	0xbd4d8c7d	-0.05018281
217	0x3ccfda10	0.025372535
218	0x3d806c25	0.06270627
219	0xbda9d4c6	-0.082925364
220	0x3d9db14f	0.076998346
221	0xbdf967d1	-0.121780045
222	0xbe062b62	-0.13102487
223	0x3d2a78c6	0.041619085
224	0xbc06f726	-0.008237636
225	0xbde1d0a7	-0.110261254
226	0x3d1e46ec	0.038641855
227	0x3da0c2d2	0.07849659
228	0x3ccbba92	0.024869237
229	0xbdb441ed	-0.08801637
230	0x3e1609a0	0.14652109
231	0x3db0e75b	0.086378776
232	0x3ce429ce	0.027851965
233	0x3d829cdc	0.06377575
234	0x3d3cb332	0.04606933
235	0xbb770fec	-0.00376987
236	0x3cb34b6e	0.021886554
237	0xbd469a0e	-0.04848676
238	0x3df1d978	0.11809057
239	0xbdde9783	-0.10868742
240	0x3e0233fc	0.12715143
241	0x3b70d782	0.0036749546
242	0xbd685d71	-0.056729738
243	0xbdb78a5f	-0.08961939
244	0xbd9ab7f2	-0.07554616
245	0x3dca06d9	0.09864587
246	0x3e04ee31	0.12981488
247	0x3da49bf1	0.08037556
248	0x3b97682b	0.004620572
249	0x3dcc81e2	0.09985711
250	0xbe4443b4	-0.19166452
251	0xbdc918b7	-0.09819167
252	0x3e0ec891	0.13943698
253	0x3ccd11e9	0.025032954
254	0xbdeef74f	-0.11668264
255	0x3dcbe93b	0.099565946

l2.weight f4 [256, 256]
0	0x3d0712e2	0.032976992
1	0x3d9e9b82	0.077445045
2	0x3d859560	0.06522632
3	0xbd0e266e	-0.03470462
4	0xbddebf4a	-0.10876329
5	0x3e3128a0	0.17300653
6	0xbd7c8189	-0.06164697
7	0x3e4168da	0.18887654
8	0x3d3b4aba	0.04572556
9	0xbd7c34d1	-0.061573807
10	0x3d8fbd0e	0.07018481
11	0x3d78f66c	0.06078188
12	0xbe67b40e	-0.22627279
13	0x3c664a3a	0.014055783
14	0x3e293665	0.16524656
15	0xbc2cc8b1	-0.010545895
16	0x3d9618b7	0.07328933
17	0x3da1e186	0.07904343
18	0x3d04c17f	0.032411095
19	0x3e02bf4b	0.12768285
20	0xbeb7defc	-0.3591231
21	0x3db98d55	0.0906016
22	0xbe5c1b9e	-0.2149491
23	0xbdf541ad	-0.11975417
24	0xbdf7dca8	-0.12102634
25	0x3e38d72d	0.18050833
26	0xbe20322e	-0.15644142
27	0x3de4e93b	0.11177298
28	0xbbd56fd0	-0.006513573
29	0xbd1c3b73	-0.038142633
30	0x3df8f6c8	0.12156445
31	0xbe10ff09	-0.14159788
32	0xbd3ed2d2	-0.046587773
33	0xbe097665	-0.1342407
34	0xbe4ecd1a	-0.20195428
35	0x3e165f09	0.1468469
36	0x3e06f2b0	0.13178515
37	0x3cc97183	0.02459026
38	0x3d8b6fb0	0.06808412
39	0x3de1a45c	0.11017677
40	0xbdd5d8c7	-0.104417376
41	0x3c866d4b	0.016409537
42	0x3dd60c47	0.104515605
43	0xbe2cf031	-0.16888501
44	0x3d9fa0d3	0.07794347
45	0xbcff91dd	-0.031197483
46	0x3e6c4f18	0.23077047
47	0x3d41d06b	0.047317903
48	0xbe7aa402	-0.24476627
49	0x3ce78b71	0.028264733
50	0xbbb7b53d	-0.005606322
51	0x3d825c80	0.06365299
52	0xbe66ec6e	-0.22551128
53	0xbdc591a6	-0.09646921
54	0x3df7ac0c	0.12093362
55	0xbcd7d77c	-0.026347868
56	0xbe121414	-0.14265472
57	0xbd3a363a	-0.04546187
58	0x3e00d816	0.1258243
59	0x3d3b4307	0.04571822
60	0x3d1f0167	0.038819697
61	0xbd0aa7da	-0.033851482
62	0xbd5c15d6	-0.053731762
63	0x3dbf61fd	0.09344862
64	0xbc6ca4a5	-0.014443551
65	0xbe03b461	-0.12861778
66	0xbaf54e2d	-0.0018715315
67	0x3e194bad	0.14970274
68	0x3d34eced	0.044171263
69	0xbe045bbb	-0.12925617
70	0x3cb3c5bb	0.021944871
71	0xbe7c53ea	-0.24641386
72	0x3dd198ad	0.10234199
73	0xbe487fc3	-0.19579987
74	0xbd76d499	-0.060261343
75	0xbda3c4d1	-0.07996524
76	0xbd234594	-0.039861277
77	0xbd101907	-0.035180118
78	0xbdaefaca	-0.08543928
79	0x3dd089f1	0.1018256
80	0xbdfe47fc	-0.12416074
81	0xbd2a92e0	-0.041643977
82	0xbe9d8bb4	-0.30770648
83	0xbe8da5c8	-0.27665544
84	0xbd7b96a3	-0.061422955
85	0x3bb3e60f	0.0054900716
86	0xbd8a1898	-0.06742972
87	0x3a8ceb35	0.001075125
88	0x3cfa7f25	0.030578205
89	0x3c894298	0.016755387
90	0xbdb89f58	-0.090147674
91	0x3c0e1799	0.008672618
92	0x3b46eee9	0.0030354804
93	0x3ad8b4aa	0.0016533334
94	0x3dd0bbb8	0.101920545
95	0xbd8f9cc1	-0.0701232
96	0xbda74332	-0.08167113
97	0x3e0a1b40	0.13486958
98	0xbd30e1de	-0.043184154
99	0x3ce70ae8	0.028203443
100	0xbde951bc	-0.11392543
101	0x3cb5ee05	0.022208223
102	0x3cb0cc61	0.02158183
103	0x3db7274c	0.08943042
104	0x3ba32aef	0.0049794833
105	0xbca1db84	-0.019757994
106	0xbe07f007	-0.13275157
107	0xbc4475e4	-0.011990998
108	0xbdee3886	-0.11631875
109	0xbc9ba858	-0.019001171
110	0x3e075929	0.13217606
111	0xbdda9013	-0.10672011
112	0xbca0f1d1	-0.019646557
113	0x3dc0325f	0.093846075
114	0xbe468259	-0.19385661
115	0x3e35608e	0.17712614
116	0xbd9a8e72	-0.075467005
117	0xbe2762aa	-0.16346231
118	0xbd93baea	-0.072133854
119	0x3e4c3293	0.19941168
120	0x3e6007a6	0.21877918
121	0x3d02635c	0.031833038
122	0x3df349f3	0.11879339
123	0xbe88e648	-0.2673819
124	0xbe5ff67e	-0.21871373
125	0xbe06dbaf	-0.1316974
126	0xbdc1feda	-0.09472437
127	0xbcf852ad	-0.03031286
128	0x3daa1a06	0.08305745
129	0xbd1bf560	-0.038075805
130	0xbdab21b6	-0.08356039
131	0x3dae229e	0.085026965
132	0xbe520a18	-0.20511663
133	0x3e78e112	0.24304608
134	0xbd948ca4	-0.072533876
135	0xbb3ebaa6	-0.002910295
136	0xbd707188	-0.05870202
137	0x3ba7d5ef	0.0051219384
138	0x3ea0e10c	0.31421697
139	0xbe31ddaa	-0.17369714
140	0xbd83e302	-0.06439783
141	0x3e04284b	0.12905996
142	0x3d159679	0.036520455
143	0x3d0c1892	0.03420312
144	0x3a9bdc8f	0.0011891293
145	0x3da9e606	0.082958266
146	0x3dfe1057	0.1240546
147	0xbda4f66c	-0.08054814
148	0x3b71a848	0.0036873985
149	0x3a7baf2d	0.00096009934
150	0xbe69c1bb	-0.22827809
151	0xbdd9cc2d	-0.106346466
152	0x3dcb3b4e	0.09923421
153	0xbe8ef2e5	-0.2791969
154	0xbd9851e4	-0.074374944
155	0xbd84a69a	-0.06477089
156	0x3e0e552d	0.1389968
157	0x3d6024d8	0.054722637
158	0xbd3b7f73	-0.045775842
159	0xbe30c6f5	-0.17263396
160	0x3e386b0d	0.18009587
161	0x3dce0e3b	0.10061308
162	0xbc565f4b	-0.013084243
163	0xbd1116c4	-0.0354221
164	0x3dac59a8	0.08415538
165	0xbc350ace	-0.011049939
166	0x3e0d31ae	0.13788483
167	0x3d9bd39f	0.07608723
168	0xbcccd8a6	-0.02500565
169	0xbb94f64e	-0.0045459634
170	0x3ddbad92	0.10726465
171	0xbddb1680	-0.10697651
172	0x3bfa9e6d	0.0076482804
173	0x3e141fdc	0.14465278
174	0xbd3daac7	-0.046305444
175	0xbd59d7d0	-0.05318433
176	0xbc6e0917	-0.014528534
177	0x3d371dd8	0.044706196
178	0x3cc2ceb1	0.023780199
179	0x3e4caf47	0.19988738
180	0xbcd199c9	-0.025586026
181	0x3e07377a	0.13204756
182	0xbd83190d	-0.064012624
183	0x3d981f37	0.07427829
184	0x3e20ea96	0.15714487
185	0xbd7cf22f	-0.0617544
186	0x3d8138a7	0.06309634
187	0x3e5fb855	0.21847661
188	0x3d6036e4	0.054739848
189	0x3dff2ab9	0.124593206
190	0xbd307e79	-0.043089364
191	0x3e1eb5a3	0.15498976
192	0x3d3404cd	0.04394989
193	0xbda19d94	-0.07891384
194	0x3e6de9c6	0.23233709
195	0x3d81dde5	0.06341151
196	0x3e2430d7	0.16034256
197	0xbe4e44b2	-0.20143393
198	0xbdaf6b90	-0.08565438
199	0xbdc447cb	-0.09584006
200	0x3dec4b7b	0.11537834
201	0x3e546a84	0.20743757
202	0x3d50e973	0.051003885
203	0xbdcecfb8	-0.10098213
204	0xbcea2b05	-0.028584966
205	0xbe264b3f	-0.16239642
206	0x3cd756e1	0.026286544
207	0x3d3a43de	0.04547488
208	0xbd0d2c11	-0.034465853
209	0x3d953a98	0.072865665
210	0x3d7e1286	0.062029384
211	0xbe1f8654	-0.15578586
212	0xbd03b046	-0.03215053
213	0xbdbb024a	-0.09131296
214	0x3ca4c026	0.020111155
215	0xbe1c0517	-0.15236317
216	0xbd427636	-0.047476016
217	0x3e11ec02	0.14250186
218	0x3da55bac	0.08074126
219	0x3d772b0d	0.06034379
220	0xbdddec03	-0.10836031
221	0x3dc29c5d	0.0950248
222	0x3e3f79ee	0.18698856
223	0xbd155dc7	-0.036466386
224	0x3db7f0b4	0.08981457
225	0x3c77aae2	0.015116425
226	0xbe96b32e	-0.29433578
227	0x3c1e13da	0.009648288
228	0x3d3dfda2	0.04638446
229	0x3d9a6b07	0.07539945
230	0xbd577c1c	-0.052608594
231	0xbcbb90e6	-0.022896241
232	0xbd79f558	-0.061024994
233	0xbbe655bb	-0.007029263
234	0xbda49635	-0.08036462
235	0xbd1f0177	-0.038819756
236	0x3e4241f3	0.1897047
237	0x3e1e35c4	0.15450197
238	0xbdc3fa60	-0.095692396
239	0x3c944970	0.018101424
240	0xbc586aef	-0.013209089
241	0x3bdd5715	0.0067547658
242	0x3d542688	0.05179456
243	0x3e3aba44	0.18235117
244	0x3e46d16d	0.19415827
245	0xbd1bc3be	-0.03802847
246	0xbe0d472a	-0.13796678
247	0xbe5f77d9	-0.21823062
248	0xbe095076	-0.134096
249	0xbe1d2635	-0.15346606
250	0x3db5f2c4	0.088841945
251	0x3cd77f7b	0.026305905
252	0x3c898e9d	0.016791636
253	0xbcafdb86	-0.021466982
254	0x3dd76ad7	0.10518425
255	0xbe29dd1d	-0.16588254

l2.bias f4 [256]
0	0xbde20c31	-0.110374816
1	0xbdadbf68	-0.084837735
2	0x3ceaf371	0.028680535
3	0x3e1f2f29	0.15545334
4	0xbe181d3d	-0.14854904
5	0xbd04dd13	-0.032437395
6	0x3e1080be	0.14111611
7	0x3d78beba	0.060728766
8	0x3e27b94a	0.16379276
9	0x3e34b0b1	0.17645527
10	0x3c135353	0.008992034
11	0xbc028227	-0.007965601
12	0xbdb8b623	-0.09019115
13	0xbcd8bbce	-0.02645674
14	0xbd149bc4	-0.036281362
15	0x3db71e19	0.089412875
16	0x3c1426f4	0.00904249
17	0xbd83f601	-0.06443406
18	0x3e6de780	0.23232841
19	0xbdb798b5	-0.089646734
20	0xbe1f9c75	-0.15587027
21	0xbe08b849	-0.13351549
22	0xbd01c4fd	-0.031682003
23	0x3df898be	0.12138508
24	0xbdc967f9	-0.09834284
25	0xbd85aa90	-0.06526673
26	0xbe0f328d	-0.13984127
27	0x3d2fd2b9	0.04292557
28	0xbe88159c	-0.26578987
29	0x3db90bba	0.0903544
30	0x3d5d93c4	0.054096
31	0x3dfdb690	0.12388337
32	0xbc9fe15c	-0.01951664
33	0x3dbbdb42	0.091726795
34	0xbe004588	-0.12526524
35	0x3e35a69a	0.17739335
36	0x3d9f600e	0.07781993
37	0x3e45d59c	0.19319767
38	0xbd2a2ada	-0.041544773
39	0xbe248629	-0.16066803
40	0xbdad5e67	-0.084652714
41	0x3d756590	0.05991131
42	0xbd11bf34	-0.035582736
43	0xbdd355ff	-0.10319137
44	0xbd49cdff	-0.04926872
45	0x3e039537	0.1284989
46	0x3d394865	0.045235056
47	0xbc04b2f8	-0.00809931
48	0xbd754391	-0.05987889
49	0xbdfc3d6f	-0.12316405
50	0xbd171031	-0.036880676
51	0xbc654fca	-0.013996074
52	0xbd834e36	-0.06411402
53	0x3de77ad7	0.11302727
54	0xbdf4df46	-0.119566485
55	0x3cffb995	0.031216422
56	0xbdc2b32e	-0.09506832
57	0x3d9fd96c	0.07805142
58	0xbd81a4e8	-0.063302815
59	0xbd960e87	-0.073269896
60	0x3e476963	0.19473796
61	0xbd6f4a62	-0.058420546
62	0xbd7d6b7b	-0.06187008
63	0x3e31e56e	0.17372677
64	0x3c9d7fe8	0.01922603
65	0x3dd06b65	0.10176734
66	0xbdbed5e7	-0.093181424
67	0x3d84956d	0.06473813
68	0xbd736cd1	-0.059429947
69	0xbdaf6775	-0.08564655
70	0x3e84855e	0.25883
71	0x3d20bc79	0.03924224
72	0xbdaf57fa	-0.08561702
73	0xbdca466a	-0.09876712
74	0xbd544362	-0.051822074
75	0xbccfc722	-0.025363509
76	0x3db6da70	0.089283824
77	0xbe3cd114	-0.18439132
78	0x3b873ccf	0.004127122
79	0xbd5ea035	-0.054352004
80	0xbde75b86	-0.112967536
81	0x3e840a83	0.2578927
82	0x3c8b2711	0.016986402
83	0xbe4e7587	-0.2016202
84	0xbc48675d	-0.012231675
85	0x3dbdacdf	0.09261488
86	0x3ce30cb0	0.02771601
87	0x3c48b7cc	0.012250852
88	0x3d29e918	0.04148206
89	0xbda3c33e	-0.07996224
90	0xbd26979f	-0.04067194
91	0x3d822a23	0.06355693
92	0x3e04997a	0.12949172
93	0x3dcb40a4	0.099244386
94	0xbdc4d4dc	-0.09610912
95	0x3cace784	0.021106489
96	0xbd2a172b	-0.041526
97	0x3cda28af	0.026630728
98	0xbe41427f	-0.18873022
99	0xbdb80c9c	-0.0898678
100	0x3e4fe64d	0.20302697
101	0x3cf92c72	0.030416701
102	0x3d86f7ff	0.0659027
103	0x3dc3fca6	0.09569673
104	0xbd01f6c0	-0.03172946
105	0x3e7c711f	0.24652527
106	0xbdcf636b	-0.10126384
107	0xbd7aae70	-0.061201513
108	0xbd429506	-0.0475054
109	0x3cdd4400	0.027009964
110	0xbe72f530	-0.23726344
111	0xbda8b603	-0.08237841
112	0xbdf5ff16	-0.120115444
113	0x3d899c30	0.067192435
114	0x3e6106ae	0.21975204
115	0xbe412204	-0.18860632
116	0x3cb7c5a7	0.022433115
117	0x3df00858	0.117203414
118	0x3da2dfaa	0.07952817
119	0xbd9f5084	-0.07779029
120	0xbdef443f	-0.11682939
121	0x3e299421	0.16560413
122	0x3aae0b23	0.0013278465
123	0x3e6fa3ab	0.23402278
124	0xbd7fa842	-0.062416323
125	0xbe4ee07c	-0.20202821
126	0x3dd2c676	0.1029176
127	0x3d65afd6	0.056075893
128	0xbe00ea3d	-0.12589355
129	0x3dbdc7d8	0.09266633
130	0x3e504699	0.20339431
131	0xbd5dfe5e	-0.05419766
132	0xbdb45f92	-0.08807291
133	0x3d423ebd	0.047423113
134	0xbe29d022	-0.16583303
135	0x3d2f50ec	0.042801782
136	0x3dcefbb4	0.10106602
137	0x3e031688	0.12801564
138	0x3d957638	0.07297939
139	0xbe34ef08	-0.17669308
140	0xbc57334c	-0.013134789
141	0xbe34379b	-0.17599337
142	0xbd7ec2b3	-0.0621974
143	0xbd8460ce	-0.064637765
144	0xbdb4e1f4	-0.0883216
145	0xbd41470e	-0.047186904
146	0xbcdc9db8	-0.026930675
147	0xbc954b6b	-0.018224439
148	0xbb7d9946	-0.0038696094
149	0x3dc77907	0.09739881
150	0x3e723336	0.23652348
151	0x3e37d455	0.17952092
152	0xbe41b8e6	-0.1891819
153	0xbd18b019	-0.037277315
154	0x3c78f3b4	0.015194822
155	0xbd80b38c	-0.06284246
156	0x3c60d6dc	0.0137231015
157	0x3dc0334f	0.09384786
158	0xbdc84fe2	-0.097808614
159	0x3d624a73	0.05524678
160	0x3dd79b5e	0.10527681
161	0xbda7d469	-0.08194811
162	0x3e841306	0.25795764
163	0x3d238744	0.03992392
164	0xbb5c8e05	-0.0033653986
165	0x3e2e4561	0.17018653
166	0x3dac0a7f	0.084004395
167	0xbde83a6f	-0.1133927
168	0xbe642acb	-0.22281949
169	0x3d5d9b59	0.05410323
170	0xbc17bb89	-0.00926102
171	0x3cb5693e	0.02214491
172	0x3d969198	0.073519886
173	0x3dd8cfff	0.10586547
174	0x3d4c0423	0.049808633
175	0x3d9b8695	0.07594029
176	0x3d3f7f67	0.04675236
177	0x3dbca891	0.09211839
178	0xbc2e21af	-0.010628148
179	0x3c35972b	0.0110834045
180	0xbd9f0684	-0.07764915
181	0x3deafcbb	0.11473986
182	0xbdd42b59	-0.103598304
183	0xbc8189cd	-0.015812779
184	0xbce2ea67	-0.027699662
185	0xbdd7e740	-0.10542154
186	0xbd1bdb46	-0.038050912
187	0x3df89ff8	0.121398866
188	0xbe605c94	-0.21910316
189	0xbd1a3578	-0.037648648
190	0x3e1b2aa9	0.15152992
191	0xbd973f12	-0.073850766
192	0x3c04c7e1	0.0081042955
193	0x3d009caf	0.031399425
194	0xbd527afe	-0.051386826
195	0x3cc7a936	0.024372678
196	0xbe23a849	-0.15982164
197	0x3e190ed4	0.14947063
198	0x3d4fa536	0.050694667
199	0xbd0cd470	-0.034382284
200	0x3c0f63c2	0.008751811
201	0x3cc02ce8	0.023458913
202	0xbd811164	-0.06302145
203	0xbdd03dd7	-0.10168045
204	0x3dce02d8	0.10059136
205	0x3baac8b6	0.005211915
206	0xbe540274	-0.20704061
207	0xbda95de0	-0.08269858
208	0x3d7a84ae	0.06116169
209	0x3d8cfe32	0.068844214
210	0x3ced77d2	0.028987799
211	0xbda3790b	-0.079820715
212	0xbe5bbed8	-0.2145952
213	0xbdd88337	-0.10571902
214	0xbc9164ac	-0.0177482
215	0x3d0bb427	0.034107354
216	0x3e326b42	0.17423728
217	0xbc9b5696	-0.018962186
218	0x3bf1b73a	0.0073765786
219	0xbdaddfa0	-0.08489919
220	0x3d0f2eac	0.03495662
221	0xbd05a91b	-0.032631975
222	0x3e07cf40	0.13262653
223	0x3ca6089a	0.020267773
224	0x3dc14784	0.09437469
225	0xbe2c2225	-0.168099
226	0xbc965b14	-0.018353976
227	0xbc5653ab	-0.013081471
228	0x3d6b6f55	0.05747922
229	0x3e149fec	0.1451413
230	0xbd42fd5e	-0.04760491
231	0xbd15bae9	-0.036555205
232	0xbceeaded	-0.029135669
233	0xbe339b08	-0.17539608
234	0xbdb22893	-0.08699145
235	0xbdd1de33	-0.10247459
236	0xbde72d5a	-0.11287947
237	0xbc1ad8e9	-0.0094511295
238	0x3d321f7e	0.043487065
239	0x3b2a4237	0.0025979409
240	0x3e71045f	0.23536824
241	0x3e180ece	0.14849398
242	0x3e37b2ef	0.17939351
243	0x3cac223a	0.021012414
244	0x3d8d59a1	0.06901861
245	0xbe3d484a	-0.18484607
246	0xbd5d8135	-0.0540783
247	0x3d93eb24	0.07222584
248	0x3dace1dd	0.084415175
249	0xbe24a92b	-0.16080157
250	0x3e74e196	0.23914179
251	0x3e0ffb42	0.14060691
252	0xbd8bcebb	-0.0682654
253	0x3e7cf02f	0.24700998
254	0xbe206e1e	-0.15667006
255	0x3d982651	0.07429183

l3.weight f4 [13, 256]
0	0xbd556476	-0.05209776
1	0xbeae0827	-0.33990595
2	0xbe84f396	-0.2596709
3	0xbd9356e4	-0.071943074
4	0x3f1723d4	0.59039044
5	0x3eb28286	0.34865206
6	0xbe07d6af	-0.13265489
7	0xbe34b566	-0.17647323
8	0xbee72c2a	-0.45150882
9	0xbe1f60f4	-0.15564328
10	0xbe293251	-0.165231
11	0x3e30afa2	0.17254499
12	0xbd93c786	-0.072157905
13	0xbea8ceb5	-0.32970205
14	0xbe408388	-0.18800175
15	0xbe494f1e	-0.19659087
16	0xbf05928c	-0.5217674
17	0x3d8d3371	0.06894577
18	0xbea56fb0	-0.32311773
19	0x3c57480e	0.013139738
20	0x3f184b94	0.59490323
21	0xbce0d25f	-0.027444063
22	0xbe186461	-0.14882042
23	0xbed80769	-0.42193154
24	0x3e9a7314	0.30165923
25	0x3e9d4554	0.30716956
26	0x3e5a19fd	0.21298976
27	0x3d2ef327	0.042712357
28	0x3eb3af4c	0.35094678
29	0xbd793713	-0.06084354
30	0xbcc8c2a2	-0.02450687
31	0xbd83ecfa	-0.06441684
32	0x3db6b6d8	0.089215934
33	0xbdadc5ea	-0.08485015
34	0xbc5754c2	-0.013142766
35	0x3b384bfc	0.0028121462
36	0xbe07567f	-0.1321659
37	0xbd8e87b9	-0.06959481
38	0x3ebdbe15	0.37059084
39	0x3e2f5560	0.17122412
40	0xbdc99194	-0.0984222
41	0xbd2fc1e7	-0.04290953
42	0xbe058b10	-0.1304133
43	0x3e0d9eaa	0.13830057
44	0x3eb8345d	0.3597745
45	0x3d3b64ea	0.045750536
46	0x3e99fcaa	0.3007558
47	0xbe620a64	-0.22074276
48	0xbe100d79	-0.1406764
49	0x3ec06d9d	0.37583628
50	0xbe505733	-0.20345764
51	0xbcd4a412	-0.025957141
52	0xbe085707	-0.13314448
53	0xbece7695	-0.40324846
54	0xbe4344d5	-0.19069226
55	0x3e185884	0.14877516
56	0x3f16fc31	0.58978564
57	0xbee37c80	-0.44430923
58	0x3ebfc6f0	0.37456465
59	0x3e1351f5	0.14386733
60	0xbeb36e31	-0.35045007
61	0x3d81b08e	0.06332503
62	0xbc29db20	-0.010367185
63	0xbda8b060	-0.08236766
64	0x3e7b9d74	0.24571782
65	0xbf24ae26	-0.6432823
66	0xbd5bbefb	-0.05364893
67	0xbee69371	-0.45034364
68	0xbe45d0ca	-0.19317928
69	0x3e3f4782	0.18679622
70	0xbe320b0b	-0.17387025
71	0x3eab5c90	0.33469057
72	0x3f05a84d	0.5220993
73	0x3f0a1092	0.53931534
74	0x3eb35ddf	0.35032555
75	0x3d8fec30	0.07027471
76	0xbf4b8757	-0.7950339
77	0xbb3877e6	-0.0028147637
78	0x3e0a2844	0.13491923
79	0x3dcb3375	0.09921924
80	0x3e122f35	0.1427582
81	0xbec0aa57	-0.3762996
82	0xbe471d57	-0.19444786
83	0x3e85ecd4	0.26157248
84	0xbdfeb57f	-0.124369614
85	0x3b92c216	0.0044787033
86	0xbdda756b	-0.10666927
87	0x3de10513	0.10987296
88	0x3dd2ff01	0.103025444
89	0xbeeaa8ae	-0.45831817
90	0x3ee9d996	0.45673817
91	0x3e01be20	0.12670183
92	0xbe213562	-0.1574302
93	0x3de34497	0.11097067
94	0x3e8bbe43	0.27293596
95	0x3dacb405	0.084327735
96	0x3caeaacf	0.021321682
97	0x3ea19713	0.31560573
98	0x3ea505aa	0.32230884
99	0xbd9c9af9	-0.07646746
100	0xbe68e1f1	-0.2274244
101	0x3eef3071	0.46716645
102	0xbf1fd0f8	-0.62428236
103	0xbf0be5c5	-0.54647475
104	0x3e643e4d	0.22289391
105	0xbe240937	-0.1601914
106	0x3db6aa06	0.08919148
107	0x3ecd57e2	0.40106112
108	0xbe404725	-0.1877714
109	0xbf2c0dd2	-0.6720859
110	0x3df81b01	0.121145256
111	0x3d720529	0.059086952
112	0xbd25d47d	-0.040485848
113	0x3e24d221	0.16095783
114	0xbe406723	-0.18789344
115	0x3e3472c7	0.17621909
116	0x3d23695a	0.039895393
117	0xbd492dea	-0.049116053
118	0x3dd09db3	0.10186329
119	0xbdb6c2cc	-0.08923873
120	0x3b3d39f8	0.0028873663
121	0xbe4294c2	-0.19002059
122	0x3e35ec43	0.17765908
123	0xbdb3560c	-0.087566465
124	0x3e1fb140	0.1559496
125	0x3ebcd20b	0.36879
126	0xbe37e9ca	-0.17960277
127	0xbf15950d	-0.5843056
128	0x3e0cd740	0.13753986
129	0xbd1b6ba2	-0.037944444
130	0xbe40f8ce	-0.18844911
131	0x3edb4c27	0.42831537
132	0x3e9ce094	0.3064009
133	0x3e16030b	0.14649598
134	0x3e6870a0	0.22699213
135	0xbe706c99	-0.23478927
136	0x3d6e44bb	0.058171015
137	0xbc60e45f	-0.013726323
138	0x3e130057	0.14355598
139	0x3ecc0697	0.39848778
140	0xbe16c4d1	-0.14723517
141	0x3e04e861	0.1297927
142	0xbc63b785	-0.013898735
143	0x3e09cb36	0.13456425
144	0xbd0e3d66	-0.034726523
145	0x3ec871eb	0.39149413
146	0xbd9ae4be	-0.0756316
147	0xbdf56839	-0.119827695
148	0xbddaa0b8	-0.10675186
149	0xbe4cd969	-0.2000481
150	0xbd8de114	-0.06927696
151	0xbc2a81e2	-0.010406943
152	0x3e60e94a	0.21963993
153	0xbdc86667	-0.09785157
154	0xbeb53b72	-0.35396916
155	0x3daf1d9f	0.08550572
156	0x3e4304eb	0.19044845
157	0xbf6e8e2c	-0.9318569
158	0x3eef2e2a	0.46714908
159	0xbeac57ad	-0.3366064
160	0x3e5fc508	0.21852505
161	0xbe8063a1	-0.2507601
162	0xbe93e937	-0.28888866
163	0xbecb8702	-0.3975144
164	0x3e666c09	0.2250215
165	0xbdc14753	-0.09437432
166	0xbeee312b	-0.46521887
167	0x3e2a2394	0.16615134
168	0x3dedc98e	0.11610709
169	0x3da1770b	0.07884034
170	0x3ec9a773	0.39385566
171	0xbf0e0959	-0.55483013
172	0x3e8075ea	0.2508996
173	0x3bef7a4e	0.007308281
174	0xbe42f561	-0.19038917
175	0xbe32a91c	-0.17447323
176	0xbedd45d1	-0.43217328
177	0x3ebcf3c2	0.36904722
178	0x3ee62a29	0.4495404
179	0x3dece658	0.11567372
180	0x3e0f775c	0.14010376
181	0xbd002f10	-0.031294882
182	0x3eca927a	0.39564878
183	0x3eb6a19a	0.35670167
184	0x3ec2036a	0.3789323
185	0x3db56458	0.0885703
186	0xbea6166d	-0.32438985
187	0xbe6a191f	-0.22861145
188	0x3e468565	0.19386823
189	0x3e3c4634	0.18386155
190	0xbe7d38ed	-0.24728747
191	0x3e8058ac	0.2506765
192	0x3cea8f65	0.028632829
193	0x3e85f2ee	0.26161903
194	0xbd8eec5a	-0.06978674
195	0x3daec828	0.085342705
196	0x3d681b94	0.056666926
197	0xbd4673f9	-0.048450444
198	0xbcbef635	-0.02331076
199	0xbe352c02	-0.17692569
200	0xbeca7a35	-0.39546362
201	0xbe8b09b9	-0.27155855
202	0x3e8df1b7	0.27723476
203	0x3f19e5f2	0.60116494
204	0x3cb21526	0.0217386
205	0xbe5d0e9a	-0.21587601
206	0x3e02415c	0.12720245
207	0x3e004eb3	0.12530021
208	0xbd9dcfa3	-0.07705619
209	0xbd4edff8	-0.050506562
210	0xbe4d5241	-0.20050909
211	0x3ea61887	0.32440588
212	0x3e5a323e	0.21308228
213	0xbd89a3eb	-0.06720718
214	0xbddc2c8a	-0.10750683
215	0xbe928849	-0.28619602
216	0xbe086861	-0.13321067
217	0xbe8ebf49	-0.27880314
218	0x3e80ae7c	0.2513312
219	0x3d743335	0.059619147
220	0x3f241366	0.640921
221	0xbd03a4fa	-0.032139756
222	0xbd1032f6	-0.03520485
223	0x3f001f80	0.50048065
224	0xbebfb95e	-0.3744611
225	0x3f0086f7	0.5020594
226	0x3bd2a720	0.0064286143
227	0x3e9e2242	0.30885512
228	0xbe8d6d8a	-0.27622634
229	0xbcd15657	-0.025553865
230	0xbe5314f5	-0.20613463
231	0x3e935b15	0.28780428
232	0x3ebe14c0	0.37125206
233	0x3e0d5afc	0.13804239
234	0x3e6c80f0	0.23096061
235	0x3cf0ecff	0.029409884
236	0x3e9d5649	0.30729893
237	0xbe4ae944	-0.19815546
238	0x3e732577	0.2374476
239	0x3d4b4a7e	0.04963159
240	0xbdf80163	-0.121096395
241	0xbefe55a2	-0.49674708
242	0xbe8f8c94	-0.2803694
243	0xbd88c7b0	-0.06678712
244	0x3da9730a	0.08273895
245	0xbc8b87a4	-0.017032452
246	0x3eda5ff4	0.4265133
247	0x3db81bd6	0.08989684
248	0xbd1342c6	-0.035952352
249	0x3e89a2d2	0.26882035
250	0xbe4f2f0f	-0.20232795
251	0xbe240931	-0.16019131
252	0x3e61f116	0.22064623
253	0xbe2108b8	-0.15725982
254	0x3e7f4e62	0.24932244
255	0xbeef660e	-0.4675755

l3.bias f4 [13]
0	0xbe90fa69	-0.28316048
1	0xbe811909	-0.25214413
2	0xbec0884c	-0.37603986
3	0xbe8003b6	-0.2500283
4	0xbec11fac	-0.37719476
5	0xbea29ff6	-0.31762666
6	0xbe940eab	-0.2891744
7	0xbecd632a	-0.4011472
8	0xbeb1df9a	-0.34740907
9	0xbea903e5	-0.33010784
10	0xbedf741a	-0.43643266
11	0xbeb9502e	-0.36193985
12	0xbea061b5	-0.31324545
