Bot/data_time_keyword.pth (torch, 80543 bytes, 6 tensors)

l1.weight f4 [128, 17]
-0.2561227 1.7019829 1.2110654 -0.4983011 -1.6781135 -1.4205649 -1.2588955 0.57682
0.78959614 -0.525261 -1.1081578 -0.7132433 -2.1299474 1.8488744 -1.8627149 0.10850629
-0.5559493 -0.07662714 -0.3784392 -0.2398016 0.1658412 1.8742453 -1.932093 -1.8718112
-0.45376977 -1.0627146 0.41688138 0.97481394 0.049234226 -1.7229335 -0.36162382 1.7481455
-0.7764129 0.6644427 -0.61883485 0.8907703 0.6286833 -0.99333215 0.9160329 -1.4013467
-1.5421845 -1.1676072 0.64314634 0.5954748 0.5929978 -1.5995841 -1.8513539 1.135766
1.566461 -1.4012945 -1.6378357 0.40934032 -0.47996357 -0.08557227 0.4806188 1.8201421
-1.7511572 -1.4543107 -0.8915765 -0.6455029 0.91378736 1.1078851 0.5355897 -1.8201592
-0.142829 1.8599083 -1.065875 0.6110676 -0.73792845 0.78339446 -0.007823977 -1.4268663
2.281747 -1.3014871 -1.5025653 -1.2667474 -0.008807966 1.3037157 1.1976748 -1.9042449
-1.8630314 0.8899288 2.0350523 -0.9211317 -1.6539204 -0.35336864 -1.1402372 -0.8031096
0.024733638 -1.7102332 1.4132134 1.41907 0.050019547 -0.4106459 -0.66488695 -1.0324745
0.34027636 1.9512628 -0.9814208 -1.790595 0.36757526 -0.44653642 -0.48427713 0.15514348
-0.9670972 -0.89715916 -1.4954693 1.5559561 1.926231 0.25077242 0.15661006 -0.47474685
-0.85027033 -1.0835835 1.7070318 0.56339747 -1.3633235 -0.17608735 -0.95217353 -0.057683233
-1.1154 -0.4061285 0.055108782 -1.6035589 -1.2495496 0.13729091 0.90043694 -0.8346528
-0.92820716 -1.0366161 0.34283257 -0.7506484 -1.2000909 -1.3767917 1.3183721 0.5346706
-0.34053656 -0.31204528 -0.58225864 -0.52237135 1.3054602 -0.5187681 -0.75880414 -1.5496981
-0.7092766 0.9934168 0.5386713 -0.8528703 -1.1841476 0.5557611 1.7784604 -2.1686473
-1.0125526 -0.45227882 -0.48685986 -0.45631608 -0.27278295 -1.6321636 -0.67003703 -0.22959258
1.8641714 -0.8670164 -0.91565305 -0.75997066 -0.37135148 -0.5704986 -0.7453729 -1.4717315
1.873728 -0.51023656 1.4252052 -1.0311177 0.3933331 1.5677192 -1.4350793 -1.1844532
-1.0995663 -1.2355094 -1.4920671 -1.1396782 -1.0286047 2.377591 -0.3699552 -1.36891
-1.0256414 -1.1910214 2.0074997 -1.099536 -0.0421798 -0.05907564 -0.4070324 -1.699884
-2.1613367 -1.6043899 2.2222936 -0.7975015 -0.6977462 -0.75185436 -1.1572907 -2.1110303
-0.16226842 -1.0982759 2.1459944 -0.82018554 -0.6582698 0.76080805 0.46250153 -0.011785175
-1.850732 -2.1754754 -1.5084995 0.9720913 0.07701694 -0.8650982 -0.8264876 -0.5268846
-2.4464426 0.5212131 -1.3967919 0.80946493 -0.36015788 -1.0172583 -0.051897448 -1.127257
-1.8851615 -0.828308 -1.7594956 -1.5403216 1.6914111 -1.458763 -0.13724628 -0.46858174
-1.3594133 -1.9931564 -0.66072136 -0.67524904 1.7802099 -1.5990434 0.27942866 2.0161455
1.5143352 -0.24685717 -1.7930392 -1.5876647 -1.1665901 -0.8449296 1.3715826 -0.47684366
-0.68779814 -0.18968163 -1.8790959 1.8979518 -1.8137578 -1.3150339 -0.5262039 -0.9113098
00000000: 8422 83be 93da d93f 3104 9b3f 5221 ffbe
00000010: 6ccc d6bf 12d5 b5bf 7d23 a1bf 7aaa 133f
00000020: f922 4a3f 8177 06bf 1dd8 8dbf 1d97 36bf
00000030: 0f51 08c0 eba7 ec3f 716d eebf 8c38 de3d
00000040: b152 0ebf b1ee 9cbd c8c2 c1be 8d8e 75be
00000050: 47d2 293e 45e7 ef3f d34e f7bf 8297 efbf
00000060: 8354 e8be 0807 88bf 7a71 d53e 688d 793f
00000070: d4a9 493d 1689 dcbf c226 b9be 3bc3 df3f
00000080: ffc2 46bf eb18 2a3f f66b 1ebf 8609 643f
00000090: 64f1 203f 044b 7ebf 2281 6a3f 545f b3bf
000000a0: 4d66 c5bf 2774 95bf 3da5 243f 0971 183f
000000b0: b4ce 173f 2cbf ccbf 2af9 ecbf c860 913f
000000c0: cb81 c83f 9e5d b3bf 9aa4 d1bf 0e95 d13e
000000d0: c9bd f5be 8440 afbd ab13 f63e 6bfa e83f
000000e0: eb25 e0bf da26 babf 5c3e 64bf ae3f 25bf
000000f0: f8ed 693f 2ecf 8d3f 681c 093f fafa e8bf
00000100: c441 12be 7a11 ee3f 986e 88bf ed6e 1c3f
00000110: e1e8 3cbf 8a8c 483f 2330 00bc 8ea3 b6bf
00000120: 2508 1240 2197 a6bf 0f54 c0bf c724 a2bf
00000130: 494f 10bc 28e0 a63f 684d 993f 4cbe f3bf
00000140: d077 eebf 60d2 633f 4c3e 0240 49cf 6bbf
00000150: aab3 d3bf bcec b4be 4bf3 91bf 9798 4dbf
00000160: 339e ca3c ece8 dabf 2de4 b43f 16a4 b53f
00000170: 4ce1 4c3d 2e40 d2be 0836 2abf 2028 84bf
00000180: b438 ae3e fbc2 f93f 653e 7bbf 3832 e5bf
00000190: d332 bc3e 6ca0 e4be 2cf3 f7be efdd 1e3e
000001a0: af93 77bf 39ac 65bf 8a6b bfbf 9229 c73f
000001b0: bd8e f63f 3e65 803e 635e 203e 0512 f3be
000001c0: 51ab 59bf ddb2 8abf 0580 da3f d13a 103f
000001d0: 6281 aebf 3e50 34be a5c1 73bf 4145 6cbd
000001e0: 6dc5 8ebf 13f0 cfbe bfb9 613d 6b41 cdbf
000001f0: 3ef1 9fbf fd95 0c3e 0983 663f ceab 55bf
00000200: fc9e 6dbf d6af 84bf c087 af3e 7e2a 40bf
00000210: 949c 99bf b63a b0bf 6bc0 a83f 2ce0 083f
00000220: cf5a aebe 66c4 9fbe e70e 15bf 21ba 05bf
00000230: 5219 a73f fccd 04bf fd40 42bf 825c c6bf
00000240: 2793 35bf 9050 7e3f 5de6 093f b555 5abf
00000250: 2692 97bf 5c46 0e3f 97a4 e33f 1ecb 0ac0
00000260: 539b 81bf 1791 e7be b245 f9be 43a2 e9be
00000270: 35aa 8bbe bdea d0bf 8c87 2bbf 511a 6bbe
00000280: 2b9d ee3f c9f4 5dbf 3d68 6abf 708d 42bf
00000290: c821 bebe 320c 12bf c2d0 3ebf b361 bcbf
000002a0: 52d6 ef3f dd9e 02bf 206d b63f aafb 83bf
000002b0: f562 c93e 06ab c83f aeb0 b7bf 2a9c 97bf
000002c0: 97be 8cbf 2c25 9ebf 0efc bebf fae0 91bf
000002d0: 52a9 83bf 732a 1840 c56a bdbe 7138 afbf
000002e0: 3848 83bf 6473 98bf e07a 0040 98bd 8cbf
000002f0: bac4 2cbd 4cf9 71bd 8d66 d0be cd95 d9bf
00000300: 5753 0ac0 a65c cdbf 0f3a 0e40 0f29 4cbf
00000310: 7f9f 32bf 8779 40bf 1a22 94bf 1f1b 07c0
00000320: b129 26be 4e94 8cbf f957 0940 aef7 51bf
00000330: 5f84 28bf 51c4 423f 00cd ec3e 9b16 41bc
00000340: c9e4 ecbf fd3a 0bc0 8316 c1bf fada 783f
00000350: 0fbb 9d3d 1377 5dbf b194 53bf e9e1 06bf
00000360: 8492 1cc0 396e 053f 14ca b2bf 1839 4f3f
00000370: 9d66 b8be 8535 82bf 6b92 54bd f549 90bf
00000380: f94c f1bf fe0b 54bf 2737 e1bf 4229 c5bf
00000390: 2980 d83f bfb8 babf 4a8a 0cbe f2e9 efbe
000003a0: 4101 aebf c01f ffbf 0925 29bf 1fdd 2cbf
000003b0: ebdd e33f 74ad ccbf 4611 8f3e 8708 0140
000003c0: bcd5 c13f 20c8 7cbe 4f82 e5bf 9938 cbbf
000003d0: d352 95bf 4e4d 58bf 0590 af3f da24 f4be
000003e0: 8a13 30bf e73b 42be 3786 f0bf 16f0 f23f
000003f0: 3729 e8bf 0853 a8bf 4cb5 06bf 994b 69bf

l1.bias f4 [128]
-0.7116078 -0.57477957 -0.66756594 -0.72344184 -0.49823385 -0.439888 -0.5655183 -1.154728
-1.0406166 -0.8823542 -0.7064693 -0.6137315 -0.53372884 -0.59800726 -0.75500005 -0.36983055
-0.52032 -0.7566099 -0.5625805 -0.81435645 -0.7726185 -0.60049874 -0.7085489 -0.17534265
-0.72517234 -0.70446587 -0.7275262 -0.7637219 -0.73567915 -0.63369614 -0.73867065 -0.47061616
-0.3567116 -0.6020718 -0.88426155 -0.6192771 -1.3148252 -0.6067218 -0.42005497 -0.8491601
-0.41730812 -0.33260807 -0.6772904 -0.7741457 -0.53207546 -0.6587932 -0.6722914 -1.1964779
-0.7350956 -0.6267624 -0.59457743 -0.61690587 -0.96265906 -0.548326 -1.5094379 -0.89728534
-0.9072027 -0.43975052 -0.54513544 -0.52254564 -0.5888327 -0.60187596 -0.3628625 -0.4730475
-0.34367436 -0.80743873 -0.6012868 -0.7056017 -0.35486785 -0.70184845 -0.36841992 -0.5312903
-0.72308946 -0.28730038 -0.45029002 -0.75289565 -0.38614956 -0.7185874 -0.6939165 -0.64359283
-0.1470023 -0.75289905 -0.4981678 -0.61019284 -0.82885975 -0.35817558 -0.79642355 -0.552738
-0.3713043 -0.50468194 -0.7690077 -0.5115715 -0.7270951 -0.36500075 -0.41587844 -0.5899525
-0.76318127 -0.700556 -0.6207292 -0.57837284 -0.9103464 -0.8006127 -0.67294323 -1.2185271
-0.7479624 -0.5792076 -0.64413416 -0.95092374 -0.6837132 -0.5276106 -0.82758737 -1.0269645
-0.6793897 -0.44022945 -0.83701617 -0.63683486 -0.95261467 -1.0044718 -0.69340485 -0.69336325
-0.9365719 -0.7919509 -0.5269473 -0.45318097 -0.32107863 -0.64689934 -0.714173 -0.5563975
00000000: ee2b 36bf c124 13bf 9ae5 2abf 7c33 39bf
00000010: 8218 ffbe 0039 e1be cfc5 10bf 21ce 93bf
00000020: ed32 85bf f7e1 61bf 2cdb 34bf 821d 1dbf
00000030: 74a2 08bf 0117 19bf af47 41bf 6e5a bdbe
00000040: b133 05bf 30b1 41bf 4705 10bf aa79 50bf
00000050: 53ca 45bf 49ba 19bf 7663 35bf 068d 33be
00000060: e5a4 39bf e057 34bf 283f 3abf 4783 43bf
00000070: 7855 3cbf e939 22bf 8519 3dbf 9af4 f0be
00000080: e7a2 b6be 6121 1abf f75e 62bf f288 1ebf
00000090: 314c a8bf 1f52 1bbf 7211 d7be 8e62 59bf
000000a0: 69a9 d5be 9b4b aabe e762 2dbf 6a2e 46bf
000000b0: 1936 08bf aca6 28bf 4a1b 2cbf 3026 99bf
000000c0: 3a2f 3cbf 8073 20bf 3a36 18bf 8bed 1dbf
000000d0: d370 76bf 185f 0cbf 4335 c1bf 7eb4 65bf
000000e0: 703e 68bf fb26 e1be ff8d 0bbf 8dc5 05bf
000000f0: bdbd 16bf 8b14 1abf 1dc9 b9be 4833 f2be
00000100: 16f6 afbe 4eb4 4ebf efed 19bf 50a2 34bf
00000110: 3db1 b5be 57ac 33bf 89a1 bcbe a402 08bf
00000120: 641c 39bf 0919 93be 6a8c e6be c5bd 40bf
00000130: 65b5 c5be 58f5 37bf 83a4 31bf 80c2 24bf
00000140: c587 16be febd 40bf da0f ffbe 9935 1cbf
00000150: 2730 54bf ca62 b7be 6ae2 4bbf 3d80 0dbf
00000160: 991b bebe d632 01bf b0dd 44bf 5af6 02bf
00000170: e822 3abf 61e1 babe 05ee d4be 2107 17bf
00000180: d95f 43bf a357 33bf 1ce8 1ebf 3e10 14bf
00000190: 760c 69bf f4f4 4cbf 0246 2cbf b2f8 9bbf
000001a0: 777a 3fbf f346 14bf fae5 24bf bd6f 73bf
000001b0: d407 2fbf 7d11 07bf c4dc 53bf 9373 83bf
000001c0: 7cec 2dbf c165 e1be b146 56bf 9c07 23bf
000001d0: 8ede 73bf 8892 80bf fb82 31bf 4180 31bf
000001e0: 2dc3 6fbf 4bbd 4abf 05e6 06bf 5607 e8be
000001f0: 6b64 a4be 329b 25bf 0bd4 36bf 1170 0ebf

l2.weight f4 [128, 128]
-0.46721855 0.07367091 0.36756414 0.100230984 0.36769253 -0.2927237 -0.14318462 -0.2742068
0.24868785 -0.18116398 -0.2941283 -0.19110774 -0.3169267 -0.019674873 -0.39369977 0.0064642155
0.114026755 -0.30368567 -0.29898357 0.30822262 -0.21642074 0.49885267 -0.16329259 -0.016372584
-0.17212525 -0.22152542 -0.2580806 -0.11958114 -0.23954836 -0.27151975 -0.35558903 -0.25333077
-0.07154942 -0.10491854 0.33740002 -0.24951722 -0.00850829 0.18569767 -0.19510302 -0.294028
-0.1646126 0.14500344 0.004325234 0.24456997 -0.1947817 -0.20822981 -0.17596923 0.16550824
0.33267373 -0.22363119 -0.1207993 0.3645715 0.2933548 -0.18517098 -0.22352193 -0.26041538
-0.35860118 0.08709159 -0.1875879 -0.35200903 -0.36451676 -0.23101528 0.084066175 -0.3329276
-0.11440225 0.34662908 -0.0077975746 -0.37423763 0.1227481 -0.3359919 0.11828568 -0.33635235
-0.28260064 0.10743197 0.2955335 -0.13465577 0.05431702 -0.015095244 -0.23603238 -0.16974643
-0.37660295 -0.24301568 0.30475318 -0.17392172 -0.16904497 0.10067147 0.31303138 -0.24079072
0.005707686 -0.23142283 -0.038962103 -0.33698556 -0.14267695 -0.19613047 0.43112063 -0.011632709
-0.2519056 -0.095972374 -0.06775065 -0.24215925 -0.16320063 -0.24688162 0.316461 0.0069740238
-0.0006635799 -0.22135837 -0.20346826 -0.090565026 -0.33223495 -0.22585785 -0.36113673 0.34620377
-0.27560166 -0.16973904 -0.16539508 0.28038755 -0.32367954 -0.23164228 -0.061410055 -0.33887014
-0.13749787 0.21214281 0.14161976 0.17215566 -0.07615053 -0.23149098 0.16261981 -0.086451
-0.20660274 -0.023777127 -0.08504104 -0.03651636 -0.07879961 -0.20210773 -0.28682956 -0.07247499
-0.09257502 -0.16226263 -0.17163652 -0.08847401 -0.1941077 -0.24123214 -0.24935834 -0.15320219
-0.022230677 -0.25968754 -0.22518359 -0.09298794 -0.15681809 -0.15389933 -0.20875731 -0.10497706
-0.2239401 -0.24325597 -0.18772879 -0.16810286 -0.03779225 -0.29651314 -0.30540186 -0.22846928
-0.00046324258 -0.25396907 0.059046127 -0.106186815 -0.2102857 -0.1233019 -0.19159862 -0.18070835
-0.23102807 -0.110885665 -0.09043162 -0.112714685 0.032213714 -0.08215368 -0.143246 -0.06626716
-0.08965257 -0.15322135 -0.16219752 -0.049093787 -0.122038595 -0.21276656 -0.17537153 -0.17931755
-0.13239042 -0.049528282 -0.22191787 -0.16009827 -0.21816513 -0.28579652 -0.12540185 -0.16978575
0.059180368 -0.060940288 -0.12532178 -0.06554133 0.0044659055 -0.11323163 0.060862847 -0.16685393
-0.25837722 -0.10861631 -0.20522964 -0.02905933 -0.073180154 -0.019092645 0.016021425 -0.19445774
-0.080343805 -0.15449178 -0.111081734 -0.32459882 -0.07655242 0.00033617462 -0.12168998 -0.19258288
-0.047891807 -0.16205737 -0.007241132 -0.042336512 -0.27085593 -0.19399717 -0.14588907 -0.15728818
-0.15381521 -0.1445642 -0.1713843 -0.26110175 -0.19708651 -0.27955 -0.10843855 -0.06322148
-0.12900849 -0.2054744 -0.25638327 -0.12752172 -0.21867634 -0.27850613 -0.20379077 -0.12890218
-0.2251659 -0.2990226 -0.18294162 -0.062144585 -0.11069064 -0.22208299 -0.13644202 -0.2123469
-0.24024117 -0.1305765 -0.03454882 -0.14782035 -0.116521046 -0.120679885 -0.123997174 -0.12815754
00000000: 4537 efbe c6e0 963d 5e31 bc3e e745 cd3d
00000010: 3242 bc3e e1df 95be fd9e 12be d564 8cbe
00000020: 07a8 7e3e 0d83 39be fc97 96be bfb1 43be
00000030: 3744 a2be 332d a1bc 0493 c9be c5d1 d33b
00000040: dc86 e93d b07c 9bbe 6014 99be 5bcf 9d3e
00000050: 669d 5dbe 9e69 ff3e 2c36 27be cc1f 86bc
00000060: 9a41 30be 8fd7 62be 2423 84be f5e6 f4bd
00000070: 2a4c 75be a304 8bbe c40f b6be 92b4 81be
00000080: 8188 92bd 88df d6bd b2bf ac3e 7181 7fbe
00000090: 5b66 0bbc 8827 3e3e 16c9 47be d78a 96be
000000a0: 3590 28be c87b 143e b1ba 8d3b 8d70 7a3e
000000b0: db74 47be 323a 55be 4731 34be fe7a 293e
000000c0: 3654 aa3e 93ff 64be a065 f7bd 1ea9 ba3e
000000d0: 9a32 963e 769d 3dbe efe2 64be 2a55 85be
000000e0: 939a b7be 135d b23d 0b17 40be 873a b4be
000000f0: f1a1 babe 458f 6cbe e32a ac3d 7d75 aabe
00000100: ba4b eabd 5e79 b13e cc82 ffbb 139c bfbe
00000110: 5b63 fb3d 2107 acbe c33f f23d 6036 acbe
00000120: 08b1 90be 4b05 dc3d 2b50 973e 34e3 09be
00000130: 867b 5e3d 0b52 77bc 79b2 71be 02d2 2dbe
00000140: 1ad2 c0be 1ad9 78be 9c08 9c3e 8918 32be
00000150: 201a 2dbe d82c ce3d a645 a03e d891 76be
00000160: 8a07 bb3b 1bfa 6cbe ba96 1fbd 5f89 acbe
00000170: e819 12be 6dd6 48be d8bb dc3e 1e97 3ebc
00000180: c5f9 80be 2a8d c4bd dac0 8abd 98f8 77be
00000190: 111e 27be 89ce 7cbe 2d07 a23e 5a86 e43b
000001a0: 18f4 2dba c5ab 62be fc59 50be 287a b9bd
000001b0: b31a aabe 4847 67be eae6 b8be 9f41 b13e
000001c0: a91b 8dbe 12d0 2dbe 545d 29be f58e 8f3e
000001d0: 53b9 a5be a233 6dbe 1c89 7bbd 6380 adbe
000001e0: 3ecc 0cbe f73b 593e c504 113e 9349 303e
000001f0: cff4 9bbd f90b 6dbe cf85 263e 390d b1bd
00000200: ab8f 53be 40c8 c2bc ff29 aebd 2e92 15bd
00000210: b161 a1bd 54f5 4ebe 53db 92be c46d 94bd
00000220: f997 bdbd 2d28 26be 7cc1 2fbe dd31 b5bd
00000230: 2bc4 46be 8f05 77be cb57 7fbe 09e1 1cbe
00000240: 1c1d b6bc c4f5 84be 8796 66be 7670 bebd
00000250: ec94 20be c997 1dbe 7ac4 55be 36fe d6bd
00000260: 8e50 65be 1818 79be fa3b 40be 2823 2cbe
00000270: 0ccc 1abd 92d0 97be a25d 9cbe daf3 69be
00000280: 5edf f2b9 3c08 82be 5ada 713d 7978 d9bd
00000290: 2255 57be b585 fcbd 6e32 44be 9c0b 39be
000002a0: 9f92 6cbe 0618 e3bd 3734 b9bd f5d6 e6bd
000002b0: 87f2 033d 3040 a8bd 14af 12be 14b7 87bd
000002c0: c49b b7bd 0fe6 1cbe 1b17 26be 9116 49bd
000002d0: 5fef f9bd 7adf 59be 9894 33be 059f 37be
000002e0: 5b91 07be 2bde 4abd 703e 63be cdf0 23be
000002f0: ae66 5fbe ec53 92be 5869 00be 51dc 2dbe
00000300: 1d67 723d 869c 79bd 5a54 00be 883a 86bd
00000310: bb56 923b fce5 e7bd 524b 793d c2db 2abe
00000320: 054a 84be 3a72 debd b827 52be d50d eebc
00000330: 7adf 95bd 2e68 9cbc 5d3f 833c ee1f 47be
00000340: 4b8b a4bd 1833 1ebe d27e e3bd d131 a6be
00000350: 84c7 9cbd 9840 b039 9938 f9bd 7234 45be
00000360: 332a 44bd 5ef2 25be 0547 edbb 0d69 2dbd
00000370: a1ad 8abe 32a7 46be f263 15be 2710 21be
00000380: bc81 1dbe a308 14be 5e7f 2fbe 21af 85be
00000390: 0cd1 49be 2d21 8fbe 0815 debd 437a 81bd
000003a0: cd1a 04be e267 52be ab44 83be 0e95 02be
000003b0: b1ec 5fbe 5b98 8ebe 87ae 50be effe 03be
000003c0: e491 66be 7d19 99be 0c55 3bbe 528b 7ebd
000003d0: c6b1 e2bd b969 63be 75b7 0bbe 7771 59be
000003e0: c801 76be d9b5 05be 1083 0dbd 385e 17be
000003f0: 96a2 eebd 0427 f7bd 3bf2 fdbd bb3b 03be

l2.bias f4 [128]
-0.14287564 -0.117267884 0.23120672 0.009063749 0.039818846 -0.023309711 0.01222648 0.00124791
-0.24997881 0.15405388 -0.02161902 0.13916099 -0.069695726 -0.153566 0.27262723 -0.067782834
-0.08347808 -0.24462025 -0.09709236 -0.17149635 0.10229489 -0.14002901 0.005322347 -0.26241046
-0.12642142 -0.039889563 -0.013450882 -0.02571567 0.15607451 -0.121306494 0.10871813 -0.04987738
0.04646398 -0.13262372 0.20077983 -0.080867186 0.07191934 -0.06091361 -0.11432014 0.0041009295
0.35500664 0.02957283 -0.15450463 0.023568718 -0.22772501 -0.086467035 0.165361 -0.06217775
-0.04993252 0.28367326 0.20597087 0.3033986 0.10635392 -0.072043754 -0.0068396134 -0.15878713
-0.26306242 -0.013916006 -0.24830852 -0.0817859 0.023425043 -0.047445968 -0.06706689 -0.06499257
0.042908486 -0.18774682 -0.04683619 0.2664852 -0.050361797 -0.1781777 0.21302012 0.3240864
-0.32842034 0.05051854 -0.1758262 0.111573584 -0.051475022 -0.07214896 0.20553905 -0.17639914
0.31613943 -0.18183465 0.10871796 0.029580733 0.022442613 -0.11754652 -0.016852241 -0.11653887
-0.05453187 0.08332942 -0.30186307 0.13091937 0.15910129 -0.0031245428 -0.12958774 -0.08814028
-0.047536105 0.14088169 -0.09271778 -0.07258263 -0.02960759 0.031982515 -0.06795357 -0.1514035
-0.029706575 -0.03247997 -0.22145633 -0.06398918 0.07835134 -0.029081155 -0.09371905 0.00012473483
0.028586248 0.29938972 -0.18563466 0.0138317235 -0.18211135 -0.01168952 0.2561026 -0.0589493
0.22759919 -0.16161987 0.11169399 0.24438865 -0.2476745 0.072087064 -0.14293416 0.1285426
00000000: fe4d 12be 252a f0bd 74c1 6c3e 1e80 143c
00000010: 1619 233d 02f4 bebc 9351 483c e990 a33a
00000020: 72fa 7fbe 4dc0 1d3e 5f1a b1bc 3880 0e3e
00000030: a2bc 8ebd 6840 1dbe cc95 8b3e bad1 8abd
00000040: 8ef6 aabd bb7d 7abe 5cd8 c6bd bd9c 2fbe
00000050: fc7f d13d c463 0fbe 1567 ae3b aa5a 86be
00000060: 9e74 01be 3d63 23bd 1761 5cbc aba9 d2bc
00000070: ffd1 1f3e 8a6f f8bd 9ca7 de3d 394c 4cbd
00000080: 0451 3e3d 83ce 07be 3a99 4d3e b29d a5bd
00000090: 724a 933d 8d80 79bd ad20 eabd 1761 863b
000000a0: 6ec3 b53e b842 f23c 7636 1ebe 2f13 c13c
000000b0: bf30 69be a115 b1bd 6554 293e 19ae 7ebd
000000c0: 0b86 4cbd 9f3d 913e 07ea 523e 1057 9b3e
000000d0: 16d0 d93d ad8b 93bd d61e e0bb 1899 22be
000000e0: 1eb0 86be f6ff 63bc 9744 7ebe 5e7f a7bd
000000f0: e0e5 bf3c b456 42bd 5e5a 89bd d31a 85bd
00000100: cfc0 2f3d b440 40be 4ed7 3fbd c070 883e
00000110: 2c48 4ebd 3774 36be f221 5a3e a7ee a53e
00000120: b626 a8be 87ec 4e3d c90b 34be b180 e43d
00000130: 79d7 52bd d5c2 93bd d478 523e faa1 34be
00000140: 07dd a13e dd32 3abe 86a7 de3d 4b53 f23c
00000150: 92d9 b73c 3bbc f0bd b60d 8abc eeab eebd
00000160: cf5c 5fbd 9da8 aa3d cc8d 9abe ba0f 063e
00000170: 73eb 223e 21c5 4cbb a6b2 04be e482 b4bd
00000180: 38b5 42bd 4a43 103e d2e2 bdbd 34a6 94bd
00000190: 9e8b f2bc 1900 033d 3e2b 8bbd 8509 1bbe
000001a0: 345b f3bc b809 05bd 73c5 62be c20c 83bd
000001b0: ab76 a03d 9a3b eebc c6ef bfbd 40cb 0239
000001c0: b52d ea3c 9c49 993e 0317 3ebe 749e 623c
000001d0: 667b 3abe 6785 3fbc e11f 833e d274 71bd
000001e0: c30f 693e ae7f 25be d2bf e43d 0541 7a3e
000001f0: 629e 7dbe 62a2 933d 555d 12be aca0 033e

l3.weight f4 [5, 128]
-0.19386163 -0.07156437 -0.21756195 0.23639582 -0.20963019 -0.45589328 0.7959496 0.8786102
-0.01497732 0.025796968 0.16066296 -0.09056508 0.066485226 -0.19643888 -0.18205197 0.017262124
0.6493617 -0.06683073 -0.2548616 -0.03355919 0.51386964 -0.22440752 -0.26668873 -0.09695923
-0.18122075 0.19441962 0.70758057 -0.12975226 0.005713166 -0.21458912 -0.013364057 -0.17254403
-0.19151625 0.31100398 -0.057739772 0.68605626 -0.18584949 0.5375434 -0.24110961 -0.29984343
0.07964473 -0.00058250927 -0.29535016 -0.0029020023 0.10468165 0.07739485 -0.06284399 0.6093301
-0.088234074 -0.038396746 -0.18914852 -0.072179705 -0.053667795 0.60727966 0.006123673 -0.09584376
-0.05708864 -0.29738092 -0.002036661 -0.017725075 0.22039828 0.39276236 -0.21116136 -0.4303201
0.16652712 -0.23219192 -0.14842695 -0.15207571 -0.058236618 -0.050129935 -0.02065474 -0.03485555
0.0042310487 0.05755241 -0.06296314 0.030874949 -0.12042189 -0.01692104 -0.08874446 -0.06766592
-0.110587895 -0.027695043 0.22292654 -0.3208376 -0.060353357 -0.06482358 -0.05480711 -0.036331136
-0.07939668 -0.13737933 0.09293743 -0.041308034 -0.14182161 -0.17468864 -0.27007985 0.035970666
0.5613091 0.046492465 0.048755094 -0.45961648 -0.26763743 -0.20829107 -0.107136585 0.6918003
-0.03545175 -0.32266036 -0.016312635 -0.063731626 -0.058817793 0.061271966 0.52609444 -0.17043215
0.6343277 -0.19598623 0.09742623 -0.15295042 -0.038243987 0.6510252 0.06889894 -0.21477067
-0.08024462 -0.07898832 -0.070846975 -0.097971536 0.08259271 -0.94202465 -0.021693869 -0.98173296
-0.22622943 -0.108419135 -0.041119907 0.9963805 -0.3470385 -0.7088834 -0.3338891 -0.48881412
0.020533137 0.2276073 -0.4785112 -0.1170045 0.29569137 -0.55075216 0.12042085 0.012150614
-0.32765177 0.035995826 -0.40576768 0.058028165 0.72322315 -0.27949655 0.871481 0.044482745
-0.12038648 -0.7908654 -0.3330697 -0.14061576 0.09700442 -0.46052068 0.075470485 0.175373
0.24858736 -0.19845879 0.123846605 -0.3779098 0.92623943 -0.2991412 -0.49297282 -0.52844924
0.012676259 -0.15808153 -0.67038184 0.431455 -0.06113249 0.049375817 0.26612684 -0.22484076
1.1903676 -0.09375461 0.024022063 -0.23138168 -0.10709049 -0.22041035 -0.46831512 -0.21189907
-0.22014679 -0.35008657 0.024049414 -0.47213283 -0.20960736 -0.35352558 -0.45585978 0.14701524
-0.35634515 0.102134444 0.75256884 0.05330903 -0.10097299 0.019668423 0.24523078 0.0061137225
0.097212985 0.33735576 0.10316788 0.09330855 -0.25642973 0.048203744 -0.09560522 0.04010455
0.03549957 -0.121760756 0.43441635 0.25310594 0.15041322 0.120441616 -0.057391692 -0.09155213
-0.2301838 0.07529675 0.03604537 -0.040249128 0.033309802 -0.6747713 -0.5268453 -0.37247875
-0.24409422 0.029112512 0.2675601 0.41979256 -0.3610949 0.49743515 0.018465228 -0.50193995
-0.1063794 0.6649391 0.027249439 0.020280754 0.20769484 -0.3244846 -0.3150423 -0.26909858
-0.5850016 -0.29638505 -0.03547992 -0.1305384 -0.16547014 -0.28899908 0.027581677 -0.12615709
-0.026535822 0.060800716 0.37266672 0.16909538 0.1320513 0.014579445 -0.104890056 0.20409907
00000000: aa83 46be 5790 92bd 8fc8 5ebe bf11 723e
00000010: 4ca9 56be d86a e9be 5ac3 4b3f 99ec 603f
00000020: 6f63 75bc 2a54 d33c d584 243e 2f7a b9bd
00000030: 6829 883d 4627 49be d56b 3abe 4c69 8d3c
00000040: 923c 263f 8dde 88bd 387d 82be 5c75 09bd
00000050: f68c 033f 16cb 65be 6d8b 88be 9092 c6bd
00000060: ef91 39be f015 473e 0024 353f c7dd 04be
00000070: 8335 bb3b 40bd 5bbe ebf4 5abc 62af 30be
00000080: d61c 44be ea3b 9f3e 8a80 6cbd 62a1 2f3f
00000090: 544f 3ebe 729c 093f 70e5 76be 1485 99be
000000a0: c71c a33d 89b3 18ba 2338 97be 852f 3ebb
000000b0: 5563 d63d 3181 9e3d 5ab4 80bd 0ffd 1b3f
000000c0: 11b4 b4bd e845 1dbd 26b0 41be f4d2 93bd
000000d0: c3d2 5bbd ae76 1b3f 18a9 c83b bc49 c4bd
000000e0: c7d5 69bd 5042 98be 8079 05bb 2d34 91bc
000000f0: 16b0 613e 2618 c93e af3a 58be eb52 dcbe
00000100: 1686 2a3e b8c3 6dbe 3cfd 17be bcb9 1bbe
00000110: 8589 6ebd 0c55 4dbd 2134 a9bc b1c4 0ebd
00000120: 9ca4 8a3b 13bc 6b3d d2f2 80bd 76ed fc3c
00000130: c09f f6bd fe9d 8abc a8bf b5bd 6e94 8abd
00000140: e87b e2bd b7e0 e2bc db46 643e d344 a4be
00000150: 1535 77bd 3ac2 84bd 6c7d 60bd f5cf 14bd
00000160: ba9a a2bd 2bad 0cbe fb55 be3d 9d32 29bd
00000170: af39 11be 94e1 32be e847 8abe fa55 133d
00000180: f4b1 0f3f e26e 3e3d 6cb3 473d da52 ebbe
00000190: c607 89be 414a 55be 6d6a dbbd d319 313f
000001a0: db35 11bd bd33 a5be 13a2 85bc ba85 82bd
000001b0: edea 70bd 50f8 7a3d 20ae 063f c485 2ebe
000001c0: 4d63 223f 9db0 48be 6787 c73d 099f 1cbe
000001d0: baa5 1cbd 96a9 263f e31a 8d3d d8ec 5bbe
000001e0: 4b57 a4bd a1c4 a1bd 3818 91bd 4da5 c8bd
000001f0: 5e26 a93d 8728 71bf 57b7 b1bc da52 7bbf
00000200: b0a8 67be da0a debd 596d 28bd cb12 7f3f
00000210: 08af b1be 6279 35bf 83f3 aabe d845 fabe
00000220: 1c35 a83c e311 693e 6cff f4be 0ea0 efbd
00000230: dc64 973e 18fe 0cbf 359f f63d 5e13 473c
00000240: f9c1 a7be 5c70 133d c8c0 cfbe f1ae 6d3d
00000250: 2725 393f 2c1a 8fbe 6119 5f3f 8a33 363d
00000260: 308d f6bd 2876 4abf 1d88 aabe 94fd 0fbe
00000270: 41aa c63d 5ec9 ebbe 4590 9a3d fb94 333e
00000280: af8d 7e3e c838 4bbe 4aa3 fd3d 657d c1be
00000290: 071e 6d3f 0929 99be ef66 fcbe 7348 07bf
000002a0: 15b0 4f3c 20e0 21be 259e 2bbf abe7 dc3e
000002b0: 1066 7abd 4c3e 4a3d c741 883e a83c 66be
000002c0: f75d 983f 6b02 c0bd ebc9 c43c 52ef 6cbe
000002d0: 4252 dbbd 40b3 61be 00c7 efbe 12fc 58be
000002e0: 296e 61be 8c3e b3be 4703 c53c 65bb f1be
000002f0: 50a3 56be 4e01 b5be 7466 e9be 2a8b 163e
00000300: df72 b6be dd2b d13d 5aa8 403f 925a 5a3d
00000310: edca cebd ac1f a13c c71d 7b3e 9f55 c83b
00000320: 9a17 c73d e5b9 ac3e ae49 d33d 8e18 bf3d
00000330: c24a 83be 4a71 453d abcc c3bd ab44 243d
00000340: ff67 113d b45d f9bd d26b de3e 1a97 813e
00000350: ec05 1a3e 18aa f63d 8d13 6bbd af7f bbbd
00000360: 4db5 6bbe 2f35 9a3d 4fa4 133d 45dc 24bd
00000370: dc6f 083d d0bd 2cbf 55df 06bf 89b5 bebe
00000380: d6f3 79be 5d7d ee3c a3fd 883e 0def d63e
00000390: 6ee1 b8be d2af fe3e 6444 973c 237f 00bf
000003a0: 71dd d9bd 7339 2a3f 373a df3c d323 a63c
000003b0: f5ad 543e d822 a6be 394d a1be 4ac7 89be
000003c0: aac2 15bf c8bf 97be 6553 11bd dcab 05be
000003d0: 0171 29be b0f7 93be f8f2 e13c 532f 01be
000003e0: a761 d9bc 2c0a 793d 2cce be3e 5727 2d3e
000003f0: 7538 073e a0de 6e3c 99d0 d6bd 59ff 503e

l3.bias f4 [5]
-0.0704471 0.03589487 0.03746543 -0.011506288 0.024520172
00000000: 9246 90bd 8006 133d 5a75 193d df84 3cbc
00000010: 87de c83c
