Bot/data.pth (torch, 309087 bytes, 6 tensors)

l1.weight f4 [256, 35]
-0.08491069 0.04344189 0.035199486 -0.2163873 0.0050835377 0.14447963 0.10370423 0.12537256
0.14035857 0.08192449 -0.0503761 -0.020150173 0.0036162515 0.015269156 0.0843858 0.014784404
0.192077 -0.03207997 -0.009216383 0.08916636 -0.14960138 0.0005010738 -0.22073634 -0.011676042
0.10239287 -0.13477473 0.19040802 -0.13899754 0.010079334 -0.1391596 -0.0013143234 -0.1227237
0.0029039937 0.044417005 -0.18071213 -0.0517338 0.12762903 -0.062122397 -0.010645026 0.11907441
0.12972133 0.0609768 0.13935417 0.15546298 -0.1278924 -0.047171507 0.06366419 0.067279674
-0.046216127 -0.073491015 0.13528009 0.047889873 0.21932714 0.023520084 0.0893311 0.009296721
-0.0019897402 0.14329821 -0.024003547 -0.15489171 -0.11594196 -0.2598997 0.3803911 0.0083956085
-0.15152599 0.12352208 -0.11176474 -0.092223845 0.06547646 0.23443352 0.22000755 0.1021902
0.029840827 0.0058650873 -0.020822518 0.09390226 0.16964118 0.06029977 0.19758828 -0.0576378
-0.27347022 0.24194035 -0.10721414 0.19836684 -0.013257461 0.24012761 0.20465422 -0.079504825
0.098840706 -0.024988692 -0.16730373 0.18949194 -0.16548772 0.008511603 -0.013480766 -0.0048660245
0.22779314 -0.13136278 0.03868395 0.065515995 -0.23833342 -0.021252561 -0.05389751 0.045185704
0.079839 0.12670995 0.028500656 0.008304668 -0.055908166 0.0061754067 -0.083940744 0.010034186
0.08917088 0.2297091 -0.08768874 0.0021329804 0.21946687 0.05455913 0.061169166 -0.031139964
0.21960013 0.052817896 0.0075133718 -0.12952358 0.11807655 0.15400447 -0.104831465 -0.24701664
-0.041354947 0.013120021 0.0902159 -0.24393 -0.20992424 -0.02784558 0.104082875 0.36093795
-0.013641807 0.08056138 -0.14045271 -0.09312029 0.11891045 -0.06381883 -0.1294739 -0.13435715
-0.0502546 -0.09488863 0.12524381 0.0001550528 -0.19193469 0.117641166 -0.108506456 0.13460696
-0.2425777 -0.0943181 -0.15923905 -0.16866763 0.022000792 0.1985707 0.06626465 0.04806812
-0.20304666 -0.15732127 -0.007906641 0.04589298 0.06689477 0.02469029 0.29748666 -0.1686966
0.028431939 -0.14683335 -0.11720101 -0.058715668 0.07317817 0.054750312 -0.067247845 -0.19172162
-0.16530487 -0.07665368 0.13111107 -0.23370883 0.032439925 -0.17134896 0.09813841 -0.042294826
0.1167528 -0.06933948 0.001941943 -0.15917657 0.10214264 0.010630092 0.044113558 -0.011881107
0.17452009 -0.07577392 0.16425337 -0.043286834 0.05576296 0.12704542 -0.16856743 -0.068973005
0.08108025 0.34727338 0.08683546 0.09707307 -0.1522313 0.09858264 0.12057642 0.032978944
0.08504894 0.06984648 -0.10887404 0.13652354 0.09056408 -0.00895481 -0.09052349 -0.16118954
-0.015743913 -0.074006565 -0.118698105 0.06451527 0.14993586 0.08903103 0.08904979 -0.17540583
0.030528335 0.097407535 -0.06883644 0.08131925 0.105106756 0.003306737 0.17422315 -0.087625325
-0.07912297 0.12847449 -0.11948568 -0.08363865 -0.2854467 0.03549244 -0.16357444 -0.14747235
0.100894205 0.06759943 -0.053887796 0.046335243 -0.09741086 0.13953277 -0.049914945 0.16727473
0.029476542 0.19970469 0.08940774 -0.033640787 0.13016011 -0.037376408 0.060680006 0.18317373
00000000: a8e5 adbd 20f0 313d 562d 103d a294 5dbe
00000010: ce93 a63b 78f2 133e e262 d43d aa61 003e
00000020: 28ba 0f3e 07c8 a73d 2b57 4ebd fa11 a5bc
00000030: a2fe 6c3b 7b2b 7a3c 76d2 ac3d 493a 723c
00000040: d5af 443e 4966 03bd 5000 17bc da9c b63d
00000050: 1b31 19be 7e5a 033a b508 62be df4c 3fbc
00000060: 5ab3 d13d 6302 0abe 52fa 423e 5f55 0ebe
00000070: ca23 253c db7f 0ebe 6045 acba 9056 fbbd
00000080: ee50 3e3b 9bee 353d 9a0c 39be d2e6 53bd
00000090: 2fb1 023e 0e74 7ebd 7a68 2ebc 49dd f33d
000000a0: abd5 043e cfc2 793d dcb2 0e3e b031 1f3e
000000b0: 3af6 02be e936 41bd 5f62 823d edc9 893d
000000c0: 1f4d 3dbd 7582 96bd dd86 0a3e 2c28 443d
000000d0: 4b97 603e 31ad c03c 39f3 b63d 4651 183c
000000e0: 4d66 02bb c4bc 123e 16a3 c4bc ef9b 1ebe
000000f0: fa72 edbd 9311 85be 9fc2 c23e bc8d 093c
00000100: a129 1bbe 25f9 fc3d e9e4 e4bd dbdf bcbd
00000110: 8618 863d 570f 703e a949 613e 1849 d13d
00000120: c074 f43c eb2f c03b fc93 aabc d44f c03d
00000130: 6bb6 2d3e e4fc 763d 9554 4a3e 9d15 6cbd
00000140: 4a04 8cbe 36bf 773e 1693 dbbd ad20 4b3e
00000150: d235 59bc 03e4 753e e090 513e 6dd3 a2bd
00000160: ff6c ca3d 16b5 ccbc ab51 2bbe 2d0a 423e
00000170: 9d75 29be 4074 0b3c 6ede 5cbc 2c73 9fbb
00000180: 9b42 693e f783 06be 1073 1e3d 402d 863d
00000190: ad0d 74be da19 aebc a3c3 5cbd a514 393d
000001a0: a182 a33d 41c0 013e 357a e93c 4d10 083c
000001b0: f6ff 64bd 115b ca3b 20e9 abbd 6d66 243c
000001c0: 399f b63d dd38 6b3e 2796 b3bd 79c9 0b3b
000001d0: ecbb 603e 6579 5f3d 858c 7a3d 3d19 ffbc
000001e0: dbde 603e 9457 583d bb32 f63b d4a1 04be
000001f0: 1ed2 f13d 59b3 1d3e e1b1 d6bd eef1 7cbe
00000200: ce63 29bd 5bf5 563c 1dc3 b83d c9c8 79be
00000210: 61f6 56be 6a1c e4bc 6729 d53d dccc b83e
00000220: e381 5fbc 5dfd a43d d6d2 0fbe dab5 bebd
00000230: 5287 f33d 72b3 82bd ce94 04be ec94 09be
00000240: c4d7 4dbd f854 c2bd ea3f 003e ab95 2239
00000250: 878a 44be daed f03d a238 debd 68d6 093e
00000260: 4a66 78be d929 c1bd 900f 23be 35b7 2cbe
00000270: 013b b43c 1e56 4b3e c3b5 873d 14e3 443d
00000280: 77eb 4fbe d418 21be db8a 01bc 47fa 3b3d
00000290: 2000 893d 4b43 ca3c 2c50 983e cdbe 2cbe
000002a0: 19ea e83c 7b5b 16be 1507 f0bd d77f 70bd
000002b0: 70de 953d dd41 603d 3db9 89bd ac52 44be
000002c0: ae45 29be 9bfc 9cbd fb41 063e 5e51 6fbe
000002d0: badf 043d 1a76 2fbe cafc c83d 573d 2dbd
000002e0: 181c ef3d db01 8ebd cb88 fe3a 2fff 22be
000002f0: 2930 d13d d629 2e3c 6bb0 343d faa8 42bc
00000300: 65b5 323e 5b2f 9bbd 0932 283e 894d 31bd
00000310: b467 643d 3218 023e f19c 2cbe b841 8dbd
00000320: 670d a63d d1cd b13e cad6 b13d 3fce c63d
00000330: 86e2 1bbe b2e5 c93d c5f0 f63d ee14 073d
00000340: 232e ae3d ac0b 8f3d 5af9 debd d4cc 0b3e
00000350: a979 b93d 32b7 12bc 6164 b9bd df0e 25be
00000360: 61f9 80bc c190 97bd fe17 f3bd 9520 843d
00000370: c988 193e e755 b63d bc5f b63d 969d 33be
00000380: 8f16 fa3c 9a7d c73d 1ffa 8cbd b58a a63d
00000390: 3642 d73d d7b5 583b 8e67 323e e874 b3bd
000003a0: 390b a2bd d18e 033e e8b4 f4bd be4a abbd
000003b0: 1226 92be 8560 113d 0f80 27be fe02 17be
000003c0: 9fa1 ce3d 9271 8a3d 73b9 5cbd 06ca 3d3d
000003d0: 587f c7bd aee1 0e3e 9d73 4cbd 114a 2b3e
000003e0: ca78 f13c 637f 4c3e 681b b73d ecca 09bd
000003f0: b148 053e 0118 19bd 998b 783d e591 3b3e

l1.bias f4 [256]
-0.14175674 -0.08344951 -0.16735712 -0.15648006 -0.08425513 -0.224744 0.08505568 0.19968478
0.22038896 -0.006167957 -0.21038139 -0.07209534 -3.5089746e-05 0.03825695 -0.22213353 -0.12599333
0.24534598 -0.10001913 -0.13033178 0.10430894 -0.2375767 0.14560659 -0.042012487 0.15922286
-0.025586335 0.10546115 0.2134797 -0.07310266 -0.06267608 0.1865472 -0.034075774 -0.17662974
-0.1375316 0.09284271 -0.016099032 0.050881013 0.2533537 0.12958948 -0.15041578 0.0034696532
-0.031264253 -0.22642642 -0.14588243 0.15368435 -0.12709486 -0.07208223 -0.12215852 0.103290185
0.021142831 -0.033521205 0.15560932 -0.14512496 0.1116127 -0.12002301 -0.10245855 -0.027755996
0.19795364 -0.111117885 -0.039187025 0.095647626 -0.013502747 -0.017872255 -0.19555655 -0.18937056
-0.042441107 0.18991044 -0.025405323 0.16729176 -0.06162283 0.20820814 0.1301407 -0.12630935
-0.06447044 0.15625826 0.18237849 0.17182083 0.007424342 -0.05717692 0.08583784 0.16877717
-0.20482756 0.10806301 0.08904679 0.037940055 0.16904671 -0.036013283 0.018178264 0.04293378
-0.113363594 -0.08707513 -0.16036285 0.09373187 0.16141848 0.061125666 0.025683008 0.05160394
-0.12882625 -0.22748879 0.15520462 -0.008150028 -0.120963804 -0.09111667 -0.18356821 0.061854865
-0.1059253 0.047680467 0.15282033 -0.057067376 -0.07523762 0.124421425 0.1779071 -0.27448988
-0.06683523 0.13245144 -0.0080145 0.09039738 -0.042756144 0.15409717 -0.12652583 -0.06541238
-0.19961932 -0.10144772 0.18773614 -0.11644182 0.23008898 0.103981964 -0.04552181 0.16538668
-0.11583629 -0.00076269207 0.0014665963 -0.1980057 0.016044129 -0.14769126 -0.11935316 -0.081709206
0.009798381 -0.041592497 -0.081603594 0.04493862 0.13223326 0.06915905 0.07305897 0.0002129569
0.05433405 0.20237419 0.10912148 0.12291751 -0.06910806 -0.15298688 -0.18383493 0.14409405
-0.127419 0.1431246 -0.17504181 0.07316415 -0.14866184 0.03707411 -0.07928076 0.15233476
-0.08483618 0.08083906 0.14500566 -0.103618465 0.18929996 0.058919046 -0.19149734 0.20040464
0.11408239 0.03233598 -0.044704016 0.20729747 0.09999563 0.09433959 0.07032563 0.043789744
0.043031286 0.11465757 -0.101628274 -0.0851224 -0.09663454 0.089971356 -0.11082331 0.15507136
-0.03799605 -0.14419404 -0.007279005 -0.2150034 -0.15443517 0.09891527 -0.20251417 -0.10630099
0.08901851 0.14259562 0.2186866 -0.14413564 -0.205281 -0.08653863 0.04987214 0.19752686
-0.12028694 -0.10885838 -0.13470054 -0.108177334 0.08268297 -0.0989892 -0.23076111 0.017902417
0.12740254 -0.06806589 0.06404999 -0.043113887 0.13956228 -0.06418551 0.10783742 -0.026448157
-0.020396532 0.20138934 -0.19435519 -0.1917566 0.14068264 0.20268217 -0.16203728 0.09312697
-0.04833324 -0.16269681 0.004698236 0.14329052 -0.19281514 0.060440436 0.21009393 -0.05121096
0.08542479 0.14640398 -0.1519851 -0.14544079 0.006465407 0.09155329 -0.07862127 0.06421731
0.025716001 -0.22383356 -0.06358608 0.063731976 -0.10633066 0.14822784 0.11978493 -0.16673662
0.15461309 0.03658755 0.19887967 -0.03553205 0.2290038 -0.017184848 0.12201513 0.12604646
00000000: ae28 11be 94e7 aabd aa5f 2bbe 4f3c 20be
00000010: f48d acbd 4b23 66be ac31 ae3d 2b7a 4c3e
00000020: a5ad 613e 931c cabb 386e 57be b9a6 93bd
00000030: 542d 13b8 52b3 1c3d f976 63be 6504 01be
00000040: fa3b 7b3e d4d6 ccbd b275 05be ed9f d53d
00000050: 4e47 73be e519 153e 4915 2cbd 510b 233e
00000060: 6f9a d1bc 04fc d73d 6c9a 5a3e d9b6 95bd
00000070: 515c 80bd 3b06 3f3e 0a93 0bbd 6dde 34be
00000080: 15d5 0cbe 5224 be3d 1ee2 83bc 9c68 503d
00000090: 93b7 813e 1bb3 043e 9806 1abe 1f63 633b
000000a0: f20e 00bd 54dc 67be 3462 15be 6e5f 1d3e
000000b0: 2825 02be d99f 93bd 3f2e fabd ce89 d33d
000000c0: bb33 ad3c 884d 09bd 0d58 1f3e a39b 14be
000000d0: 3395 e43d a0ce f5bd cad5 d1bd 8b60 e3bc
000000e0: 5cb4 4a3e c691 e3bd 9382 20bd e7e2 c33d
000000f0: a03a 5dbc d668 92bc fa3f 48be 5bea 41be
00000100: bad6 2dbd e277 423e d31e d0bc 884e 2b3e
00000110: 3868 7cbd 8434 553e 9b43 053e 3d57 01be
00000120: 1409 84bd 2a02 203e 6dc1 3a3e cdf1 2f3e
00000130: e547 f33b 5932 6abd c0cb af3d ecd3 2c3e
00000140: 51be 51be 2450 dd3d 2a5e b63d 0867 1b3d
00000150: 951a 2d3e aa82 13bd 95ea 943c 55db 2f3d
00000160: 2c2b e8bd 7254 b2bd 2936 24be 7ff6 bf3d
00000170: e34a 253e e85e 7a3d 2c65 d23c a75e 533d
00000180: 07eb 03be d2f2 68be f6ed 1e3e b287 05bc
00000190: dfbb f7bd 609b babd 4ef9 3bbe 875b 7d3d
000001a0: 5def d8bd 984c 433d ef7c 1c3e 7bbf 69bd
000001b0: 2e16 9abd a9d0 fe3d 472d 363e f089 8cbe
000001c0: e9e0 88bd 5aa1 073e 404f 03bc 4322 b93d
000001d0: 1121 2fbd a6cb 1d3e fd8f 01be edf6 85bd
000001e0: 0269 4cbe d2c3 cfbd e73d 403e 0d79 eebd
000001f0: 729c 6b3e 7ff4 d43d 1475 3abd 205b 293e
00000200: 943b edbd 66ef 47ba ce3a c03a 02c2 4abe
00000210: fa6e 833c 613c 17be 6e6f f4bd 2857 a7bd
00000220: 6389 203c e55c 2abd c91f a7bd 8f11 383d
00000230: 2868 073e 43a3 8d3d f19f 953d 2f4d 5f39
00000240: 618d 5e3d 2e3b 4f3e 157b df3d 2dbc fb3d
00000250: 8788 8dbd 98a8 1cbe 393f 3cbe 648d 133e
00000260: 207a 02be 418f 123e 293e 33be 16d7 953d
00000270: cf3a 18be 06db 173d f35d a2bd a5fd 1b3e
00000280: 97be adbd f38e a53d 5d7c 143e eb35 d4bd
00000290: d9d7 413e 1955 713d e117 44be e036 4d3e
000002a0: 07a4 e93d bc72 043d 8f1b 37bd ca45 543e
000002b0: 82ca cc3d 1d35 c13d e206 903d e05c 333d
000002c0: 9341 303d 97d1 ea3d 7c22 d0bd a754 aebd
000002d0: 54e8 c5bd e742 b83d 55f7 e2bd 07cb 1e3e
000002e0: bfa1 1bbd 9aa7 13be b884 eebb da29 5cbe
000002f0: 4124 1ebe 1794 ca3d e05f 4fbe 55b4 d9bd
00000300: 564f b63d 9604 123e 61ef 5f3e 4b98 13be
00000310: 2f35 52be 2a3b b1bd bb46 4c3d 7b44 4a3e
00000320: 0059 f6bd 24f1 debd f0ee 09be 148c ddbd
00000330: b055 a93d daba cabd a44c 6cbe 17a8 923c
00000340: d075 023e 2166 8bbd a42c 833d 3098 30bd
00000350: 6ae9 0e3e b173 83bd ded9 dc3d cea9 d8bc
00000360: a116 a7bc 0239 4e3e 0c05 47be d85b 44be
00000370: 1c0f 103e ea8b 4f3e 1aed 25be 5ab9 be3d
00000380: 13f9 45bd fe99 26be a9f3 993b c0ba 123e
00000390: 5571 45be 6490 773d dd22 573e 95c2 51bd
000003a0: 31f3 ae3d edea 153e fba1 1bbe 6eee 14be
000003b0: c4db d33b 4b80 bb3d 3004 a1bd 5d84 833d
000003c0: 5daa d23c a034 65be 6b39 82bd e985 823d
000003d0: e4c3 d9bd 0ac9 173e cd51 f53d 01bd 2abe
000003e0: e552 1e3e d4dc 153d 1da7 4b3e 0e8a 11bd
000003f0: f97f 6a3e 3dc7 8cbc 12e3 f93d 5312 013e

l2.weight f4 [256, 256]
-0.05840068 -0.030659575 -0.093774155 -0.08181666 -0.063598596 -0.097512454 0.046183795 0.009001596
0.023997363 0.12968278 0.005483181 -0.014848643 -0.018888634 0.13296749 -0.021339718 -0.17305012
0.0076614483 -0.02151465 -0.029617947 0.030485982 0.059754066 -0.046235837 -0.07171554 0.016106293
0.036787737 0.030110033 -0.031771313 0.06683735 -0.023411669 -0.0030629677 -0.056274377 -0.14101833
0.04266323 -0.030565163 0.003503334 -0.019734737 0.09802732 0.022557821 -0.031663842 0.015000318
0.0025980878 -0.027888335 -0.10952856 0.03412248 -0.039356753 -0.014385732 0.013973288 -0.00086199545
-0.057750326 0.0010414539 -0.029259361 0.050698776 -0.11835354 -0.03080363 -0.035313547 -0.030185794
0.049501244 0.0805375 -0.14057101 -0.011549777 -0.09495292 0.11572095 -0.038771145 -0.054487113
-0.07009998 -0.08808954 -0.15079744 -0.04575 -0.046959836 -0.08600116 0.0030367668 0.052668855
-0.07008594 -0.058423016 -0.030697936 -0.038006008 -0.008313302 -0.027169768 -0.09335974 0.05956211
0.0024464517 0.111705564 -0.060473755 0.009549912 -0.072490364 0.018887041 -0.061966132 -0.03781042
0.00033504516 -0.062848285 0.0056369333 -0.013626975 0.04711603 0.0107753035 -0.035117876 -0.062501594
0.02881706 -0.05990214 0.036155403 0.08528913 0.018837387 -0.05268736 -0.01833369 -0.09638969
0.031042239 -0.026975585 -0.02112362 -0.00021071182 0.011103563 -0.03421616 -0.1250758 -0.08712919
-0.014100995 -0.01959009 0.014609182 0.026691413 -0.07772895 0.017380847 0.033723224 -0.045366723
-0.06555544 -0.009731852 0.007095492 0.009429455 0.084127225 -0.070621476 -0.04479844 0.08750493
0.02614668 0.08265419 -0.035086732 -0.118765265 -0.03604608 -0.031101895 0.040201344 -0.026265226
-0.05466879 -0.06768128 0.000281906 0.021336688 0.018999133 0.10380444 -0.012210082 -0.079673275
0.03256974 0.0047312337 0.0035343177 0.014022828 0.021175526 -0.03303379 0.08398856 0.033783786
-0.15543908 0.019940468 -0.015614564 0.011023127 -0.01236093 -0.052413613 -0.067308076 0.020931331
0.048662994 -0.03352194 -0.048912805 -0.0030371358 0.011594846 -0.048574053 -0.094541945 0.064065516
-0.073773965 0.05912371 -0.011968263 -0.05081161 0.0720345 0.022618422 0.098829925 -0.025247885
0.004801645 0.011917161 0.015839757 -0.08589386 -0.09118848 0.028211975 0.06328407 -0.016851919
-0.090865396 -0.06466003 -0.09060904 -0.044198155 0.041510943 0.038968135 0.08481019 -0.030606925
0.00628043 -0.09838496 0.09742356 -0.09156568 0.020827435 -0.011147187 -0.018539045 0.025057575
-0.050984025 0.12503463 -0.036623906 -0.021916315 0.00044897365 -0.095594004 -0.032565713 -0.05121887
0.011784432 0.03953547 0.028975265 0.06899827 0.066385016 -0.15100743 -0.021689579 -0.035782497
0.02573277 0.0020994747 -0.020145448 0.034488052 -0.07530517 0.08182976 0.04294837 0.0655492
0.0436388 -0.031393684 -0.006624073 0.023282707 -0.029056203 -0.0012016082 0.052387442 -0.007364821
-0.011584291 0.004409677 0.0012837985 0.045783654 -0.019975832 0.08373874 0.008182027 0.05368551
0.032464784 -0.07131022 0.12459824 0.120927595 0.071853876 0.085085176 0.041918725 0.010651519
0.010275686 0.010204967 -0.042893987 -0.08355417 -0.040256243 -0.021101054 -0.025539583 0.09688072
00000000: 8d35 6fbd ca29 fbbc aa0c c0bd 7e8f a7bd
00000010: fb3f 82bd 9cb4 c7bd 382b 3d3d 6e7b 133c
00000020: 1e96 c43c 90cb 043e 42ac b33b b947 73bc
00000030: 56bc 9abc a128 083e a2d0 aebc 0d34 31be
00000040: e30c fb3b 7e3f b0bc 56a1 f2bc bdbd f93c
00000050: aec0 743d ca61 3dbd 99df 92bd 58f1 833c
00000060: bdae 163d 51a9 f63c a322 02bd 05e2 883d
00000070: d4c9 bfbc 12bc 48bb f67f 66bd 1c67 10be
00000080: a4bf 2e3d cb63 fabc 3198 653b beaa a1bc
00000090: 8cc2 c83d 2ecb b83c f2b1 01bd e5c3 753c
000000a0: ae44 2a3b 1476 e4bc 8250 e0bd 03c4 0b3d
000000b0: 8c34 21bd 22b2 6bbc 38f0 643c 89f7 61ba
000000c0: 9b8b 6cbd 6581 883a 54b1 efbc 85a9 4f3d
000000d0: 5763 f2bd e557 fcbc f0a4 10bd 3348 f7bc
000000e0: d1c1 4a3d d8f0 a43d d9f1 0fbe 473b 3dbc
000000f0: ad76 c2bd 1bff ec3d 7ece 1ebd e12d 5fbd
00000100: 9490 8fbd 4a68 b4bd a56a 1abe 5a64 3bbd
00000110: f558 40bd 6021 b0bd 7e04 473b 4cbb 573d
00000120: 3889 8fbd f94c 6fbd 3d7a fbbc 30ac 1bbd
00000130: 8434 08bc 2293 debc 6433 bfbd 66f7 733d
00000140: a654 203b e3c5 e43d 54b3 77bd 3c77 1c3c
00000150: d475 94bd ffb8 9a3c 33d0 7dbd 19df 1abd
00000160: 00a9 af39 9ab6 80bd 06b6 b83b ad43 5fbc
00000170: bdfc 403d e68a 303c c3d7 0fbd d600 80bd
00000180: c111 ec3c f25b 75bd b017 143d 11ac ae3d
00000190: dd50 9a3c b4ce 57bd 8930 96bc f567 c5bd
000001a0: 4b4c fe3c e7fb dcbc 710b adbc 86f2 5cb9
000001b0: b8eb 353c 3f26 0cbd df13 00be ca70 b2bd
000001c0: dc07 67bc 657b a0bc 5a5b 6f3c f3a7 da3c
000001d0: 5b30 9fbd 4762 8e3c 5d21 0a3d 75d2 39bd
000001e0: ee41 86bd 5972 1fbc 4d81 e83b 007e 1a3c
000001f0: e54a ac3d fea1 90bd 927e 37bd c935 b33d
00000200: 9031 d63c 9a46 a93d 1bb7 0fbd 343b f3bd
00000210: 0ea5 13bd 67c9 febc 2aaa 243d 2c2a d7bc
00000220: 62ec 5fbd 7c9c 8abd c8cc 9339 47ca ae3c
00000230: 12a4 9b3c 6c97 d43d cc0c 48bc be2b a3bd
00000240: d967 053d 7708 9b3b 03a0 673b 01c0 653c
00000250: 4c78 ad3c 704e 07bd 3202 ac3d de60 0a3d
00000260: 6c2b 1fbe 315a a33c 3ad4 7fbc 589a 343c
00000270: 8085 4abc a8af 56bd d1d8 89bd 2f78 ab3c
00000280: d952 473d 4d4e 09bd cb58 48bd af0a 47bb
00000290: 4ff8 3d3c 96f5 46bd 359f c1bd c834 833d
000002a0: ce16 97bd b42b 723d 8916 44bc d61f 50bd
000002b0: d386 933d 454a b93c 5867 ca3d a7d4 cebc
000002c0: 1e57 9d3b 3240 433c 61c2 813c 1fe9 afbd
000002d0: 07c1 babd cd1c e73c 149b 813d 090d 8abc
000002e0: a317 babd 7a6c 84bd 3b91 b9bd 2009 35bd
000002f0: 6107 2a3d 0d9d 1f3d f7b0 ad3d 60bb fabc
00000300: 11cc cd3b 0e7e c9bd 0186 c73d ca86 bbbd
00000310: 4c9e aa3c b1a2 36bc 32df 97bc 8b45 cd3c
00000320: a0d4 50bd 1409 003e f302 16bd d889 b3bc
00000330: 3964 eb39 cac6 c3bd a063 05bd e1ca 51bd
00000340: 7e13 413c f2ef 213d 895d ed3c f74e 8d3d
00000350: def4 873d b1a1 1abe 58ae b1bc ab90 12bd
00000360: 88cd d23c 5797 093b 1108 a5bc 5843 0d3d
00000370: 9939 9abd 5c96 a73d a1ea 2f3d a93e 863d
00000380: 99be 323d aa96 00bd c00e d9bb 60bb be3c
00000390: 4607 eebc 487f 9dba 3794 563d 9954 f1bb
000003a0: 0acc 3dbc 0d7f 903b 2145 a83a a487 3b3d
000003b0: 5ba4 a3bc 377f ab3d e90d 063c 56e5 5b3d
000003c0: cbf9 043d 180b 92bd 5d2d ff3d e3a8 f73d
000003d0: 2028 933d 2341 ae3d f8b2 2b3d b583 2e3c
000003e0: 5a5b 283c bc32 273c 9bb1 2fbd 731e abbd
000003f0: bbe3 24bd 1edc acbc 6338 d1bc 6669 c63d

l2.bias f4 [256]
0.026034035 0.04846925 -0.010967124 0.012922806 -0.009832192 -0.032046 0.03593735 0.025134088
-0.042319495 0.08997502 -0.039788518 0.012975545 -0.009910726 0.016155535 0.014788821 -0.012879683
0.077216364 -0.0039748945 -0.06523414 -0.02699752 0.016387507 0.059712447 0.007898587 -0.0005416297
0.0018562222 -0.018520508 -0.044638164 0.0482614 -0.06722648 -0.050495796 -0.004568972 0.03015846
0.0372974 -0.048446536 0.02875174 -0.034131777 0.0253216 0.07105295 0.049276292 -0.016433707
-0.034476843 0.007466297 0.022823697 -0.014480123 -0.015092302 0.054627225 -0.038311444 0.002865256
-0.010329732 0.040085856 0.0290815 0.036093786 0.04395361 -0.089077026 -0.051450428 -0.014093475
0.019273752 -0.05076429 -0.00058893894 -0.016954364 0.011088243 0.09103809 0.099198416 0.02208328
-0.07999586 -0.005265988 -0.05993482 -0.011407876 0.029649928 0.032470062 -0.008675992 0.026638668
0.034959108 0.053802457 -0.05198595 0.08730045 -0.012212372 0.030440591 -0.05779112 -0.009746552
-0.0738112 -0.037687175 -0.02896831 0.009140862 0.07103986 0.03611938 0.024515009 -0.03864537
0.06879684 -0.05698824 0.03424371 -0.0054965625 -0.033791836 0.027435161 0.0005936392 0.026157407
-0.0056685144 0.017557213 -0.049332403 -0.004730488 -0.07967462 -0.067128904 0.005373321 0.07361484
0.065350324 0.021223368 0.039107013 -0.068350434 0.08111864 0.08512432 0.026892828 0.001007477
-0.044606563 0.08755981 -0.03353324 -0.02073742 0.048373688 -0.010946622 -0.017485341 0.0037795946
0.016317992 -0.05816934 0.013362791 0.02253089 -0.035674337 0.0013782069 -0.017680028 -0.03421455
-0.01752164 0.010744276 0.078158334 -0.0245671 -0.017096557 0.054131385 -0.034937646 -0.016691502
-0.05137614 0.073065646 0.0006646999 0.03483826 -0.029017586 -0.007518785 -0.03409894 -0.017624704
0.037792116 -0.09012855 -0.070880495 -0.046901256 -0.06699406 0.053852048 -0.018040515 -0.016840043
-0.01964088 -0.07237149 0.019080276 0.08507701 -0.015080997 -0.010021668 -0.030886168 -0.038140923
0.032663856 -0.049368113 -0.0006668605 0.06772917 0.060525637 0.062602445 -0.07579704 0.00014054426
0.020978117 -0.05149224 0.046675034 -0.08206138 0.025132572 0.028449932 0.050678644 0.018846665
0.043105282 0.03883625 0.09058888 -0.0076421155 -0.008550477 0.02238527 -0.09057774 -0.05175217
-0.012466143 -0.041263934 -0.05935241 -0.03002737 -0.031010527 0.06663166 -0.05674483 -0.06135818
-0.05378914 -0.0043130866 0.051424734 0.08509897 -0.011030253 -0.022115236 -0.016027993 -0.015006151
0.036969054 0.036886998 -0.024179231 0.016961507 -0.04946996 0.001141089 0.053554013 -0.0150137255
-0.008703983 0.028158028 -0.075582236 0.012780869 0.07343118 0.060628723 -0.020297999 -0.02345194
0.04288693 -0.06353642 0.081059754 -0.016457535 -0.06962137 -0.036675904 -0.038489826 -0.082772635
0.017333891 -0.046615988 0.039017264 0.11509773 0.04964046 -0.03576524 -0.034499038 0.01834085
0.05303656 -0.02218207 0.03962681 0.047254577 0.0427818 0.014921639 -0.033951797 -0.072140925
0.036394104 0.048309393 -0.029868646 0.07330324 0.03606742 -0.07441087 -0.0062482636 0.08595394
0.021871487 -0.008409258 0.062389415 -0.049847234 0.012695789 -0.058660947 -0.0049889153 -0.08400433
00000000: 5445 d53c b187 463d 74af 33bc 2dba 533c
00000010: 3417 21bc ab42 03bd 0b33 133d 01e6 cd3c
00000020: 3557 2dbd d344 b83d 49f9 22bd 6197 543c
00000030: 9960 22bc 9d58 843c d04c 723c 4e05 53bc
00000040: 9d23 9e3d d53f 82bb 7a99 85bd e729 ddbc
00000050: 183f 863c 0a95 743d 1369 013c 27fc 0dba
00000060: 7b4c f33a 52b8 97bc 82d6 36bd bfad 453d
00000070: 09ae 89bd aed4 4ebd 51b7 95bb e00e f73c
00000080: 29c5 183d e06f 46bd c588 eb3c c3cd 0bbd
00000090: 3e6f cf3c 3684 913d f0d5 493d fb9f 86bc
000000a0: 9737 0dbd d7a7 f43b c3f8 ba3c 0a3e 6dbc
000000b0: b445 77bc ccc0 5f3d 76ec 1cbd 05c7 3b3b
000000c0: 093e 29bc 1131 243d 533c ee3c 14d7 133d
000000d0: b308 343d 046e b6bd afbd 52bd 52e8 66bc
000000e0: fde3 9d3c 37ee 4fbd 0663 1aba e1e3 8abc
000000f0: 76ab 353c 2e72 ba3d 8a28 cb3d ffe7 b43c
00000100: dfd4 a3bd 4f8e acbb 377e 75bd 1ae8 3abc
00000110: 68e4 f23c 54ff 043d bf25 0ebc 5639 da3c
00000120: 4831 0f3d f75f 5c3d 38ef 54bd 94ca b23d
00000130: 6716 48bc 8c5e f93c 62b6 6cbd 01b0 1fbc
00000140: 542a 97bd de5d 1abd f34e edbc 8ec3 153c
00000150: 597d 913d eaf1 133d b3d3 c83c 9c4a 1ebd
00000160: 5ce5 8c3d 806c 69bd 2243 0c3d 821c b4bb
00000170: 4f69 0abd b4bf e03c 749e 1b3a 0f48 d63c
00000180: f2be b9bb 25d4 8f3c c610 4abd 3602 9bbb
00000190: 722c a3bd e17a 89bd af12 b03b 61c3 963d
000001a0: 64d6 853d a1dc ad3c ad2e 203d 50fb 8bbd
000001b0: 8821 a63d a955 ae3d 594e dc3c 520d 843a
000001c0: 5fb5 36bd 8f52 b33d 275a 09bd 86e1 a9bc
000001d0: 7d23 463d 7659 33bc 6b3d 8fbc 13b3 773b
000001e0: 4fad 853c f942 6ebd 9cef 5a3c b392 b83c
000001f0: 411f 12bd f3a4 b43a b5d5 90bc 8e24 0cbd
00000200: 8b89 8fbc c308 303c 7a11 a03d f140 c9bc
00000210: 140e 8cbc dfb8 5d3d c71a 0fbd 9ebc 88bc
00000220: ca6f 52bd 71a3 953d 413f 2e3a 90b2 0e3d
00000230: 4ab6 edbc 2460 f6bb 55ab 0bbd af61 90bc
00000240: e8cb 1a3d 5195 b8bd cb29 91bd 881b 40bd
00000250: 2f34 89bd f793 5c3d b4c9 93bc 21f4 89bc
00000260: e9e5 a0bc 8137 94bd 3d4e 9c3c db3c ae3d
00000270: 4916 77bc ec31 24bc fd04 fdbc a839 1cbd
00000280: 89ca 053d 3836 4abd 40d0 2eba 97b5 8a3d
00000290: bbe9 773d b635 803d 7a3b 9bbd 105f 1339
000002a0: 4dda ab3c 87e9 52bd 522e 3f3d cc0f a8bd
000002b0: d3e2 cd3c d50f e93c 6994 4f3d 5264 9a3c
000002c0: 2a8f 303d c212 1f3d aa86 b93d b66a fabb
000002d0: 4d17 0cbc 5061 b73c d280 b9bd 15fa 53bd
000002e0: cb3e 4cbc 5f04 29bd 831b 73bd f6fb f5bc
000002f0: ca09 febc 2e76 883d 446d 68bd b752 7bbd
00000300: 0052 5cbd cb54 8dbb bea2 523d 5e48 ae3d
00000310: 3cb8 34bc 032b b5bc 234d 83bc 5cdc 75bc
00000320: dd6c 173d d216 173d 8613 c6bc dcf2 8a3c
00000330: 03a1 4abd 9890 953a 745b 5b3d 21fc 75bc
00000340: 279b 0ebc aaab e63c dcca 9abd da66 513c
00000350: 1663 963d d355 783d fd47 a6bc 481e c0bc
00000360: 35aa 2f3d 621f 82bd a802 a63d f4d1 86bc
00000370: a695 8ebd 7939 16bd 82a7 1dbd b384 a9bd
00000380: ceff 8d3c 68f0 3ebd 91d0 1f3d 5cb8 eb3d
00000390: cc53 4b3d 937e 12bd dd4e 0dbd 8d3f 963c
000003a0: dd3c 593d 2cb7 b5bc b94f 223d 048e 413d
000003b0: f83b 2f3d e479 743c 0a11 0bbd 9fbe 93bd
000003c0: fc11 153d 12e0 453d 17af f4bc 0220 963d
000003d0: 6ebb 133d ba64 98bd 3cbe ccbb 9f08 b03d
000003e0: d52b b33c fcc6 09bc 0b8c 7f3d 9d2c 4cbd
000003f0: 0002 503c 7646 70bd 0e7a a3bb 760a acbd

l3.weight f4 [6, 256]
0.049801983 0.24937913 0.3067199 -0.054288495 0.09626943 -0.22650541 0.026913755 0.06845649
-0.12072791 -0.0073126205 0.19615322 0.18329667 0.024822026 0.046548575 0.030955458 -0.04320746
-0.27165926 0.022473069 0.03494017 0.09218583 -0.063724495 0.16601652 -0.1928174 0.07011224
-0.2266626 0.06674131 -0.13859785 -0.061355174 -0.061444845 0.11123067 0.054682422 -0.34720612
-0.05596433 -0.05145246 -0.124486946 -0.020767173 0.075105995 -0.117076784 -0.13435587 -0.038904667
0.17373377 -0.16892233 -0.04898811 0.1336991 -0.28608698 -0.12401981 0.14755058 -0.19604369
0.20252226 -0.14010991 -0.11247006 0.058520623 -0.0978457 0.09718747 0.33063996 -0.1501497
-0.007748686 -0.2538618 -0.025249777 0.1519904 -0.08767696 0.008178493 -0.19180936 0.007094334
0.10755511 0.21235828 -0.0037264335 0.24689926 -0.10299508 -0.09653964 -0.25053746 0.02275117
-0.018309023 -0.23003861 0.23390004 -0.08796438 -0.11317899 -0.066512436 0.014767317 0.15011548
-0.07202798 -0.2121775 -0.018646592 -0.06880286 -0.11672724 0.1276213 -0.109501764 0.17030947
-0.14966543 -0.080451146 -0.21711299 0.31446642 -0.08201725 -0.03431929 -0.33367682 0.17660512
0.16524042 0.35979664 0.16556872 0.036037967 0.10206627 0.07910304 -0.024069358 -0.24331862
0.039563116 -0.16822189 0.07790672 0.056467645 -0.4801891 -0.15189604 0.036409315 -0.26626173
0.21135512 -0.20924382 0.17378254 -0.15449345 -0.40087277 0.027956376 0.17473692 -0.042197023
-0.073058955 -0.17696509 -0.1397586 0.013212557 -0.061095234 -0.09613204 -0.24497087 0.12281242
0.1721476 -0.221635 -0.20012347 0.031018566 -0.152184 0.092883654 -0.103552066 0.22013085
0.18698251 0.061029147 0.2808924 -0.19626592 0.14600998 -0.20222464 -0.15133211 -0.024669107
-0.17637417 0.13019468 0.2480272 0.17709346 -0.14402008 -0.026364177 -0.17820176 0.07197691
-0.10098178 -0.12591921 -0.36724392 -0.3091863 -0.27678615 0.061220583 0.17594682 0.102495305
-0.056586392 0.020812651 -0.030251134 -0.012312457 0.15469797 0.07196395 -0.005076675 0.07560393
0.090166636 -0.014215401 0.033439696 0.07801421 -0.20396373 -0.30436847 0.0813477 -0.37416136
-0.17105193 -0.02350303 -0.027991446 -0.064003035 0.30630425 -0.043538462 0.082392104 -0.15478984
0.21266024 0.18912622 0.007277645 -0.22193399 -0.027552169 -0.36148742 -0.018077686 -0.047450975
0.2580791 -0.044262856 -0.2726775 -0.43565413 0.16258404 -0.032187402 -0.13878712 0.19637296
0.19355899 0.18041499 -0.1565598 -0.04361729 -0.27965617 -0.16324541 0.030502027 0.004052333
-0.0670486 -0.15319966 0.1147836 0.07350986 0.012308696 -0.3400114 0.16699405 -0.09271161
0.04877311 0.13872519 -0.051745933 0.019690232 0.010108327 0.120768264 -0.04410987 -0.08738785
0.09283304 0.14958273 -0.1248421 -0.16745207 0.20515208 0.107745446 0.039769236 0.047065277
0.10253919 0.09755851 0.08278093 0.051561687 0.011852642 -0.038741387 0.392957 -0.04002941
-0.082610264 0.26423487 0.11679087 0.039538935 -0.06414201 0.24529344 -0.3000127 -0.11817496
-0.005903998 0.020633936 -0.048265107 0.4304101 -0.17237209 -0.07715366 0.12895487 0.49816045
00000000: 2afd 4b3d 3e5d 7f3e 640a 9d3e 9d5d 5ebd
00000010: e828 c53d 09f1 67be 3c7a dc3c eb32 8c3d
00000020: 3240 f7bd b59e efbb 64dc 483e 1fb2 3b3e
00000030: 9057 cb3c b8a9 3e3d 4d96 fd3c 4efa 30bd
00000040: ec16 8bbe 7119 b83c 6c1d 0f3d edcb bc3d
00000050: fd81 82bd 3c00 2a3e ed71 45be 0297 8f3d
00000060: 3e1a 68be abaf 883d 98ec 0dbe 904f 7bbd
00000070: 97ad 7bbd e8cc e33d adfa 5f3d 00c5 b1be
00000080: da3a 65bd d1bf 52bd 03f3 febd eb1f aabc
00000090: 2cd1 993d f4c5 efbd 9694 09be 805a 1fbd
000000a0: 44e7 313e faf9 2cbe c2a7 48bd 6be8 083e
000000b0: fe79 92be 19fe fdbd 8017 173e adbf 48be
000000c0: ff61 4f3e f978 0fbe b456 e6bd 52b3 6f3d
000000d0: 5463 c8bd 390a c73d a449 a93e d8c0 19be
000000e0: b0e8 fdbb 2dfa 81be 9fd8 cebc 5fa3 1b3e
000000f0: fa8f b3bd 16ff 053c ac69 44be 9677 e83b
00000100: da45 dc3d 7374 593e 2e37 74bb 29d3 7c3e
00000110: 16ef d2bd 93b6 c5bd 7246 80be a960 ba3c
00000120: cefc 95bc 3e8f 6bbe 7e83 6f3e ab26 b4bd
00000130: 63ca e7bd ac37 88bd 9ef2 713c dfb7 193e
00000140: 6883 93bd 0f45 59be bdc0 98bc 84e8 8cbd
00000150: b10e efbd 28af 023e 7642 e0bd 9b65 2e3e
00000160: e541 19be 92c3 a4bd de52 5ebe be01 a13e
00000170: a9f8 a7bd 6292 0cbd b0d7 aabe f9d7 343e
00000180: c934 293e 4437 b83e d98a 293e 8c9c 133d
00000190: 1f08 d13d c600 a23d 1a2d c5bc 8428 79be
000001a0: ef0c 223d 5c42 2cbe 8f8d 9f3d 9e4a 673d
000001b0: 59db f5be a38a 1bbe ef21 153d 7553 88be
000001c0: 7a6d 583e 0344 56be 0df4 313e 8833 1ebe
000001d0: 323f cdbe c504 e53c 3cee 323e c9d6 2cbd
000001e0: ef9f 95bd 5636 35be e11c 0fbe 7b79 583c
000001f0: ff3e 7abd e0e0 c4bd a5d9 7abe 1485 fb3d
00000200: 7647 303e 49f4 62be 2bed 4cbe a61a fe3c
00000210: 1fd6 1bbe c939 be3d 1b13 d4bd fb69 613e
00000220: 5878 3f3e b3f9 793d 21d1 8f3e eff9 48be
00000230: a483 153e fa13 4fbe cef6 1abe de16 cabc
00000240: 6e9b 34be c151 053e d8fa 7d3e fd57 353e
00000250: 007a 13be b0f9 d7bc 867a 36be a168 933d
00000260: 89cf cebd f7f0 00be 6507 bcbe ab4d 9ebe
00000270: eab6 8dbe 6fc2 7a3d 672b 343e 0fe9 d13d
00000280: 22c7 67bd 4b7f aa3c 3ad1 f7bc 30ba 49bc
00000290: 2569 1e3e d661 933d 3d5a a6bb 3cd6 9a3d
000002a0: 49a9 b83d b7e7 68bc 10f8 083d eac5 9f3d
000002b0: dedb 50be 2fd6 9bbe 9f99 a63d 1492 bfbe
000002c0: 3d28 2fbe 6d89 c0bc 514e e5bc 0614 83bd
000002d0: e9d3 9c3e 6355 32bd 31bd a83d 3a81 1ebe
000002e0: 9bc3 593e 4eaa 413e 5079 ee3b aa42 63be
000002f0: 16b5 e1bc e114 b9be a817 94bc f45b 42bd
00000300: f222 843e f84c 35bd 639c 8bbe 0f0e dfbe
00000310: 6e7c 263e f0d6 03bd 361e 0ebe fe15 493e
00000320: 5434 463e b5be 383e 3651 20be 0ba8 32bd
00000330: 182f 8fbe ce29 27be 63df f93c 6fc9 843b
00000340: c750 89bd 5fe0 1cbe aa13 eb3d 568c 963d
00000350: 6aaa 493c f915 aebe 7d00 2b3e 96df bdbd
00000360: 50c6 473d fa0d 0e3e 8bf3 53bd 694d a13c
00000370: 659d 253c 5a55 f73d 8dac 34bd 67f8 b2bd
00000380: 401f be3d 372c 193e 37ad ffbd 8e78 2bbe
00000390: 6313 523e a5a9 dc3d 11e5 223d 85c7 403d
000003a0: 1100 d23d c2cc c73d 0c89 a93d 5932 533d
000003b0: 9531 423c 4aaf 1ebd a931 c93e e1f5 23bd
000003c0: 922f a9bd cb49 873e 0d30 ef3d 94f3 213d
000003d0: e35c 83bd 342e 7b3e 449b 99be b705 f2bd
000003e0: 5376 c1bb 8008 a93c a2b1 45bd b65e dc3e
000003f0: 4f82 30be bd02 9ebd bf0c 043e e30e ff3e

l3.bias f4 [6]
-0.054647636 -0.12805474 -0.07106885 -0.13548777 -0.012062475 -0.12288933
00000000: 33d6 5fbd c820 03be 8c8c 91bd 4ebd 0abe
00000010: b0a1 45bc 67ad fbbd
