Bot/data.pth (torch, 309087 bytes, 6 tensors)

l1.weight f4 [256, 35]
00000000: 27ed 23be f6c5 b3bd fdee 29be 0a8b 58be
00000010: fc2a 403e 0c4a eebd 8a62 7ebd 0cb1 c43a
00000020: ee82 b63b d391 14be 9a2a 173e 4ec5 ed3b
00000030: 6c6c 313e 1841 98bd e930 a13c e260 2dbe
00000040: c655 b7bd 9b57 143e 09e2 3d3d ff99 17be
00000050: 9de0 523c 8a12 21be f88c 24be e093 42bd
00000060: a0c9 d03d 53dc 0a3e fd2f 9b3e a231 c0bd
00000070: a5ad a5bc 0941 083e c880 47be 5231 6f3d
00000080: 32d1 63bd b972 343e 3e93 2ebe 90c2 983e
00000090: d065 193d d84b c23c 2d08 ae3b eb4f d4bd
000000a0: b279 923d 5eaa 153c b9d1 7bbd c73d b4bd
000000b0: 7ef0 67bc 8d66 a43d f0c6 ebbd 6ac1 ebbd
000000c0: 89a5 893c 7fb7 e93d c3a8 a23d 47a8 f0bd
000000d0: 761c cfbd ec98 913d e6e6 173e 1cf1 28bd
000000e0: 1c25 d43c a5a3 f9bd eabf 103d 81bb 833d
000000f0: 1526 2ebd 94f8 2ebd bf29 1bbe d20e 9b3d
00000100: 2ac9 1a3e 531d 573e 3992 303e a451 aa3b
00000110: 4742 f4bd 8536 90bd d848 6ebe 1baa 3fbe
00000120: 98c0 edbd 2826 59bd d7eb d2bd a5d5 8e3c
00000130: 2cd3 1c3e 1818 b93c 442c 873d e86f 42bd
00000140: 1431 e6bd f708 6c3e c8a7 1e3d 581a 7ebc
00000150: 6985 51be 8414 d63d 0ee7 8fbc 25fb 493e
00000160: d0f7 cf3d cfbb 2e3d 865d 0d3d 5fa2 86bd
00000170: 587e fcbd 36b9 81bd 0bb6 bbbd 341b 78bd
00000180: fb91 033e e235 1bbd 5539 8b3d fed3 4fbd
00000190: 7bfa 0abe bb91 91bb 6105 913d 9eca 7abe
000001a0: 4ee2 82be 158d 7dbe 5f18 a83d 001a 2a3e
000001b0: 17ca cdbd eef3 00bc 3d86 863d 0392 ce3b
000001c0: fdc1 a1bd 7ba0 6a3e e1a7 9b3d e7a5 dbbc
000001d0: 799c 823e 00d2 49be 404b 9ebd 68e7 90bc
000001e0: 7e55 03bc 4a95 08bd 8c86 4c3e 6e54 123e
000001f0: 1258 c43d 8181 973c c2d0 8ebd 8de0 09be
00000200: a75b 2a3d 5ea7 4fbe 187e b6bd fc26 0dbb
00000210: 9884 a93d 1cf6 2dbe ab40 b13c fe37 883e
00000220: f37d 25bd 5903 a63c 6dbf e23d 3b85 743d
00000230: 0027 883c f80d 9a3c 5a5e 16be 20df 18be
00000240: 267d 27be a65a a3bd 50fd 84bd 2d99 923c
00000250: bbd9 5d3c 5302 f9bd e042 67bd 01f0 413d
00000260: 1328 d7bd cff6 b13d 9c33 03bb 1dc2 cabd
00000270: 8dc1 043c 8fe0 4d3e 0c00 c33d f880 7d3d
00000280: 8ec5 143e f86e 0e3d 98f2 ee3d 614e 4bbd
00000290: de1a dc3d e05f aa3d 0854 823e d41d 37be
000002a0: bdea 0c3d 94c1 2dbd 3d6e 1d3e 6ea5 fa3d
000002b0: 0d9d c2bb 91aa 1ebe bda3 e23b ee5c 133e
000002c0: 2be2 d93d 58ec 593c 6348 463e 7665 0b3e
000002d0: d9cb d3bd 7846 a0bd e992 bc3c 5bf8 3fbd
000002e0: 0b22 47bd 23fe 02be cd84 b4be 7466 12be
000002f0: e7df 14be 6762 77bc 964d a4be 1e71 16bd
00000300: 9cf0 91bc b905 98bd be4e 063e 29fe 173e
00000310: bf96 b83d 8419 803e 68a7 ebbd ffa9 62bd
00000320: b390 553c d68a 9cbe bc48 b33e ee1e adbd
00000330: 3db9 c4bd 3ba3 303e 0841 16be 4b2d a73d
00000340: 43a6 a6bc b488 b53d e7ad a3bd 7717 0bbe
00000350: 3739 46be f7d4 61be d25f 4a3e 56ae 8f3d
00000360: 211e 72bd db29 ce3d 9bdf 40be 4324 163e
00000370: 6112 a73d 8eb0 99bd 437f 683e cc18 f1bc
00000380: d887 01be e51a 2dbe ed2b 60be 3f39 0bbe
00000390: 7e6b de3d ae93 bfbd 1f48 8cbd e0b4 043e
000003a0: 1123 c6bd 9a86 d7bc 8484 89bd a341 163d
000003b0: 5d93 883e e59c 4bbe 4096 06be 4e09 f7bd
000003c0: 5527 64be 6c32 04bc 9300 543d be57 bc3d
000003d0: 9894 71be b6f0 823e 7d8e e0bd e948 58be
000003e0: d5d2 563d c638 263e 653e 153d a54f 48bd
000003f0: 058f 393e 827b d7bd cb9c 023e 7879 1e3e
-0.16008435 -0.087779924 -0.16595073 -0.21146789 0.18766397 -0.11635217 -0.062105693 0.0015006377
0.0055698073 -0.14508753 0.14762345 0.0072561866 0.17326516 -0.07434291 0.019676642 -0.16931489
-0.08951907 0.14486544 0.046358142 -0.14804839 0.012870935 -0.15729728 -0.160694 -0.047504306
0.10194707 0.1356061 0.3031005 -0.09384467 -0.020224402 0.13306059 -0.1948272 0.058396645
-0.055619426 0.17621888 -0.17048356 0.2983594 0.03745061 0.023717806 0.005311033 -0.10366806
0.07152118 0.009134857 -0.061479304 -0.088008456 -0.014156459 0.080273725 -0.11512554 -0.115115
0.016802566 0.11411952 0.07942345 -0.11750846 -0.1011285 0.07109246 0.14834175 -0.041245565
0.025896601 -0.12189416 0.035339274 0.06432248 -0.042516787 -0.04271753 -0.15152644 0.07571186
0.151158 0.2100728 0.1724328 0.0051977206 -0.11926704 -0.07041649 -0.23269975 -0.18717234
-0.11609 -0.053014904 -0.10298889 0.017435858 0.1531493 0.022594497 0.0660024 -0.047470003
-0.1123983 0.23050295 0.038734227 -0.0155092105 -0.20461048 0.10453132 -0.01756623 0.1972471
0.10154688 0.042659577 0.03451302 -0.065739386 -0.12328786 -0.06334154 -0.09165581 -0.060572818
0.12848656 -0.037893184 0.067980446 -0.05073928 -0.13572113 -0.0044424213 0.07081104 -0.24491355
-0.25563282 -0.2476085 0.082077734 0.1661148 -0.10048311 -0.007870657 0.06568573 0.006304027
-0.078983285 0.22912781 0.0760038 -0.026812507 0.25510004 -0.19709015 -0.077291965 -0.017688468
-0.008015988 -0.0333455 0.199732 0.1429002 0.095871106 0.01849437 -0.06973411 -0.13464566
0.041591313 -0.2027869 -0.08910769 -0.002153813 0.082772434 -0.16988415 0.021637281 0.2660522
-0.040403318 0.020265268 0.11071668 0.05969737 0.01662016 0.018805489 -0.1468443 -0.14928865
-0.16356334 -0.07976274 -0.06493628 0.017895306 0.0135406805 -0.121586464 -0.05646026 0.047348026
-0.105056904 0.08689653 -0.0020019775 -0.099003054 0.008102787 0.20105194 0.09521493 0.061890572
0.14528486 0.034773797 0.11667365 -0.049635295 0.10747312 0.08319068 0.25454736 -0.17882472
0.03440355 -0.04242094 0.15374084 0.122385845 -0.005939132 -0.15494753 0.006916492 0.14390919
0.10638841 0.013300978 0.19363551 0.13612923 -0.10341615 -0.07825941 0.023019271 -0.04686771
-0.04861645 -0.12792258 -0.3525757 -0.14296895 -0.14538537 -0.015099145 -0.32090443 -0.03672897
-0.017814927 -0.074229665 0.13115975 0.14843048 0.090131275 0.25019467 -0.115065396 -0.055337902
0.013034987 -0.30574673 0.3501643 -0.08453165 -0.09605644 0.17249767 -0.14673245 0.08162936
-0.020342952 0.08863965 -0.079921536 -0.1358317 -0.19357763 -0.22053896 0.19763115 0.07015674
-0.059110764 0.10066577 -0.18835299 0.1466227 0.081578024 -0.07504378 0.22704796 -0.02943077
-0.12649477 -0.1690479 -0.21891756 -0.13596056 0.10860346 -0.093543395 -0.068496935 0.12959623
-0.09674657 -0.0263093 -0.067147285 0.03668369 0.2667493 -0.1988407 -0.13143253 -0.120623216
-0.22280629 -0.008068662 0.05175836 0.09196423 -0.2359184 0.25574273 -0.109646775 -0.21121563
0.05244716 0.16232595 0.036436457 -0.04890408 0.18120964 -0.10521604 0.12755124 0.15476024

l1.bias f4 [256]
00000000: 9231 323e 3b24 063e 00fa 49be a877 a33d
00000010: f4b8 97bd 58c9 24be 1d4a 40be 3a6c 16be
00000020: 9d78 dcbd 2cff 1c3e 7369 183e 3cca 03be
00000030: b768 813d 8f39 2b3e 3334 33be 58d7 f9bd
00000040: 0f06 283e 30ce f53d fb8f a7bd 70b4 b33c
00000050: 303d 3bbe 2abc ce3d 2f96 26bd 1ced f13c
00000060: b9cb da3d def9 153c a175 f7bd 3b11 00be
00000070: 1a69 4e3e a63e 063e 84a2 23be f1fa 31be
00000080: 929a cfbd 8848 2ebe 0865 77bc dbf3 b5bd
00000090: 4db9 643d 649a 12be 1614 0ebe 2470 b33c
000000a0: fa11 e2bd 5c4d 0ebe 3c6d 67be 7612 e1bd
000000b0: b083 66bd be11 11be c228 90bd b4bb 0cbe
000000c0: 2bad 553e 9030 31b5 1f18 153e ff8a e0bd
000000d0: fe6f 2dbd 227c d23d 014b 9f3c 011c e43d
000000e0: 7201 45bd 8625 f03d 5361 98bb c9a8 893c
000000f0: c812 da3d 98e1 fdbd 00a0 2cbe eaf1 d23d
00000100: 2a9f 093e d889 fdbc 7d1d cd3d 1fc1 3b3b
00000110: e007 7f3c 5a00 93bd c5c7 0c3e a2f1 603d
00000120: 73e7 1f3e dc5b 593e de95 ee3b 114e 8cbc
00000130: 4d3b 213d 7e1a 88bd a368 2ebe a447 19ba
00000140: c0e3 23bd 0dda 25bd a19d 21be 9573 c93d
00000150: ca42 ae3c 88cb ab3d a7e7 2ebe 547b e2bd
00000160: 8452 a2bd 2780 e9bd b17e 4c3e 606e 273e
00000170: 8e54 ce3d 6837 32ba 2648 103e d484 5b3d
00000180: 4d9d ab3d 546f 22bb db82 ffbd dcf7 7c3e
00000190: ac45 efbc ebea 46bd 924f d8bc 2843 bdbd
000001a0: 8a54 15be 014b 46be de05 cb3d 1738 f33d
000001b0: 6898 98bd 392a 05be 995b ef3d 4670 9abd
000001c0: 39e8 4abe e9b4 6bbd 12ef 1a3e 0ce0 6ebe
000001d0: fddd 333e 57ca 9fbd f0ac 6b3e 9843 343e
000001e0: 79f6 243e 7b5c 4c3e 06f8 693e 16e9 f83d
000001f0: 531e c4bb ceab bb3d d44c 3bbe 5e0a 223e
00000200: e993 0c3e 0442 19be 7317 4b3e bedb c2bd
00000210: 80ed f0bd fae0 0fbe 1dea e43c 39d2 183e
00000220: 9062 75bd 2262 3ebe e399 9cbd 71ce 4f3d
00000230: edfa d9bd 036d 79bd 512e ff3d e6ca b0bd
00000240: e4e4 ac3b c24c 0bbe 7fe8 a0bb e131 dcbd
00000250: 9aa6 013e bf0c 743d 38bb 94bd 3481 08be
00000260: 7bd2 10bd ac6e b7bd ff45 43be f375 573e
00000270: 6ed0 fd3d 0d73 163c ff0e 4dbc 2013 7bbd
00000280: d9d2 04bd 2a21 063d dcc6 433e b93a cbbd
00000290: 5430 fa3c f503 3f3e 635e 03be aa32 e33d
000002a0: 1ad1 88bd ba8b 36be 1c2e d03d 4df7 0e3e
000002b0: 25ce 163e 6d60 763d 7627 893d 11b1 323e
000002c0: 5de9 0ebe d9a4 0bbe d329 bb3d 7a03 933d
000002d0: b7e5 69be b42e 23be 7871 f7bd 1760 7abd
000002e0: 08d3 e43d d1a8 3d3d c176 25be 2a53 4cbc
000002f0: e8b7 5cbe ecf0 9e3c 26cd 4dbd b8be 85bd
00000300: 58f7 0e3c 1466 6f3d 1259 09be aad0 903d
00000310: 1ee5 743d 332f 573d c18e 5a3d 2351 873d
00000320: 12a7 a33d dc86 d1bd d0dd 2d3d f241 03be
00000330: 1dc2 95be e83f aa3d c5b4 02be 46d7 a7bc
00000340: e966 28bd 6505 c33d be43 ccbd aba0 063e
00000350: be0e 9dbd 4813 d13d 7f92 293e 2bd6 c63d
00000360: 02e5 45be 0cea 5cbe 29a5 acbc 31d6 cbbd
00000370: d51f a9bd 97a1 22be 20e1 08be 2414 16be
00000380: b739 62bc 10da 043c 12f0 3f3e 5fb8 683b
00000390: a36a 213e 6a1c 173c a3fd 2abe c64e d33d
000003a0: f8a1 f23d b69c 463c 62e8 483e ad0d 13be
000003b0: 0195 823d ab52 22be 0dda 7f3d e789 57bd
000003c0: f2bc f2bd ca58 76be db70 273e a6ce 09be
000003d0: 1528 46bd 8243 253e 6824 10bc 3f55 3bbe
000003e0: 19c2 2f3e da94 10be 50b9 e8bc ad96 24bd
000003f0: 0908 12bd 992a 03be 21e7 2bbe 9df8 bdbd
0.17401722 0.13099758 -0.19724274 0.07981807 -0.07408324 -0.16092432 -0.18778272 -0.14689723
-0.10765193 0.15331715 0.14883976 -0.12870115 0.06318801 0.16721176 -0.17500381 -0.12199277
0.16408561 0.12002218 -0.08181759 0.021936625 -0.1828506 0.10094483 -0.04067057 0.029532008
0.10683388 0.009153811 -0.12082983 -0.12506573 0.2015728 0.13109836 -0.15979964 -0.17380883
-0.10136904 -0.17019856 -0.015099771 -0.08884402 0.05584078 -0.14316708 -0.1387485 0.021904059
-0.11038585 -0.13896698 -0.22600263 -0.10989849 -0.05627793 -0.14166924 -0.07039024 -0.13743478
0.2086684 -6.6008306e-07 0.14559983 -0.109640114 -0.042343132 0.10277583 0.019444944 0.11138154
-0.04809708 0.11725907 -0.004650274 0.016804116 0.106481135 -0.12396544 -0.1685791 0.10300048
0.13439623 -0.030949518 0.1001539 0.0028649045 0.015565842 -0.071778014 0.13748081 0.05491794
0.15615635 0.21226448 0.007281049 -0.017127069 0.039363194 -0.06645678 -0.17032103 -0.0005847162
-0.04001212 -0.040491153 -0.15782787 0.09836499 0.021272082 0.0838843 -0.17080556 -0.11058679
-0.07925895 -0.11401396 0.19970204 0.16350698 0.10074721 -0.00067984173 0.14090022 0.05359347
0.08379612 -0.0024785595 -0.124761306 0.24703926 -0.029208027 -0.04856388 -0.02640513 -0.09241325
-0.1458303 -0.19364549 0.099132285 0.11875933 -0.07450944 -0.13004388 0.11687393 -0.07540946
-0.19815148 -0.057545576 0.1513026 -0.23327655 0.1756515 -0.07802265 0.23015189 0.1760391
0.16109647 0.19957153 0.2284852 0.121538326 -0.0059850602 0.091636285 -0.18291026 0.15824267
0.13728298 -0.14966589 0.19833164 -0.09514569 -0.117640495 -0.14050665 0.027943665 0.14923944
-0.05990845 -0.18592122 -0.07646539 0.050733987 -0.106435634 -0.060894977 0.12460006 -0.0863245
0.0052763093 -0.136035 -0.004910528 -0.10751701 0.1266121 0.059582468 -0.07262272 -0.13330537
-0.03535698 -0.08956656 -0.1906967 0.21041088 0.123932704 0.009182704 -0.012515782 -0.061297536
-0.032427642 0.03274647 0.19118828 -0.0992331 0.030540623 0.18653853 -0.12828974 0.11093648
-0.06680508 -0.17826739 0.10165045 0.13961525 0.14727075 0.060150553 0.0669698 0.17450358
-0.13956209 -0.13637103 0.09138837 0.071783975 -0.22841536 -0.15935785 -0.12082189 -0.061126795
0.111730635 0.046303574 -0.16158582 -0.012471 -0.2155453 0.01940199 -0.050244473 -0.06530517
0.0087259635 0.05844696 -0.13412884 0.070710495 0.059788816 0.052535247 0.053358797 0.066072725
0.079908505 -0.102308005 0.042447865 -0.12818125 -0.2924966 0.083129704 -0.1276427 -0.020488393
-0.041113768 0.09522513 -0.09973858 0.13147227 -0.076688275 0.10208756 0.1655979 0.09708818
-0.19325641 -0.21573657 -0.021074848 -0.09952963 -0.082580246 -0.15881954 -0.13367128 -0.1465612
-0.013807706 0.008108631 0.18743923 0.0035510284 0.15763335 0.009223083 -0.16698317 0.10317759
0.11847299 0.012122324 0.19619897 -0.14360686 0.063760765 -0.15851848 0.06246381 -0.05262175
-0.11852445 -0.24057308 0.16351645 -0.13457736 -0.04837807 0.16139033 -0.008797742 -0.18294238
0.17163886 -0.14119282 -0.028408676 -0.040182758 -0.035652194 -0.12809218 -0.16787387 -0.09275935

l2.weight f4 [256, 256]
00000000: 3b99 a1bd f1d6 813d 8141 c1bd 7144 cbbd
00000010: 5930 a4bc c176 143e 5ccc a7bd e0fd 763d
00000020: fe26 8b3d 6d91 f93c f207 52bc 802e 7a3d
00000030: fc7b 35bd ac10 5c3d 3431 bc3d 282b d63b
00000040: be5d 95bd 0956 3cbd 4db2 6ebd a331 80bd
00000050: eee9 2c3d e0ae c1bd 6c3c 78bd 68e6 ad3c
00000060: 688a 0f3d 0761 8bbd 13ba 3c3d 499a 913d
00000070: b3a6 ecbd 2f6b 4a3d 2059 99bc 9a63 8ebd
00000080: 8c99 8a3d 71bd 343d 969d f43d eb54 a4bb
00000090: 20d0 13bc ee55 47bd aaa5 b43d 9141 283d
000000a0: 20c9 59bc 3ffd c33d 7db8 3f3d 08f1 403e
000000b0: 3518 f5bc b1f2 e7bd 7505 ad3d 224a 56bd
000000c0: fe85 11bb 133c 823d 954c 25bd 7d3f da3d
000000d0: e9b7 053e b7dd b3bd 2437 883c d29e 223d
000000e0: 3c25 72bd c7e2 84bc 8bb9 19bd 9a96 c63d
000000f0: 1352 603d 5884 843d beef 8c3d cbb2 963c
00000100: fd63 b33c ab61 d3bd 24f1 d0bd e206 cebc
00000110: 901e 06be fdfb dc3d ca88 f4bd 07b4 e43c
00000120: b784 02bc a58c 11bd 880b 943d a78d 9f3d
00000130: 6458 ffbd 6894 8e3d f896 a43d ac45 fb3d
00000140: 2ad2 b73d 2086 8dbd f283 a0bd e12d 163c
00000150: 35dd e2bc 8114 edbd b5b3 9e3d 5cc5 603d
00000160: 8295 f2bc ee60 c13d 94b9 acbd ef3b a3bc
00000170: 2863 3fbd d2af 793d 2151 803d 3b83 16be
00000180: b236 97bd 1d27 d13d 8177 3dbc 17ba 943c
00000190: fcf1 86bd f7d1 c9bb 940a 66bd f12b 1f3e
000001a0: af7a 49bc d514 3b3c 194b e53d abda 89b9
000001b0: f0c8 e93b 5de0 0bbd 00cc 003e d753 5b3d
000001c0: 4a0a 9d3c 7221 e1bc 7c11 59bd dd7d 993d
000001d0: 1e5b 50bc 529d c73d 4773 b4bd faa0 c23c
000001e0: f5aa febd 202f 85bd 3c24 84bd e246 af3c
000001f0: 2994 74bd 1f15 72bd 3adf 993d 90ee c2bc
00000200: 6747 573d f2d1 84ba 6303 4abd 2efb b03d
00000210: dfa3 423d 61f5 3dbc aafc bc3c f8ed 4a3d
00000220: 9961 de3d 3f51 b93d 119f bcbc 4cb5 50bd
00000230: 63b7 90ba 4ef5 6dbb 0ffa 993c a313 633d
00000240: 3bf0 07bc 2cb9 523d cb48 053d 39ff 7b3d
00000250: 9fd8 2fbd 8f76 a5bb 9258 163e dd4c 963d
00000260: 8150 933d b909 553d cb8e 973c e94e 0d3d
00000270: 967c ddbd f8bc 5c3c d143 babd f80d e23d
00000280: ff45 7ebd 4185 31bd c391 f9bc b8a3 54bd
00000290: 6012 efbd a408 f1bd bdab 20bd 3086 3a3d
000002a0: f236 1a3b 7f16 a93c 7f04 febd 3dfe a8bd
000002b0: b73a e43c 70fc 1abd 1e53 01bd f99b 4d3d
000002c0: c466 6e3d e74f 163d f812 4d38 ec83 9cbd
000002d0: 8c69 2cbd 8fb1 6e3d e2db 3bbd b330 223b
000002e0: 767f e93d 47d8 be3d 374b d3bc 49f5 04bd
000002f0: a6a8 233d 0b7f 6fbc 15d3 1b3d b385 5d3d
00000300: 493e d73c fbff 8fbc d765 793c 976a 003e
00000310: d9a5 8abc 5680 06be 52d3 20bd d0d0 ddbc
00000320: 3bff 6a3c 8ba6 9e3c 34b8 983c 3dc9 863a
00000330: 4667 8abc d9af 71bc 8d4b a03c 9a55 ea3c
00000340: 32f3 18bd 439d 43bd 9b8a 1c3d 8218 75bd
00000350: c497 e2ba cd16 ab3b 8bd6 0bbe 7abc 513d
00000360: 6e91 923d 83ff 35bd 34cc b4bd cc2d 37bc
00000370: 6dde 943c ac03 db3c 987d a9bc 22c1 d63d
00000380: 4407 5a3c 2ae5 5d3b 3a9b 55bc de30 853d
00000390: 7e00 11bd 3a65 b5bd af99 34bd 9b3f 37bd
000003a0: 62ee 363d 838f 01bd d2a6 dfbd df44 d6bd
000003b0: f380 8ebd 6099 87bd bf99 37bd 9e86 073c
000003c0: 9893 093d 998b 853d ccf0 37bd 37d8 07bc
000003d0: 68e6 18bd b165 283d 1901 d23c a3da 21bd
000003e0: 8f15 32be b79f 3a3d 8038 013d d979 0c3e
000003f0: 4157 1a3d 31ac f43c 14e2 ed3c 9f9b ffbc
-0.078905545 0.06339825 -0.09436322 -0.099251635 -0.020042585 0.14498426 -0.08193275 0.060300708
0.067945465 0.030464852 -0.012819277 0.061079502 -0.044307694 0.053726837 0.09189072 0.0065359063
-0.072932705 -0.045980487 -0.05827551 -0.062594675 0.04221528 -0.09457183 -0.060604498 0.02122803
0.035044104 -0.06805616 0.04607589 0.07109506 -0.11555233 0.049418624 -0.018719256 -0.06952591
0.06767568 0.044125978 0.1194412 -0.005015006 -0.009021789 -0.048665933 0.088206604 0.041078154
-0.013292581 0.09569787 0.0468068 0.18841946 -0.02991877 -0.113255866 0.084483065 -0.052316792
-0.002220511 0.063591145 -0.040356237 0.10656641 0.13058437 -0.08782523 0.016627856 0.039702244
-0.05911754 -0.016221417 -0.037530463 0.09696694 0.054765772 0.06470555 0.06881665 0.018395802
0.021898264 -0.10321363 -0.10202244 -0.025149766 -0.13097596 0.107902505 -0.11940153 0.027917875
-0.007966212 -0.03553452 0.07228762 0.0779069 -0.12468031 0.069619 0.080366075 0.12269148
0.089756325 -0.06910348 -0.078376666 0.009166212 -0.02769337 -0.115761764 0.0774912 0.054875717
-0.029612307 0.09442316 -0.08433834 -0.01992604 -0.046725422 0.06095869 0.06265474 -0.14698498
-0.07383479 0.102125384 -0.0115641365 0.01815514 -0.065891236 -0.006159063 -0.05616243 0.15544106
-0.012297316 0.011418541 0.11195964 -0.00026293597 0.0071345493 -0.034149516 0.1257782 0.053546753
0.019169945 -0.027481768 -0.05299519 0.0749471 -0.0127170365 0.09746803 -0.0881105 0.0237584
-0.12434951 -0.06503129 -0.06452224 0.021396104 -0.05971161 -0.059102174 0.0751328 -0.023795396
0.05255833 -0.0010133369 -0.049319636 0.08641659 0.04751956 -0.011594147 0.023069698 0.04954335
0.10858459 0.090486996 -0.023025068 -0.05095415 -0.0011040982 -0.0036309543 0.018795995 0.05543865
-0.0082970215 0.051446125 0.032540124 0.061522696 -0.042931195 -0.0050495337 0.14682224 0.07338879
0.07193089 0.052011225 0.018500706 0.034499083 -0.108147785 0.013472788 -0.09094966 0.110378206
-0.062078472 -0.04333997 -0.030465012 -0.051913947 -0.11673427 -0.11769226 -0.039226282 0.045538127
0.0023531285 0.02064061 -0.12403201 -0.08251617 0.027860029 -0.0378384 -0.031573407 0.050197575
0.058203474 0.036697295 4.8893475e-05 -0.076423496 -0.042092845 0.0582748 -0.045863993 0.0024748265
0.11401264 0.093185954 -0.025792701 -0.032460485 0.039955758 -0.014617692 0.0380431 0.054082584
0.026274817 -0.017578116 0.015222034 0.12540661 -0.016924785 -0.13134894 -0.03926403 -0.027077109
0.014343078 0.019366523 0.018642522 0.0010283362 -0.016894948 -0.014751398 0.019567275 0.028605271
-0.037341304 -0.0477574 0.038218122 -0.059837826 -0.0017287661 0.005221224 -0.1365606 0.051205136
0.07156645 -0.044433128 -0.08828011 -0.011180352 0.018172467 0.02673515 -0.02068977 0.10486056
0.013307396 0.0033858516 -0.013037497 0.06503461 -0.03540086 -0.08857198 -0.044091877 -0.044738393
0.044660933 -0.031631004 -0.1092049 -0.10462355 -0.06958189 -0.06621051 -0.044824358 0.008271841
0.033588022 0.06520767 -0.044907376 -0.008291296 -0.037329108 0.041112605 0.025635289 -0.03951515
-0.17391036 0.045562472 0.031548023 0.13718356 0.037680868 0.029867264 0.029038467 -0.031202136

l2.bias f4 [256]
00000000: 2ccd 0d3d 8def 41bc cf39 b93c 3349 9cbd
00000010: 2234 4fbd 3412 59bd 7537 44bc da6d d6bc
00000020: ee32 c03d c588 5ebc 9ac8 153d cdd3 573d
00000030: 865a 0c3d eea8 913c fedb e2bc 1af9 8ebd
00000040: a57a 5cbc 5112 b2bc 94cd 57bd 9320 693c
00000050: 4345 173d e52e 803c 5f3f 1abd ca6e f8bc
00000060: c4a1 1ebd 44c9 a13d fb8d cabd 2370 473d
00000070: b2e9 10bd 9dcf aa3d a00b 663d d4f6 b63d
00000080: e98a 223d 04ba 0c3b 2487 133d 43c0 a33d
00000090: 03c3 c03d ffd4 1c3c 21d0 0f3d 949b 803d
000000a0: 63be 1c3d e839 e63d 9b3b 003d ef40 c33d
000000b0: 7d41 3dbc 6138 0ebd 8e69 303d 1244 223d
000000c0: e888 b63d a540 293d f3e2 c6bd 74fe 3bbd
000000d0: c3ec 753c 6379 343d 7a67 a0bc f021 b2bc
000000e0: dbdd bdbd 389b 3c3d 8b09 703d f91e c0bd
000000f0: 0d2a 2dbd 9c47 0a3d 3d40 d2bd 6db4 233d
00000100: ef44 b5bc 891d 583c 0fcc 22bd 2516 a3bd
00000110: 4dad b63c 4f9d bbbd ec6c 3fbd da84 a73c
00000120: 9d13 eebc 0709 ad3c c9e7 613d 06db b3bd
00000130: 397e 6bbd 3249 aa3b 5a24 a13d 102e 1a3c
00000140: e5f5 b13c e271 523d aaed 27bc b0ad 553d
00000150: 11e7 99bd eab4 59bc 7da8 833c 8024 0cbd
00000160: cbe6 a8bc 4987 25bc a4da 55bc de75 f53d
00000170: 1865 81bc a5ea 353c d4bf a0bd 6622 273d
00000180: fe2a 623d ea42 673d 80f2 c03d 1836 e53c
00000190: d824 88bd 09ab e0bd 119e 383d 7acc 963d
000001a0: 1fc2 0fbd dfe0 033d 0e60 96bd 0efb 403c
000001b0: b8fe 70bd b8a0 d0bb c434 89bc a4f8 793d
000001c0: 7e82 e63c fb64 06bd 5885 41bb 6f3d d0bd
000001d0: cb64 c53c 332c 7c3d 377e b43c cdd2 233d
000001e0: 4fcc 8abc 5241 b2bc 3984 eb3c ac2a 6c3c
000001f0: 6f36 283d d283 033c d28f 76bc d85b de3d
00000200: 71f8 1d3c 0460 48bd 9db1 cfbc 907e 0a3c
00000210: a5d7 16bb 3671 26bd eac0 00bd c1e6 59bd
00000220: 4f47 eb3c 6150 65bd d16e 38bd adb9 153d
00000230: 482d 233a 4cb6 bc3c 39c7 32b9 4872 8a3d
00000240: 8dfa 80ba 5a4f 883d 261f a23d d777 19bd
00000250: a377 de3c 4f99 0ebd 7045 a5bd d7b7 8cbd
00000260: 7431 98bc dbf9 94bd ee86 dfbd a87e bab9
00000270: d3e5 373b 171e 133d 315f b2bd 99ad 48bc
00000280: cd94 a13d f152 8cbd 216d d1bd b14c 153d
00000290: 6a32 97bd a676 04bd 8b2f 9bbd 028f 163d
000002a0: 275b 9abd beca 733d d78a edbd 665b bd3a
000002b0: 588d 36bd 86c2 72bc f10c c4bd 48bf d03b
000002c0: 0e8c 7dbc c815 5abd 24ea c03d cf55 b2bd
000002d0: e815 c53c f3cf e4bd b445 073d 44bb ff3c
000002e0: f81d 183c 5d8b 29bd 92ec 9c3d 6612 49bd
000002f0: f814 2ebd ccf2 423d 3a05 a13c 1b88 163c
00000300: 7473 5d3c 5976 e0bb e51a 7dbc 14ee 483d
00000310: dfb1 483d 0db0 06bd b4f6 83bd 932b ecbc
00000320: e8db 8e3c 23df 8f3d a05f b8bd 9712 a1bc
00000330: 460c ec3c 7198 1dbd 9745 c4bc da85 b5bd
00000340: 890e 3c3d 503e 36bd 4656 5abc 0e63 4ebc
00000350: cafc 273c 0540 ddbb c7a1 33bd 4ea7 94bd
00000360: ae67 f4bc f4e1 5a3d 31a8 dbbc 5ada 4d3d
00000370: d2fd 88bd a99d 17bd 92bf 34bd bb94 edbc
00000380: bc69 24bd 64c9 a0bc 7a81 dc3c 92ac 68bd
00000390: 832c 5f3d 7d46 863d 236f e1bc 5410 0abd
000003a0: bf2f ddbc 13cd 4abd 1c46 b13c 7dca 87bc
000003b0: 6231 76bd 1592 33bd d3d9 883b de26 43bd
000003c0: cec9 773d 87c5 113d 3bcf f53c 210c e73a
000003d0: c7a6 183c 2fd7 b83d 3807 63bd 8d8d bf3b
000003e0: 816f 21bd 8d40 5b3c 31c5 083d d081 afbb
000003f0: 7c8d c03c bf3a 58bd 0953 4a3d ac2d 3cbb
0.034619495 -0.0118368985 0.022610573 -0.07631149 -0.050586827 -0.052995875 -0.011976113 -0.026175428
0.09384714 -0.013582413 0.03656826 0.052692223 0.034266017 0.017780747 -0.027692791 -0.06981106
-0.013456975 -0.02173725 -0.05268629 0.014228958 0.036931287 0.015647361 -0.03765809 -0.030326266
-0.03872849 0.078997165 -0.09890362 0.048690926 -0.03537912 0.0834038 0.05616343 0.089337975
0.039683256 0.0021473179 0.036017552 0.079956554 0.094121955 0.009572267 0.035110597 0.06279674
0.038267504 0.112415135 0.031306844 0.095338695 -0.011551258 -0.034721736 0.043069415 0.0396157
0.089128315 0.041321415 -0.09711256 -0.045896962 0.015010062 0.044061076 -0.019580591 -0.021744698
-0.09270831 0.046046466 0.05860285 -0.093809076 -0.04227643 0.0337597 -0.10266159 0.03996699
-0.022127597 0.0131906355 -0.039745387 -0.07963208 0.022299433 -0.091608636 -0.046734735 0.02044909
-0.029062087 0.021122469 0.05515269 -0.0878201 -0.057493422 0.005196714 0.07868262 0.009410396
0.021723697 0.05137814 -0.010249535 0.052167594 -0.075147755 -0.013287762 0.016071552 -0.034214497
-0.020617863 -0.010103055 -0.013052616 0.11985372 -0.015795276 0.011103307 -0.07849088 0.04080429
0.05521678 0.0564603 0.09421253 0.027979895 -0.066476524 -0.10970122 0.04507262 0.073632196
-0.035097238 0.032196876 -0.0734254 0.011778606 -0.05883667 -0.0063668154 -0.016748793 0.061028138
0.028138395 -0.032811146 -0.0029528942 -0.101679675 0.024095913 0.06156559 0.02203284 0.039995957
-0.016943125 -0.021759663 0.028749572 0.014414471 0.041067537 0.008027034 -0.015048938 0.108573616
0.009641753 -0.048919693 -0.025353247 0.008453026 -0.0023016718 -0.04063531 -0.031433977 -0.05319858
0.028720526 -0.05598486 -0.045027558 0.036554027 0.0006224704 0.023036145 -0.00017049619 0.06760079
-0.0009840295 0.0665576 0.07916097 -0.037467804 0.027156657 -0.034814175 -0.08069885 -0.06871002
-0.018578269 -0.07274219 -0.10914408 -0.0003557105 0.002806057 0.035917368 -0.087095626 -0.01224842
0.078897096 -0.06851757 -0.10225893 0.03645009 -0.073826626 -0.032339714 -0.075774275 0.036757477
-0.07536917 0.059519522 -0.11598747 0.0014446795 -0.04456839 -0.014816886 -0.09572781 0.0063704588
-0.015475286 -0.05324343 0.09419659 -0.08707773 0.024058297 -0.11172476 0.03302546 0.031217225
0.009284489 -0.041392673 0.0766231 -0.04908981 -0.042500466 0.04759483 0.019655813 0.0091877235
0.013516296 -0.0068500456 -0.015448307 0.049055174 0.048997756 -0.03288274 -0.06443539 -0.028829372
0.017438844 0.07024982 -0.09002614 -0.019662185 0.028814446 -0.038475458 -0.023958964 -0.08863421
0.0459123 -0.04449302 -0.013326233 -0.012596859 0.010253141 -0.0067520165 -0.043855455 -0.07258473
-0.029834595 0.053438142 -0.026813598 0.050257064 -0.066890374 -0.03701559 -0.04412801 -0.029001584
-0.0401399 -0.01962728 0.026917208 -0.0568052 0.05448581 0.06556413 -0.027518814 -0.033706978
-0.027000306 -0.04951198 0.021639876 -0.016576046 -0.06010569 -0.043840487 0.0041763573 -0.04764449
0.06049519 0.035588767 0.030006042 0.0017627516 0.009317107 0.09025418 -0.055426806 0.0058457316
-0.03941298 0.013382089 0.03339118 -0.005356051 0.023504965 -0.0527904 0.049395595 -0.0028713746

l3.weight f4 [6, 256]
00000000: 2eb6 303e 3721 17be f310 f43c 6c99 05be
00000010: e798 6fbe 62ab 25be 7585 3c3e a742 1fbe
00000020: 7fc3 2ebe 8288 16be a7f7 89be 0859 af3b
00000030: 7891 063d 736a 7f3e b971 50be e084 963e
00000040: 4c71 fdbc 2ca1 f63d 570b 16bd e724 a63d
00000050: d4be 81be 16c8 34be 49c5 593e 4410 14be
00000060: 02b2 1ebe ea28 3dbe ec1f 043e b70e 8abe
00000070: 4147 503c 353a 0c3d ae9b 053d d245 99bc
00000080: 8d46 d73d 6198 d83d db96 0bbe 3f52 babe
00000090: fd99 353e 9083 05be 2002 383d be8e a43d
000000a0: 5cc2 5cbe 4daf 29be 328b 393d c013 27be
000000b0: 67d6 eb3e b33a 3b3c 99d5 843d 6cef 5dbc
000000c0: 57ae 87be 6f9f 5d3e c37e 70bc c33c a73d
000000d0: 8e98 12be 36d0 853d b80f 16be 59b4 c9bd
000000e0: 3099 b23e 23f7 74be 70ec 3fbe 4b6f ad3d
000000f0: 9c81 ac3d 93a9 633e 453a 043e b2de 0c3d
00000100: 0663 3a3e bf62 9c3c 18b0 1bbe cbdf 8d3d
00000110: 3d91 4c3e 7ab1 9f3d e6c1 9dbc 27d1 ce3e
00000120: f28d 4bbe 01bd f13d ea33 e7be d729 933e
00000130: 6ea5 433d f65f 8cbc 9cd3 e8bd b736 473e
00000140: 8f50 8f3e 8063 28be 7e98 ed3d e321 b5bd
00000150: 6ee7 3ebe 8495 61be 88d7 f33c 7cae 1ebe
00000160: 7d6a ba3e 0e48 073f 40e9 8c3e 038c ebbd
00000170: 24e4 c0bd b10c cbbd a30d 393d 687a 723e
00000180: 3a96 673c 69a6 3b3d 45a5 67be 2a6b 0dbe
00000190: 8f37 053e f127 6a3e f4a2 773d 6ba0 a5bd
000001a0: c287 d7bd 59a8 c9bd cb1a e83d 8882 b83d
000001b0: fd3b 9a3e 23fb 5ebd 5c4e 29be 4033 b5bd
000001c0: da03 7abe 0adb 5a3e 588f 10be a6ce dc3d
000001d0: d0be 0abe 9a5e febd a219 e53d 7317 9e3b
000001e0: 19c8 903d 7741 3abd 4cbb c23d bd60 12bd
000001f0: 7c5c 3e3e e345 ae3e a0f9 f43d c52c 51bd
00000200: f64e d0bd eb46 abbe 83cc fe38 fcad 7abd
00000210: 007b a53e e40e ffbc 11c0 eebd f140 98bd
00000220: 59e5 a13d b6bd dd3e c39b a1be f9e7 23be
00000230: 3232 0d3e d552 343e 4c15 b9bb a6ca 12be
00000240: da7a fd3d 3435 af3a 79f4 073d 0fc2 a43e
00000250: 18b0 193e af73 69bd 6373 c83d a890 503e
00000260: 35f7 9ebe 5b09 153e b6d2 493e 21c4 2f3d
00000270: b79c 863d 7226 30be 037b 9d3e c8ca 46be
00000280: c503 12bd 360a 2abd 077d 1e3e 661b a739
00000290: 75a1 443d a194 1cbe 18b1 ff3e db76 8abe
000002a0: fb96 89bd 1d85 0ebf 1514 1f3e 44ce 123e
000002b0: fcb4 243d 6cff 45be 2c92 72bd 2dd5 4fbe
000002c0: b7ee 033d 5a8d 1f3e 79de 89be e46a 5b3d
000002d0: ba94 febc f81b 0a3e efcc 10be bcaa ad3c
000002e0: 3a47 bfbe 4512 90bd c6ac d8bd 26b8 4c3d
000002f0: 8d43 0dbd 2c0d 99bd 0aa9 5bbe bacb a9bd
00000300: 61ff 1cbe e505 5ebd 7f15 a73d 68c1 4cbd
00000310: bb31 1e3e 78e0 e93b 0f00 f93b 14b5 4d3e
00000320: c89b 54be 1267 333e 5381 1c3e 2d64 0ebd
00000330: e045 983d 10b7 94bc eb36 e9bd fc5f 8cbd
00000340: 592d d9bd 0920 c6bd 794d 763d b30b bc3e
00000350: 1723 c7be ac0e c3bd 20db a0bd 03d1 1a3d
00000360: a2a9 553e a791 073e 0321 863d 87ea 90bd
00000370: b9e5 4cbd 0a58 7e3e 9365 39be 68e5 f1bd
00000380: 3e14 1ebd d6ef 0fbd ed0d 1fbe 3ae4 1dbe
00000390: bae7 613e 90de 49be c4a3 813d c658 413e
000003a0: a6af 11be 64fa 573e aa58 2fbe dac7 0abe
000003b0: 0414 603d a6af cd3c b306 94be 65b1 87bc
000003c0: 9212 5c3c 426f 043d 66fe 07be c21d 233e
000003d0: b93c 7bbc 58ee 7dbe b2fe 60bc eb92 67be
000003e0: 4bcf 4e3e b55a 573e 06a7 30be d3cf 74be
000003f0: f417 ec3d 602a 6a3e 55fc 7d3e 9218 3c3e
0.17256996 -0.14758764 0.029793238 -0.13046807 -0.23398171 -0.16178659 0.18410285 -0.1555277
-0.17066763 -0.14700511 -0.26946756 0.0053511895 0.032853574 0.24942951 -0.20355882 0.2939825
-0.030937813 0.1204246 -0.03663191 0.08112507 -0.25340903 -0.17654452 0.21266665 -0.1445933
-0.15497592 -0.18472639 0.12902802 -0.26964352 0.012712301 0.034235198 0.03261917 -0.01871005
0.10511503 0.10575939 -0.13631766 -0.36390874 0.17734523 -0.13038468 0.0449239 0.080350384
-0.21558517 -0.16570778 0.045298763 -0.16316128 0.46062014 0.011427569 0.06486053 -0.013545852
-0.26500198 0.2164285 -0.01467866 0.08165886 -0.14316007 0.06533854 -0.14654434 -0.09848852
0.34882498 -0.239224 -0.18742537 0.08468493 0.084231585 0.22232656 0.12912853 0.034392066
0.18201837 0.019090055 -0.15203893 0.06927451 0.19977279 0.07797523 -0.019257497 0.40393946
-0.19878367 0.11803628 -0.45156795 0.2874286 0.047765188 -0.017135601 -0.11368486 0.19454466
0.2799115 -0.16444206 0.11601351 -0.08844354 -0.18642971 -0.22029692 0.02976586 -0.15496248
0.3640937 0.5284432 0.27521706 -0.115013145 -0.09418514 -0.0991453 0.04517902 0.23679507
0.014134938 0.045812998 -0.22621639 -0.13810411 0.13009475 0.22866799 0.06045814 -0.08087238
-0.105239406 -0.09846563 0.11333235 0.09009272 0.30123892 -0.05443872 -0.16533798 -0.08847666
-0.24415532 0.2137262 -0.14117181 0.107816026 -0.13549352 -0.124203876 0.1118653 0.0048245727
0.070694156 -0.04547259 0.0950838 -0.035736788 0.18589967 0.34037694 0.11961675 -0.051068086
-0.101713106 -0.33452544 0.00012149757 -0.06120108 0.32320404 -0.03113503 -0.116577275 -0.074342616
0.07905073 0.433088 -0.3156415 -0.1600646 0.13788679 0.17609723 -0.0056482907 -0.14335117
0.12376948 0.0013367296 0.03319213 0.32179305 0.1500858 -0.05699509 0.09787633 0.20367682
-0.3104798 0.1455435 0.19709286 0.042911652 0.0657286 -0.17202166 0.30757913 -0.19413292
-0.035648126 -0.041513644 0.15477382 0.00031873136 0.04800554 -0.15291072 0.499398 -0.27043805
-0.0671825 -0.55671865 0.15535004 0.14336497 0.040211663 -0.19335717 -0.05922143 -0.20296164
0.032210078 0.15581265 -0.26927546 0.053568736 -0.031076778 0.13487232 -0.14140676 0.021199577
-0.3735903 -0.07034735 -0.10579829 0.049980305 -0.03448825 -0.074732155 -0.21451202 -0.08290811
-0.15331794 -0.05420484 0.08158397 -0.049989134 0.15448658 0.0071373545 0.007598884 0.20088607
-0.20762551 0.17519787 0.15283708 -0.034763504 0.074352026 -0.018153697 -0.11387428 -0.06854245
-0.106043525 -0.09674079 0.060132477 0.36727676 -0.3889396 -0.09524283 -0.07854295 0.037796985
0.20865491 0.13239156 0.06549265 -0.070759825 -0.050023768 0.24838272 -0.18105154 -0.11811334
-0.038593523 -0.035140835 -0.15532656 -0.15419093 0.22061053 -0.19713807 0.06330064 0.1888152
-0.14227161 0.2109161 -0.17123666 -0.135528 0.05470659 0.02510817 -0.2891136 -0.01656408
0.013432162 0.032332666 -0.13280639 0.1592932 -0.015334302 -0.24797952 -0.013732599 -0.22614639
0.20196263 0.21030696 -0.17251214 -0.23907404 0.11528006 0.22867727 0.24803288 0.18368748

l3.bias f4 [6]
00000000: 1ce1 26be d406 08be 455f ebbd 41c8 17bd
00000010: f458 debd 3e09 a2bd
-0.1629681 -0.13283855 -0.114927806 -0.03705621 -0.1085681 -0.07911919
